miaoyuyao/week13/ner/model_output/epoch_20.pth (torch, 176728 bytes, 4 tensors)

base_model.model.embedding.lora_embedding_A.default f4 [8, 4623]
0.0 -0.03127421 0.0 0.03200662 0.0 0.0 0.0 0.121952355
0.0 0.11599673 0.018945148 0.06345895 0.0 0.07926536 0.15542404 0.18577191
0.0 0.10831251 0.054553695 0.042587157 0.03711491 0.08622419 0.076750346 0.008998076
0.029591508 0.105924495 0.17457958 -0.00714454 0.15852632 0.0 0.0 0.0
0.095953375 0.0 0.012000129 -0.03512206 0.10418744 0.042724174 0.0 0.033298742
0.0 0.0 -0.001669564 0.0 0.0 0.0 0.0 0.0
-0.010827601 0.0 0.0 0.0 -0.021508789 0.058940038 0.0 -0.031642947
0.0 0.07742264 0.0 0.0 0.0 0.0 0.0 0.0
0.0 0.0 0.0 0.0 0.0 0.0 0.0 0.0
0.0 0.0 0.0 0.0 0.16730003 0.0 0.0 0.0
0.0 0.0 0.0 0.0 0.0 0.0 0.0 0.0
0.0 0.0 0.0 0.0 0.0 0.0 0.0 0.0
0.0 0.005036601 0.0 0.0 0.0 0.0 0.0 0.0
0.0 0.0 0.0 0.024936004 0.0 0.12557702 0.13744529 0.065014444
0.028727947 0.0 -0.007583641 0.0 0.006314885 0.0 0.0 0.0
0.0 0.0 0.0 0.0 0.0 0.0 0.07154964 0.0
0.0 0.0 0.0 0.0 0.0 0.0 0.0 0.0
0.116258994 0.0 0.0 0.0 0.0 0.0 0.1846544 0.0
0.2362628 0.23293811 0.07000877 0.05019166 0.041965548 0.03851101 0.0 0.0
0.0 0.0 0.0 0.0 0.0 0.082538895 -0.08349813 0.032453265
0.12664698 0.17517146 0.061895046 -0.02998618 0.08038672 0.109686136 0.107744604 0.033067536
0.009547469 0.07079204 -0.03913475 0.12207379 0.053428296 0.046972353 0.04358864 0.07403625
0.054247834 0.0 0.03808313 0.30260807 0.087560035 0.0 0.0 0.15253712
0.0 -0.083585836 0.15117237 0.0 0.21419767 0.054548685 -0.032677457 0.07110379
0.0415974 -0.113085605 0.085181855 -0.025720222 0.02644197 0.05225334 -0.02521259 0.035437215
-0.027759152 0.0 0.13553159 0.09263439 0.07308908 0.16259581 0.13968879 -0.08103121
0.0 0.14049602 -0.02923162 0.013248527 0.061084848 0.11845926 0.053421043 0.049948078
-0.049327802 0.07127298 0.03165384 0.0 0.051598698 0.09884403 0.093962796 0.01672351
-0.011219061 0.09314748 0.07479901 -0.07203443 0.12355628 0.14403482 0.03232082 0.0
0.04769509 0.08383002 0.0 0.11213182 0.0 0.055606734 0.0 0.07782152
0.06890387 -0.055995334 0.1677408 0.03342457 0.010441319 -0.09275601 0.1713696 0.05611521
0.0 0.057412263 0.10981717 -0.03407408 -0.12038656 0.0 0.10415709 0.041302986
00000000: 0000 0000 6319 00bd 0000 0000 6019 033d
00000010: 0000 0000 0000 0000 0000 0000 28c2 f93d
00000020: 0000 0000 b28f ed3d db32 9b3c c4f6 813d
00000030: 0000 0000 e155 a23d 7b27 1f3e fe3a 3e3e
00000040: 0000 0000 f3d2 dd3d b273 5f3d df6f 2e3d
00000050: ce05 183d 4f96 b03d 492f 9d3d ab6c 133c
00000060: e469 f23c f1ee d83d fdc4 323e bf1c eabb
00000070: b954 223e 0000 0000 0000 0000 0000 0000
00000080: 3483 c43d 0000 0000 309c 443c 26dc 0fbd
00000090: 3960 d53d 8bff 2e3d 0000 0000 4364 083d
000000a0: 0000 0000 0000 0000 46d5 daba 0000 0000
000000b0: 0000 0000 0000 0000 0000 0000 0000 0000
000000c0: 4066 31bc 0000 0000 0000 0000 0000 0000
000000d0: 3333 b0bc 1c6b 713d 0000 0000 099c 01bd
000000e0: 0000 0000 c38f 9e3d 0000 0000 0000 0000
000000f0: 0000 0000 0000 0000 0000 0000 0000 0000
00000100: 0000 0000 0000 0000 0000 0000 0000 0000
00000110: 0000 0000 0000 0000 0000 0000 0000 0000
00000120: 0000 0000 0000 0000 0000 0000 0000 0000
00000130: b350 2b3e 0000 0000 0000 0000 0000 0000
00000140: 0000 0000 0000 0000 0000 0000 0000 0000
00000150: 0000 0000 0000 0000 0000 0000 0000 0000
00000160: 0000 0000 0000 0000 0000 0000 0000 0000
00000170: 0000 0000 0000 0000 0000 0000 0000 0000
00000180: 0000 0000 120a a53b 0000 0000 0000 0000
00000190: 0000 0000 0000 0000 0000 0000 0000 0000
000001a0: 0000 0000 0000 0000 0000 0000 9746 cc3c
000001b0: 0000 0000 4397 003e 75be 0c3e 4b26 853d
000001c0: df56 eb3c 0000 0000 3180 f8bb 0000 0000
000001d0: 18ed ce3b 0000 0000 0000 0000 0000 0000
000001e0: 0000 0000 0000 0000 0000 0000 0000 0000
000001f0: 0000 0000 0000 0000 9e88 923d 0000 0000
00000200: 0000 0000 0000 0000 0000 0000 0000 0000
00000210: 0000 0000 0000 0000 0000 0000 0000 0000
00000220: 3219 ee3d 0000 0000 0000 0000 0000 0000
00000230: 0000 0000 0000 0000 0b16 3d3e 0000 0000
00000240: e0ee 713e 5487 6e3e c260 8f3d c595 4d3d
00000250: 11e4 2b3d b9bd 1d3d 0000 0000 0000 0000
00000260: 0000 0000 0000 0000 0000 0000 0000 0000
00000270: 0000 0000 270a a93d 1101 abbd b7ed 043d
00000280: bfaf 013e 2660 333e a985 7d3d 94a5 f5bc
00000290: cba1 a43d 20a3 e03d 34a9 dc3d d371 073d
000002a0: fd6c 1c3c 6bfb 903d c24b 20bd d301 fa3d
000002b0: a1d7 5a3d 1566 403d 008a 323d 51a0 973d
000002c0: fa32 5e3d 0000 0000 0efd 1b3d 72ef 9a3e
000002d0: ad52 b33d 0000 0000 0000 0000 b132 1c3e
000002e0: 0000 0000 0d2f abbd eecc 1a3e 0000 0000
000002f0: a256 5b3e 716e 5f3d ccd8 05bd dd9e 913d
00000300: 0962 2a3d 6d99 e7bd d373 ae3d 37b3 d2bc
00000310: d59c d83c 9907 563d a28a cebc 9d26 113d
00000320: 2967 e3bc 0000 0000 cbc8 0a3e 19b7 bd3d
00000330: baaf 953d 847f 263e 940a 0f3e b1f3 a5bd
00000340: 0000 0000 30de 0f3e 2677 efbc 5a10 593c
00000350: 1b34 7a3d c59a f23d 06d0 5a3d 5b96 4c3d
00000360: f30b 4abd 91f7 913d 75a7 013d 0000 0000
00000370: 2859 533d bd6e ca3d 916f c03d beff 883c
00000380: 27d0 37bc 1bc4 be3d 3930 993d ca86 93bd
00000390: 130b fd3d dd7d 133e d662 043d 0000 0000
000003a0: ed5b 433d 13af ab3d 0000 0000 5ea5 e53d
000003b0: 0000 0000 e3c3 633d 0000 0000 e460 9f3d
000003c0: 791d 8d3d 5d5b 65bd 3fc4 2b3e 34e8 083d
000003d0: 1112 2b3c ddf6 bdbd 837b 2f3e 10d9 653d
000003e0: 0000 0000 1f29 6b3d d3e7 e03d 4391 0bbd
000003f0: 3b8d f6bd 0000 0000 5050 d53d 522d 293d

base_model.model.embedding.lora_embedding_B.default f4 [256, 8]
-0.8612351 0.5848716 -1.4115528 -1.0072334 -0.5982252 -1.4109706 2.996861 1.150529
-1.6047361 -0.5614012 1.3057445 -1.1893337 -2.1719854 1.0129426 1.0096469 -0.59835887
-0.93322694 0.11467102 0.3227066 0.08925159 -0.5413537 -0.2520392 0.41766638 -0.418798
0.06679557 0.47377267 -0.77140373 -0.17242186 -0.12542126 -0.40221977 0.95093054 -1.0493537
1.2081776 -0.44896567 0.6331047 -0.6118885 -1.4326319 0.27211338 0.87362 2.3801394
0.39806443 -0.23725472 1.0276763 2.295321 -0.7299673 0.22292255 -0.556805 -0.52338946
0.27086285 -0.4366162 -1.0850847 0.9639868 0.96010137 -0.19492732 -0.61871713 0.01411219
0.32954308 -0.009571392 -0.822591 -0.43797934 0.32395077 1.4363471 0.4564519 1.5271189
1.1223547 -0.6992791 -0.4166381 -2.6727233 -3.2017584 -3.0021262 1.1313972 -0.97965086
-0.307074 -1.300058 0.012086086 3.0464232 -1.2954289 0.5317779 -1.3553863 0.25656
0.09678361 -2.2684646 0.17595275 0.04788574 1.4295555 0.0112984255 -3.5427551 2.4112556
-0.9267237 -0.4736196 1.0868526 1.0393709 1.5788637 0.6800662 -1.0502986 -1.5961177
2.0483072 -1.0052606 -1.2561128 0.22659987 -3.456618 0.8295221 1.3421967 -1.8681235
-0.2360827 -1.4657607 -0.4863727 0.7406921 -1.053769 1.8635571 1.3659472 -2.4507031
-2.1406853 0.21576703 -1.331142 -0.34842297 -0.65456724 0.5830734 -0.34780362 0.6759725
-0.086960234 0.024190275 1.8111182 2.548921 -1.5530868 -0.20856734 -0.21755627 1.9500173
0.56457335 2.6032321 -2.1274607 -0.971397 -0.531294 -3.1851227 -0.517781 0.19851707
0.39645594 0.3316088 -2.0720825 -0.5490068 0.21510425 -0.8699244 -0.83027744 -2.0038824
-0.3001989 0.92759925 1.057531 -1.6647118 1.3067245 -0.4395678 -0.22755477 0.833291
0.5416465 1.5942229 -0.45293963 1.4127092 -2.0842211 0.6842567 0.13079284 0.20126188
-0.14489949 -0.9632204 -0.9665762 -1.1373016 2.3200111 -1.3242178 -1.2734954 1.0219865
0.015888672 -1.7103437 -0.7159772 1.3241621 -1.0587726 -1.2229285 3.4151192 -0.06797008
0.5412109 1.8016329 -0.18355541 -1.0453272 -2.7423584 1.0033886 -0.52401245 -1.3977093
1.04909 0.14378044 -0.8172666 2.0807438 1.022732 -0.47316563 -0.15736493 0.12259677
0.941138 1.1182591 -0.13904822 -0.81172967 -1.4709381 -0.3042596 0.5983915 0.61658883
-0.45994172 -0.4526871 -0.215949 2.0780916 -1.5941234 1.2989503 -0.09059373 0.2177482
0.25057992 0.13986813 1.6170073 -0.60632896 0.33065945 -1.3761407 0.6299124 -2.0087533
0.3557471 -0.21642596 0.4704883 0.15243572 -0.6557218 0.07071245 0.8972985 0.34773177
-1.1013031 -0.25342706 -0.7384234 0.4009349 0.9435613 -1.6232071 -0.8473225 -0.210959
-0.37588188 -0.97894377 -1.6601874 -0.09058496 -1.7385993 -1.7126471 0.26067615 0.5896252
-0.66065717 -0.53602874 -1.2983341 0.38541055 -0.66109544 1.1563154 -1.4150305 -3.3217144
0.13792907 0.83587754 -1.0214369 -0.8643018 -1.0593356 -2.2426448 -1.1534998 2.0198317
00000000: e779 5cbf 25ba 153f c3ad b4bf 06ed 80bf
00000010: 4925 19bf af9a b4bf 92cc 3f40 8944 933f
00000020: fe67 cdbf fdb7 0fbf a322 a73f 163c 98bf
00000030: cf01 0bc0 1aa8 813f 1c3c 813f 0c2e 19bf
00000040: f6e7 6ebf a4d8 ea3d cd39 a53e 8ac9 b63d
00000050: 2896 0abf 480b 81be 5ed8 d53e b16c d6be
00000060: 1ecc 883d 5592 f23e b77a 45bf 5b8f 30be
00000070: 6e6e 00be c0ef cdbe 2f70 733f 3951 86bf
00000080: 90a5 9a3f d4de e5be 2613 223f baa4 1cbf
00000090: 7b60 b7bf 7252 8b3e 8fa5 5f3f 3454 1840
000000a0: 1acf cb3e e7f2 72be e68a 833f 8ae6 1240
000000b0: 23df 3abf cf45 643e c68a 0ebf dafc 05bf
000000c0: 89ae 8a3e 298c dfbe 0ee4 8abf d7c7 763f
000000d0: 34c9 753f 079b 47be 3f64 1ebf d136 673c
000000e0: dfb9 a83e 54d1 1cbc 5395 52bf d43e e0be
000000f0: e0dc a53e 39da b73f 10b4 e93e a278 c33f
00000100: 52a9 8f3f f503 33bf 9751 d5be e60d 2bc0
00000110: 9ce9 4cc0 d622 40c0 a0d1 903f 66ca 7abf
00000120: ce38 9dbe 4d68 a6bf b804 463c 99f8 4240
00000130: 9dd0 a5bf 9922 083f 4c7d adbf d55b 833e
00000140: 7c36 c63d 862e 11c0 f52c 343e d623 443d
00000150: adfb b63f 081d 393c 80bc 62c0 0352 1a40
00000160: c43d 6dbf 457e f2be fc1d 8b3f 1b0a 853f
00000170: 3518 ca3f d218 2e3f 2f70 86bf 964d ccbf
00000180: 7717 0340 61ac 80bf 4ec8 a0bf cc09 683e
00000190: 3b39 5dc0 8f5b 543f 1acd ab3f ac1e efbf
000001a0: aabf 71be 0c9e bbbf d805 f9be ff9d 3d3f
000001b0: e7e1 86bf 0a89 ee3f 5cd7 ae3f 52d8 1cc0
000001c0: fd00 09c0 08f2 5c3e dc62 aabf 7f64 b2be
000001d0: b891 27bf 4c44 153f 5113 b2be 890c 2d3f
000001e0: 3518 b2bd af2a c63c b9d2 e73f 8621 2340
000001f0: 8ccb c6bf ad92 55be 12c7 5ebe 2b9a f93f
00000200: e187 103f 5b9b 2640 5128 08c0 79ad 78bf
00000210: e202 08bf 0dd9 4bc0 4c8d 04bf 0f48 4b3e
00000220: 46fc ca3e a1c8 a93e 009d 04c0 b68b 0cbf
00000230: 4a44 5c3e 5eb3 5ebf 108d 54bf 9c3f 00c0
00000240: acb3 99be 2577 6d3f 2d5d 873f 4715 d5bf
00000250: c042 a73f 080f e1be 1e04 69be 8f52 553f
00000260: 58a9 0a3f 7f0f cc3f b4e7 e7be a8d3 b43f
00000270: e163 05c0 722b 2f3f 8fee 053e 9817 4e3e
00000280: 8860 14be 9d95 76bf 8a71 77bf 1993 91bf
00000290: 107b 1440 f87f a9bf e601 a3bf 74d0 823f
000002a0: f628 823c 8bec dabf 484a 37bf 257e a93f
000002b0: dc85 87bf ec88 9cbf 5091 5a40 e633 8bbd
000002c0: cc8c 0a3f e89b e63f f3f5 3bbe 48cd 85bf
000002d0: cd82 2fc0 0a6f 803f ae25 06bf 23e8 b2bf
000002e0: 9548 863f 2e3b 133e 6238 51bf e82a 0540
000002f0: e2e8 823f c442 f2be 4624 21be 0414 fb3d
00000300: 6cee 703f 1d23 8f3f a862 0ebe 84cd 4fbf
00000310: b347 bcbf eac7 9bbe 2f30 193f c4d8 1d3f
00000320: 7b7d ebbe 9bc6 e7be bc21 5dbe 74ff 0440
00000330: 3c0c ccbf 0144 a63f 3589 b9bd 62f9 5e3e
00000340: 034c 803e 9739 0f3e 18fa ce3f 6038 1bbf
00000350: 324c a93e 6125 b0bf f041 213f 6a8f 00c0
00000360: 7c24 b63e c49e 5dbe d8e3 f03e 1c18 1c3e
00000370: 62dd 27bf b0d1 903d 5bb5 653f e609 b23e
00000380: 80f7 8cbf 31c1 81be 5109 3dbf 5747 cd3e
00000390: 3c8d 713f 40c5 cfbf 21ea 58bf a305 58be
000003a0: 9773 c0be 0f9c 7abf 0581 d4bf 9c84 b9bd
000003b0: 6c8a debf 0538 dbbf 5877 853e adf1 163f
000003c0: d420 29bf 2e39 09bf d02f a6bf 8854 c53e
000003d0: 8d3d 29bf 2502 943f b81f b5bf f896 54c0
000003e0: 473d 0d3e 12fc 553f 72be 82bf e242 5dbf
000003f0: 4f98 87bf 7e87 0fc0 e2a5 93bf ec44 0140

base_model.model.classify.weight f4 [9, 512]
0.020520799 -0.08491548 0.07107891 -0.1498648 0.08487553 0.14002654 0.1314767 -0.030916462
0.1665388 -0.5992423 -0.010139633 -0.6683335 -0.29535908 0.11662173 0.030256985 -0.21197136
-0.012417134 0.5337977 0.1670032 0.09495691 0.37341532 0.10116006 -0.23593383 -0.064333215
0.09815949 -0.18356904 -0.035797745 -0.32862175 -0.2259096 -0.077777915 -0.07087504 0.20894983
-0.41748247 0.05048527 0.19731264 -0.33381832 -0.16289024 0.028240884 -0.102408014 -0.04169755
0.0037548577 0.2694495 0.23341678 0.12660788 0.14160883 0.19449699 -0.20814072 0.13201159
0.47923794 -0.26138198 0.0064166966 0.48287904 0.1344669 -0.13520215 0.032239646 -0.18360618
0.41221353 0.17922613 -0.15427977 -0.27505007 0.35058615 0.062292296 -0.42468914 0.017194072
0.19996187 -0.07329727 -0.08129704 -0.028064767 -0.23747608 -0.14917089 0.08226681 0.21578926
0.25952995 0.07703022 0.09982412 0.34710076 0.3469589 0.109083444 0.17574134 -0.08057356
-0.17907646 -0.41310835 -0.5939443 -0.035853438 -0.44475794 -0.20641604 -0.003440593 0.48279035
-0.07094087 0.043542724 -0.20749232 0.37726718 0.25368148 0.63453394 -0.36697352 0.068966426
0.046262626 0.49109507 -0.37371457 -0.26298168 0.0028156922 0.03660461 -0.124981724 0.33318552
0.05277061 0.25319442 -0.52942383 -0.014519184 -0.049181696 -0.016607331 -0.29293397 0.09056589
-0.005441012 0.10337842 -0.08441787 -0.116521336 -0.15038483 0.14612247 0.037481137 0.3015607
0.33963153 0.0311665 -0.1344073 -0.3141461 -0.25416148 -0.22391371 -0.38396242 0.037750136
-0.2881745 0.08603134 0.046465732 -0.1765521 0.42577985 0.54039377 -0.21638739 -0.05338883
0.07402106 0.10851211 0.28712553 0.09888079 -0.0042683035 -0.2025433 -0.29274258 -0.19597329
0.2841455 0.05401968 -0.08999128 -0.26498416 -0.2687121 0.110912815 0.024886958 0.048459496
-0.063684255 0.09272083 0.041466095 -0.0407193 0.08358284 -0.25054166 -0.18092114 -0.21660489
-0.027104266 0.32313251 0.102335036 -0.2675311 0.13983475 -0.019804282 -0.026447758 -0.083697826
0.017486146 0.30848134 0.10007192 -0.06780781 0.013192933 -0.32497987 0.11980491 -0.02421401
0.114674106 -0.056952167 -0.012219129 0.7161151 0.22020058 -0.26983622 0.07714208 -0.01754499
0.053312078 0.09781045 -0.21909793 -0.09489511 -0.064981505 0.14193882 -0.10014035 -0.199498
0.076610655 0.052917723 -0.26980245 0.7540826 -0.50250167 -0.30781698 -0.39794505 -0.295725
0.13307062 0.09468421 -0.3888928 -0.10362801 0.10348848 0.18350543 0.30807763 -0.41639882
-0.31119683 0.34242508 0.051369563 0.16826612 0.12937337 -0.23439263 -0.125831 0.10967214
-0.19463758 -0.022993017 -0.37048134 0.50132096 -0.13701612 0.053169977 -0.21531029 0.031923242
0.27093512 -0.037745222 0.0895729 0.14139736 -0.14228171 0.40738556 0.506623 0.1818758
0.6604111 0.15055485 -0.3237723 0.6990598 0.025400234 -0.16014755 0.42562562 -0.1707418
-0.42277628 0.1931579 0.019909758 0.33050454 0.19488233 -0.057231884 0.57632804 0.100393705
-0.32638264 0.23301843 -0.03119254 0.43896273 -0.8295373 -0.4172062 0.314836 -0.20208527
00000000: 3c1b a83c 2be8 adbd d291 913d 2876 19be
00000010: 39d3 ad3d 1e63 0f3e d4a1 063e 8544 fdbc
00000020: 2689 2a3e f267 19bf b420 26bc e717 2bbf
00000030: 4e39 97be 60d7 ee3d 7fdd f73c 050f 59be
00000040: 3c71 4bbc f7a6 083f e302 2b3e c578 c23d
00000050: 4b30 bf3e 012d cf3d a398 71be 22c1 83bd
00000060: d807 c93d 86f9 3bbe a8a0 12bd 1c41 a8be
00000070: d954 67be 074a 9fbd ef26 91bd f2f6 553e
00000080: 43c0 d5be a4c9 4e3d 530c 4a3e 3cea aabe
00000090: b3cc 26be 6d59 e73c 4bbb d1bd 0dcb 2abd
000000a0: 0f14 763b 49f5 893e cf04 6f3e 7fa5 013e
000000b0: e801 113e 382a 473e d722 55be 0c2e 073e
000000c0: ad5e f53e dcd3 85be 2743 d23b ec3b f73e
000000d0: b1b1 093e 6f72 0abe b80d 043d 4203 3cbe
000000e0: a70d d33e 0e87 373e 84fb 1dbe 5dd3 8cbe
000000f0: 0780 b33e 3526 7f3d db70 d9be 95da 8c3c
00000100: cec2 4c3e e11c 96bd 107f a6bd 15e8 e5bc
00000110: ee2c 73be 41c0 18be 807b a83d dcf7 5c3e
00000120: 1ce1 843e 05c2 9d3d 9770 cc3d 31b7 b13e
00000130: 99a4 b13e 2467 df3d 8af5 333e c003 a5bd
00000140: d25f 37be f082 d3be bc0c 18bf 0edb 12bd
00000150: 50b7 e3be ba5e 53be 927b 61bb 4c30 f73e
00000160: 7249 91bd db59 323d de78 54be 2a29 c13e
00000170: 8ae2 813e d170 223f f4e3 bbbe 453e 8d3d
00000180: e17d 3d3d d070 fb3e 8457 bfbe 89a5 86be
00000190: 7a87 383b b7ee 153d 6bf6 ffbd 4b97 aa3e
000001a0: ff25 583d b3a2 813e 5288 07bf dfe1 6dbc
000001b0: bf72 49bd 190c 88bc 71fb 95be 9c7a b93d
000001c0: 844a b2bb 11b8 d33d 47e3 acbd bda2 eebd
000001d0: 7bfe 19be 21a1 153e d285 193d 2a66 9a3e
000001e0: 2fe4 ad3e e350 ff3c 11a2 09be c2d7 a0be
000001f0: 7421 82be a349 65be b996 c4be e39f 1a3d
00000200: 9c8b 93be 3331 b03d da52 3e3d 13ca 34be
00000210: d1ff d93e 3f57 0a3f a894 5dbe 3fae 5abd
00000220: 5a98 973d 993b de3d 1e02 933e 0382 ca3d
00000230: 20dd 8bbb 8367 4fbe 5be2 95be 39ad 48be
00000240: 857b 913e bd43 5d3d 594d b8bd 01ac 87be
00000250: a294 89be 4226 e33d bcdf cb3c 777d 463d
00000260: e46c 82bd 6be4 bd3d 5ad8 293d 48c9 26bd
00000270: 7b2d ab3d ff46 80be 6443 39be accd 5dbe
00000280: c409 debc a071 a53e 0895 d13d d6f9 88be
00000290: d730 0f3e 973c a2bc f8a8 d8bc c469 abbd
000002a0: 1b3f 8f3c 44f1 9d3e 82f2 cc3d d2de 8abd
000002b0: 2c27 583c c363 a6be 475c f53d 765c c6bc
000002c0: 42da ea3d ad46 69bd be32 48bc 5253 373f
000002d0: 437c 613e f927 8abe abfc 9d3d 83ba 8fbc
000002e0: c45d 5a3d d850 c83d 355b 60be 5e58 c2bd
000002f0: 0615 85bd 6958 113e 6216 cdbd 3449 4cbe
00000300: 0ce6 9c3d 41c0 583d 8c23 8abe 8f0b 413f
00000310: f3a3 00bf 309a 9dbe 74bf cbbe 4469 97be
00000320: aa43 083e cce9 c13d f51c c7be ec3a d4bd
00000330: c5f1 d33d d9e8 3b3e 5abc 9d3e 3a32 d5be
00000340: 3155 9fbe 5752 af3e e468 523d f44d 2c3e
00000350: 747a 043e 9f04 70be d7d9 00be c99b e03d
00000360: 134f 47be da5b bcbc bbaf bdbe 9256 003f
00000370: f44d 0cbe c3c8 593d 4d7a 5cbe f2c1 023d
00000380: 02b8 8a3e bc9a 1abd ff71 b73d 78ca 103e
00000390: 4cb2 11be d794 d03e 0cb2 013f a63d 3a3e
000003a0: b410 293f 0d2b 1a3e 7cc5 a5be 95f5 323f
000003b0: 2714 d03c b8fd 23be 9aeb d93e f0d6 2ebe
000003c0: 2276 d8be 2fcb 453e ca19 a33c e437 a93e
000003d0: 3c8f 473e fb6b 6abd 3c8a 133f 379b cd3d
000003e0: a01b a7be 629c 6e3e 7f87 ffbc b9bf e03e
000003f0: 8e5c 54bf 0d9c d5be 2f32 a13e 71ef 4ebe

base_model.model.classify.bias f4 [9]
-0.070305616 -0.070840746 -0.09391746 -0.14335018 -0.04757468 -0.054205306 -0.0862913 -0.16011558
0.10704425
00000000: 64fc 8fbd f414 91bd cc57 c0bd 64ca 12be
00000010: abdd 42bd 6206 5ebd 7eb9 b0bd 57f5 23be
00000020: 043a db3d
