岳靖渊/week13/epoch_20.pth (torch, 925476 bytes, 38 tensors)

base_model.model.bert.encoder.layer.0.attention.self.query.lora_A.default.weight f4 [8, 768]
000000 a3 5f 27 bd b3 4c 96 3c 44 1c b8 bc 3c 8e 00 3d
       -0.04086269 0.01834712 -0.022474416 0.031385645
000010 5f 5f cb ba a8 81 48 3c a2 c5 c3 3c a1 da a2 bc
       -0.0015516094 0.012237944 0.02389795 -0.019879641
000020 56 27 04 3d 69 17 86 39 9f 2b c1 bc ee de 40 3c
       0.032264076 0.00025575914 -0.02358037 0.011771901
000030 0e 06 a6 3c 2e a1 9e 3c 0a 0a 1d 3d c5 3e ef bc
       0.020266559 0.019363966 0.038339652 -0.029204736
000040 ab 1d 09 bd d7 f5 a1 bc 5b d6 e1 bc a1 72 49 3c
       -0.03347556 -0.019770546 -0.027568033 0.012295396
000050 c4 fb df 3c e3 fb b7 3b dd 74 39 3c a9 fd da bc
       0.02734173 0.005614744 0.011319366 -0.026732283
000060 10 fd 17 b9 35 fa 57 bc 5f ca ba bc 47 a3 4e bb
       -0.00014494755 -0.013182213 -0.022801576 -0.0031530426
000070 44 c1 ac 3b 5a b6 bf bb b0 b0 9a 3c af ca dd 3c
       0.0052720625 -0.0058505954 0.01888308 0.027074186
000080 da 54 e7 bc 59 8f 58 bc 03 08 18 3d e1 5c 9a 3b
       -0.028238703 -0.0132177705 0.037117016 0.004710779
000090 fe 86 01 bd b8 b4 aa bc 00 97 b8 3c db f5 e9 3c
       -0.03162288 -0.020838127 0.02253294 0.028559616
0000a0 43 27 c2 3c 1c 2d 1e 3d a2 50 96 bc 83 dd 7f bc
       0.023700362 0.03861724 -0.018348996 -0.015616777
0000b0 25 b1 0a 3c 9e f4 cc bc 62 c8 dc ba 73 aa c5 bc
       0.008465086 -0.025018986 -0.0016844387 -0.024129128
0000c0 ae ea 28 bd 64 f1 8f 3c d1 e8 1d 3d 1c d8 69 bc
       -0.041239433 0.017571159 0.03855211 -0.014272716
0000d0 4c 31 a8 bb e7 c6 f6 bc b8 bc 10 3d 80 40 2f bc
       -0.00513283 -0.03012414 0.035336226 -0.01069653
0000e0 c5 fb ea 3a 48 c3 85 3c df ac 3c bc 48 23 90 bc
       0.0017927816 0.016328469 -0.011515825 -0.017594948
0000f0 36 3a 17 bd 4c de a3 3c 5c 43 0f 3d 85 d6 3a bc
       -0.03692075 0.02000346 0.03497635 -0.0114036845
000100 a3 09 24 bd 3c 25 a9 bc bd e2 ba 3b 92 db 13 bd
       -0.040048253 -0.020647638 0.005703299 -0.03609807
000110 36 b1 72 3c 84 31 33 bd fb d6 09 3d f3 fd c1 bc
       0.014812758 -0.043748394 0.033652287 -0.023680663
000120 3e 4e d1 bc cd e8 0d 3d f7 e4 80 3a 93 23 82 bc
       -0.025550004 0.034645844 0.0009833862 -0.015886104
000130 5f 6e 7e 3c 4e 62 80 bb c5 d3 33 3d af d3 81 3c
       0.015529244 -0.003917969 0.04390313 0.015848009
000140 2f b4 14 bd e7 cc 50 3c ee d9 f2 bc 0e 8d 91 bc
       -0.03630465 0.012744165 -0.029644933 -0.017767455
000150 8d 5b bd 3c 8a 5b bb 3b 1b 19 62 3c 56 fa be 3c
       0.023114944 0.0057176994 0.013799931 0.023312729
000160 df a4 22 bd 7c ff cf bb 8e 65 d9 3b 09 78 82 bc
       -0.039708015 -0.006347595 0.0066344207 -0.015926378
000170 cd 02 bd 3c 04 94 b6 3c 86 ca 77 bc b4 c5 93 bc
       0.023072625 0.022287376 -0.015123969 -0.018038608
000180 23 23 19 bb 9b 71 48 bd f5 93 27 3d b4 e9 0b bc
       -0.002336689 -0.048936468 0.040912587 -0.008539606
000190 3e 7c b7 3a 48 f0 4b 3b 1b 30 0e 3c 8d e5 45 bb
       0.0013998819 0.003111856 0.008678461 -0.0030196637
0001a0 fb 8d 2d 3c ad 3b 10 bd eb fa 5c 3c 44 c6 98 bc
       0.010592933 -0.03521316 0.013487558 -0.018649228
0001b0 75 c7 16 bd 60 af 55 3c ae 05 6b 3b e6 c3 de bc
       -0.03681131 0.013042301 0.003586154 -0.027193021
0001c0 e0 c1 15 3d 2c 34 69 bc 94 db e0 3a 75 d9 27 3c
       0.036561847 -0.01423363 0.0017155283 0.010244717
0001d0 62 05 4d 3c c7 0e 84 bb a0 61 2d bc c6 81 c6 ba
       0.01251349 -0.004030082 -0.010582358 -0.0015144877
0001e0 53 51 c1 3b e3 a2 8c 3b 52 a4 a0 bc b0 c3 c3 3c
       0.005899587 0.0042918785 -0.019609604 0.023897022
0001f0 61 7d d6 3a d9 73 cd bb 4f 07 c6 bc d1 e3 ba bc
       0.001636427 -0.0062699136 -0.024173407 -0.02281371
000200 0d 91 57 3d 36 c1 a9 3c 4e d8 1f 3b b8 0d b1 3c
       0.052628566 0.020722013 0.0024390402 0.021612987
000210 e7 72 f2 3c ee 1a 0a bd 17 a6 5f ba 7f 22 fc bc
       0.029595805 -0.03371709 -0.0008531524 -0.030778168
000220 d9 c4 d6 3c cf 3d c1 bc 01 13 b9 3c f9 70 16 bd
       0.026216911 -0.023589043 0.02259207 -0.036728833
000230 1d 82 1a bc d7 cf 46 bc 88 2b 84 bc 68 72 3b 3b
       -0.0094304355 -0.012134514 -0.016134039 0.0028602127
000240 f4 c4 aa bc fe 5e b1 bc 73 b5 23 3c 93 3b 5f 3c
       -0.020845868 -0.021651741 0.009991991 0.013625043
000250 72 0b 38 3d 04 5a 6b 3c 43 c0 c0 3c 52 ae 75 bb
       0.04493279 0.014364723 0.023529178 -0.0037487936
000260 88 13 b9 bb 14 b4 46 bb 1f 35 f0 bc 97 76 fe bc
       -0.0056480803 -0.0030319737 -0.029322205 -0.031062407
000270 20 d1 19 3b 55 29 a1 bb 1e ce a3 bc 20 6f c9 bc
       0.0023470595 -0.0049182572 -0.019995745 -0.024589121
000280 54 bc 1e bc d5 ef c7 3c 86 a0 53 3c 9d a0 6d bd
       -0.009688456 0.024406353 0.01291669 -0.0580145
000290 4a b7 ef 3c cb da e0 3c bc 31 3f bc 75 84 19 3c
       0.029262204 0.027448079 -0.011669572 0.009369959
0002a0 04 eb 8a 3c 92 aa 03 3d b8 16 49 3c 32 7a e8 3c
       0.016957767 0.03214509 0.012273483 0.02837858
0002b0 79 ae da 3b 32 ef 50 3b 1f 98 1c bc 26 85 86 3c
       0.006673631 0.0031880853 -0.009557753 0.016420912
0002c0 70 74 b1 bc 5a 75 bb bb e6 dc 7c 3c ee 70 06 bd
       -0.021661967 -0.0057207765 0.015433526 -0.032822542
0002d0 b1 9d 21 bb 18 26 f6 bb 8f f2 a3 bc 44 28 3a bb
       -0.0024660642 -0.0075118653 -0.020013122 -0.0028405348
0002e0 4a 5d dc 3c 14 a0 1a 3c c5 03 ae bc 4e c7 24 bd
       0.026899952 0.00943758 -0.021242032 -0.040229134
0002f0 18 67 ab bc 75 33 13 bd f5 3d b5 3c 07 c3 d1 bc
       -0.020923182 -0.035937745 0.02212427 -0.025605692
000300 ad 39 06 bd cc ff 76 3c 24 5d 09 bd 73 ec 05 3d
       -0.032769848 0.015075635 -0.03353609 0.0326962
000310 a6 4b 4b bc 9f e7 83 bb e6 fd 55 bd e2 56 15 bd
       -0.012408173 -0.004025414 -0.05224409 -0.03645981
000320 10 fc cb bc e1 38 d9 bc 14 a5 8b bc 76 8a 03 3d
       -0.024900466 -0.02651638 -0.017046489 0.03211447
000330 c6 67 aa bc 1e 4c ea b9 d0 23 11 bd 68 7e 3a 3d
       -0.020801436 -0.0004468867 -0.035434544 0.045530707
000340 d4 6d 3d bd e7 26 08 3b 49 b7 b8 bc e7 e5 e7 3c
       -0.04624732 0.002077514 -0.022548335 0.028307868
000350 43 94 50 3d fb a3 c4 3b 17 cd cd bb db 44 1f 3d
       0.050922643 0.0060009933 -0.006280552 0.038884025
000360 c5 d0 64 bc d0 47 b1 bb 44 d3 f0 bc 91 4f 2e bd
       -0.01396579 -0.005410172 -0.029397614 -0.04255635
000370 ee 04 23 bb 7f 08 8b 3b be 70 62 bb 85 23 0e 3d
       -0.0024874764 0.004242956 -0.0034552063 0.034701843
000380 3b bc 10 3c 89 e3 db 3b 3d 65 c2 3c d0 b9 f6 bc
       0.00883394 0.006710474 0.023729915 -0.0301179
000390 44 61 1f 3d cd e5 ca 3c 75 61 05 bd 3c 96 0d bd
       0.03891112 0.02476778 -0.032563645 -0.034567103
0003a0 d2 5a 48 3b fa 79 da 3c fc 88 53 bd b3 3c 51 3c
       0.0030571711 0.026669491 -0.05164431 0.0127708195
0003b0 d2 3b 0a bd bb d7 32 3c f4 ea 00 bb eb 13 e8 39
       -0.033748455 0.010915692 -0.0019671293 0.00044265328
0003c0 33 01 81 3c 16 e9 c7 3c 04 ff 09 3d 02 b5 ba 3a
       0.015747642 0.024403136 0.033690467 0.0014244618
0003d0 9f 81 2a 3c d1 52 00 3d ec 6d a2 3c c6 5e 8f bc
       0.010406881 0.03132898 0.019827805 -0.017501246
0003e0 e8 21 09 bc 0e 5b 2d 3c 18 66 96 3c e6 35 28 bd
       -0.0083699 0.010580791 0.018359229 -0.041067027
0003f0 2a 1a 75 bc d1 1a 82 3b d8 87 56 bc 1d e5 32 bb
       -0.014959851 0.003970482 -0.013093911 -0.0027297207

base_model.model.bert.encoder.layer.0.attention.self.query.lora_B.default.weight f4 [768, 8]
000000 59 a8 8f b9 76 64 cc bb d0 84 51 3b 62 4e 86 3b
       -0.00027400514 -0.006237562 0.0031970032 0.0040986994
000010 a3 b2 26 bc 3d c4 cb bb 66 ba 64 3b 2a 43 dc 3a
       -0.010174426 -0.006218462 0.0034901141 0.0016804684
000020 e2 49 c8 ba 65 6a ad b8 ea 09 24 3b 48 0d 00 3b
       -0.0015280808 -8.2691e-05 0.0025030323 0.0019539166
000030 28 82 9e ba ab ae f1 ba e7 80 d4 3a cb 05 68 3b
       -0.0012093233 -0.0018438896 0.0016212732 0.0035403844
000040 59 33 15 bb 49 6a de bb 16 64 8d 3a 43 be 55 3a
       -0.0022766201 -0.0067875725 0.0010787274 0.00081536564
000050 5d d8 a7 bb f7 9d be bb 48 72 6c 3b 9c b1 4d 3b
       -0.005122228 -0.0058171707 0.003607886 0.003138638
000060 0c c0 47 bb 93 c3 81 bc 76 f8 34 3c 06 e0 bf 3b
       -0.003047946 -0.015840327 0.011045566 0.005855563
000070 09 41 7e bc 4b 1c 47 bb 04 b6 11 3c d7 a4 0f b9
       -0.015518435 -0.0030381854 0.008893494 -0.0001369895
000080 47 e1 06 3c 95 c2 ee 3b 68 7c 43 bb b1 bc d0 3b
       0.008232421 0.0072863796 -0.002982879 0.00637015
000090 3e 09 87 3b 71 76 11 39 a2 2c 8c bc f4 93 41 39
       0.004120975 0.000138724 -0.017111126 0.00018461031
0000a0 dc dd 0b 3c a4 54 c6 3a c6 1c 9d bb 9a 3e c7 37
       0.008536782 0.0015131426 -0.00479469 2.37518e-05
0000b0 61 4f 6f bb d4 22 2b 3c 3b 0b 41 bc 65 28 a0 bb
       -0.003651582 0.010445315 -0.011782463 -0.004887628
0000c0 08 e0 21 3b 13 8f 1b 3c 99 d4 0b bb 46 49 cd 3a
       0.0024700183 0.009494561 -0.0021336435 0.0015662096
0000d0 ff b9 75 3b a3 44 8d 3b b1 57 45 39 a8 f3 a6 3b
       0.0037494896 0.0043111607 0.00018820052 0.005094964
0000e0 1a 97 9a 3b ee 31 04 3c a9 da e5 bb 34 50 23 3b
       0.0047177197 0.008068545 -0.0070145917 0.002491963
0000f0 cd d4 98 3b cf 37 89 39 49 9d 88 3b 31 82 f1 3b
       0.0046640397 0.00026172257 0.0041691405 0.0073702564
000100 75 72 b1 3b fd e6 0e 3c c0 38 da 3b b6 34 84 3b
       0.0054152557 0.008722064 0.006659597 0.004034604
000110 a6 54 e4 3a 70 38 94 39 d8 ff 2b 3b 7c f8 96 bb
       0.0017420247 0.0002827081 0.0026245024 -0.0046072584
000120 72 fe 40 3b 35 f1 4c bc 1e 6d 08 3c e2 b1 b1 3b
       0.0029448536 -0.01250868 0.008326797 0.0054228166
000130 7d 21 21 bc 81 ae ec 3a cc 24 5d bc bc 6e 2e bc
       -0.009834644 0.0018057377 -0.013497543 -0.010646518
000140 f9 13 c8 3b 83 06 0b 3c c5 aa 1a bc 66 cb 7e bb
       0.0061058966 0.008485439 -0.009440129 -0.003887856
000150 ee 4b 71 3c d2 a3 78 bb 66 37 7d 3a fb af b1 bb
       0.014727576 -0.0037939441 0.0009659439 -0.00542259
000160 fc cf b1 3a 64 0f 25 bb cb 0f 96 3c f8 fe 06 3c
       0.0013566012 -0.0025186175 0.018318078 0.0082395
000170 2f 9f 1b bc 60 d6 02 3c 58 c1 8e 3c 95 3d 1b 3c
       -0.009498402 0.007985681 0.017426178 0.0094751315
000180 16 46 19 ba f1 cc 01 3c 90 d7 17 bc 24 d3 26 bb
       -0.00058469304 0.007922397 -0.009267703 -0.002545544
000190 6d 99 0e 3c de 71 9d bb 24 d1 8b ba e8 a6 6b 3c
       0.008703572 -0.004804834 -0.0010667187 0.014383055
0001a0 85 8f 87 3b 76 a1 33 3c 4a cc 2a bc e3 db a9 b9
       0.004136982 0.010963788 -0.010424683 -0.0003239802
0001b0 5a eb b9 3b 61 c3 e3 3b b9 4c 83 bb be e0 24 3b
       0.005673808 0.006950781 -0.004006949 0.002515837
0001c0 f5 dd 35 bb 02 c2 59 bc 56 5e 4f 3b 34 39 eb bb
       -0.0027750705 -0.013290884 0.0031641922 -0.00717845
0001d0 0a 80 24 bc 26 d2 18 3b 7f f8 41 3b 48 f6 d8 ba
       -0.0100402925 0.0023318618 0.0029597578 -0.001655289
0001e0 4c 88 3d bb 02 85 83 b9 eb 79 99 3b 2b 31 d5 bb
       -0.002892035 -0.00025085366 0.004683723 -0.0065061054
0001f0 8f 1d ed b9 ba 41 fc 3b 98 8a 10 3a 36 09 34 bc
       -0.00045226185 0.007698265 0.0005513816 -0.010988524
000200 8c ce e7 bb 67 66 c6 39 fc d0 26 bc 64 7e 32 bb
       -0.007074183 0.000378418 -0.010181662 -0.002723598
000210 50 d5 14 bb f9 b5 0d bc 3b 38 cc 38 bd b2 29 3c
       -0.0022710152 -0.008649343 9.737952e-05 0.010357556
000220 f9 3e 15 bc b2 53 f6 bb 13 81 30 3c 62 c7 48 bb
       -0.009109252 -0.0075173015 0.010772961 -0.003063642
000230 41 6a 96 bb 52 be 84 bb 7c 02 35 3c 9d ce e2 3a
       -0.004590303 -0.0040510083 0.011047956 0.0017304007
000240 78 37 d1 3b e4 90 2e 3c 44 cd ca bb 3c e7 f2 39
       0.006384786 0.010654662 -0.0061890204 0.0004633012
000250 1a 5c d5 3b 86 9c 81 3b db f1 08 ba a5 38 4e 3b
       0.0065112235 0.0039554266 -0.00052240276 0.0031466868
000260 35 73 58 bb 9c f7 25 bc c8 01 8d 3b f6 75 10 bb
       -0.0033027653 -0.010129835 0.004303191 -0.0022042966
000270 0d b6 07 bc f8 9b 8f bb 23 3d 17 3b f9 99 bf 3a
       -0.00828315 -0.0043826066 0.0023077212 0.0014618031
000280 1c 80 af bb c4 59 56 bb 67 54 05 3c f4 54 fc 3a
       -0.005355848 -0.0032707313 0.008137799 0.0019251392
000290 f0 52 49 bb a6 ef 84 3b d2 df 95 3c d4 3e 2b 3b
       -0.00307196 0.0040568886 0.018295202 0.0026129978
0002a0 74 8e 09 3c 9b df 33 3b db 81 86 bc f6 bf fb ba
       0.00839578 0.0027446512 -0.016419342 -0.0019206989
0002b0 c9 61 1b 3c 73 8e d1 3a 2a 30 65 bc 3a 33 e9 bb
       0.009483763 0.0015987888 -0.013988534 -0.0071167024
0002c0 0d 36 06 3b 57 7b b8 3b 78 00 80 3b 7b c6 38 39
       0.0020478994 0.0056299376 0.003906306 0.00017621547
0002d0 bc f3 5a 3a 38 df 0a 3b ff 85 dd 3a 45 70 6f 3b
       0.00083523593 0.0021190178 0.0016900896 0.0036535424
0002e0 62 df 47 3a 88 dc e4 3a d3 cc 09 bb 52 7a e0 ba
       0.0007624534 0.0017460743 -0.0021026626 -0.0017126298
0002f0 8f 66 01 bc 99 8a 71 3b f9 a2 89 bb fc 8c 70 3c
       -0.007897987 0.0036856292 -0.004200336 0.014682051
000300 51 42 c0 ba b9 cd 42 bc d6 ac b8 3b 53 e9 fd b8
       -0.0014668201 -0.011889868 0.005635838 -0.0001210744
000310 3f 47 0b bc 3b 71 5a ba 0f a1 ef b7 55 19 8a bb
       -0.008500873 -0.00083329127 -2.8566019e-05 -0.0042144456
000320 2b 41 ea 3b a9 27 fc 3b 00 59 76 bc a7 24 4e bb
       0.007148882 0.0076951575 -0.015035868 -0.0031454952
000330 b8 e1 52 3c 6e 3e 25 3b 72 78 78 bc ec c9 29 bc
       0.012871198 0.0025214213 -0.015165435 -0.010363083
000340 53 61 81 3b e5 24 10 3c 2c 12 88 39 d3 98 32 3b
       0.0039483695 0.008797859 0.0002595348 0.0027251735
000350 71 fe d3 ba 4d c1 fa 3b 23 61 04 39 1f 8f d5 3a
       -0.0016173852 0.007652438 0.00012624687 0.0016293264
000360 00 7e 96 39 9a 42 4c 3b e4 4e 87 3b 6f 00 76 38
       0.00028704107 0.0031167627 0.0041292775 5.8651374e-05
000370 79 70 ac ba 46 5a d3 3b 0a e4 70 39 3d 61 ed 3a
       -0.0013156078 0.0064499704 0.00022973135 0.0018110644
000380 95 85 a4 3b eb 59 54 3c 8d 93 8b bb 1a 9e 0b 3b
       0.005020807 0.012960891 -0.004259533 0.0021303953
000390 29 10 bc 3b ec 57 ac 3b d4 65 99 ba 93 6d c7 3b
       0.005739231 0.0052595045 -0.0011703321 0.0060860603
0003a0 12 0a c4 3b 3a 51 2e 3b 3b 63 70 bb 38 e3 1f bb
       0.005982646 0.0026598708 -0.003668024 -0.0024396908
0003b0 dc e1 d1 3b d6 54 6c bb 1f f2 c6 bb c5 46 54 3b
       0.0064050984 -0.0036061308 -0.0060713436 0.0032390815
0003c0 21 64 0a 3c 5e e2 d7 3b 0e 94 8b bb c4 42 9f b9
       0.008446724 0.0065882644 -0.004259593 -0.00030376588
0003d0 f6 65 98 3b f8 43 f8 3b 7f 60 51 bc 2c f3 51 bc
       0.0046508266 0.007576462 -0.012779354 -0.012814324
0003e0 5b 8c cb 3b 6c 5d 24 bc 92 ed 89 3b 2b 19 b2 38
       0.0062118 -0.010032039 0.004209229 8.492389e-05
0003f0 74 26 38 ba 35 ea 8d 3b 22 22 0b bc 96 44 8a bc
       -0.0007024773 0.004330898 -0.008492025 -0.016878407

base_model.model.bert.encoder.layer.0.attention.self.key.lora_A.default.weight f4 [8, 768]
000000 48 71 05 bd 3b d1 42 bd 7f 07 0e bd 4e ed 02 3d
       -0.032578737 -0.04756282 -0.034675118 0.031964593
000010 39 70 1b bb 95 85 21 3d 98 7a c2 bc 35 cd 07 3d
       -0.0023718013 0.039434034 -0.023740098 0.033154685
000020 d9 56 da bc d8 4d c4 bc 78 2d b5 bc bf 30 95 3b
       -0.02665274 -0.0239629 -0.022116408 0.00455293
000030 1d 99 86 bb d2 07 bd 3c 09 b5 4b bd be 3e e2 3c
       -0.004107608 0.023075018 -0.049733195 0.027617808
000040 12 91 6a 3b 63 5f c5 3c fb 31 bf bb 33 6f f1 bb
       0.0035792035 0.024093335 -0.0058348156 -0.0073679923
000050 4a c8 07 bd 9d 92 92 bb c0 31 2e bc 9d 7c e1 3c
       -0.033149995 -0.004473044 -0.0106319785 0.02752524
000060 23 9b b9 3b c3 aa a5 bc 6e de 09 3d af 00 1b 3d
       0.0056642457 -0.020223027 0.03365939 0.03784245
000070 d7 b6 67 3c 1c 93 d2 bb e7 29 52 bd d1 09 16 3d
       0.0141427135 -0.006426228 -0.051309492 0.036630455
000080 7e db f1 bc c4 44 e4 3c d9 1a be bb f8 70 8c 3c
       -0.029523607 0.027864821 -0.0058015403 0.017143711
000090 4a f4 d9 bb c7 d0 95 3b 47 6a 64 3c 76 ae 56 3d
       -0.006651436 0.0045720073 0.013941354 0.052412473
0000a0 fc 02 e1 bb f2 d6 ae 3b d9 5c 23 bc 48 46 9d 3c
       -0.006866811 0.005335682 -0.009970867 0.019198552
0000b0 10 03 91 bc 20 ae 9e 3b 11 94 13 3d 95 ae e2 bc
       -0.017701656 0.0048425347 0.03602988 -0.027671138
0000c0 63 13 e8 bc 44 f5 53 bc 03 f2 04 3c bd a1 b9 bb
       -0.028329557 -0.012936894 0.008114341 -0.0056650327
0000d0 ee 0f 2e bd 9e c6 cf bc 32 dd bc ba 7d 77 8e bc
       -0.04249566 -0.025363263 -0.0014409183 -0.01739096
0000e0 ba 26 05 bd a9 e6 01 bc 0a bb f6 3b ee dd e6 bc
       -0.032507636 -0.007928529 0.007529621 -0.028181996
0000f0 71 0a f5 bc 97 83 22 bd 25 18 16 bc 08 03 10 bd
       -0.029912205 -0.039676275 -0.00916103 -0.03515914
000100 8b 66 82 ba f9 eb b8 3b 53 d2 dc bc e2 05 4e 3c
       -0.0009948773 0.0056433645 -0.02695576 0.012574645
000110 91 43 4d bc 14 d5 e8 3c e8 b8 c9 3b 11 2e 5c bd
       -0.012528316 0.028421916 0.0061560757 -0.05375487
000120 c5 b1 9d bc 12 96 d2 bc f4 07 ab 3c 0b 35 c2 3b
       -0.019249806 -0.025706325 0.020877816 0.0059267334
000130 19 05 17 3d 9c 52 ed 3b fe 32 17 3d 1d 53 45 bc
       0.036870096 0.007242514 0.036913864 -0.0120437415
000140 4b 58 3a 3b c5 bc 10 3d 63 44 c8 bc 40 03 ba 3c
       0.0028433974 0.035336275 -0.024446672 0.022706628
000150 63 96 0a 3a ab 43 11 3c 9b fd 52 3b 87 a3 9e ba
       0.00052866916 0.008866231 0.0032194618 -0.0012103178
000160 94 3a 80 bc e4 de 50 bd 8a fb 2f 3a 49 59 55 3d
       -0.015652932 -0.050993815 0.00067132025 0.052087102
000170 40 ae c4 bc 6c 3d 3c 3c 78 90 6a 3c 01 41 c3 bc
       -0.02400887 0.0114892535 0.014316671 -0.023834707
000180 e2 4c db ba d4 7a 23 3b ca 59 24 3d 25 13 f8 bc
       -0.0016731287 0.0024945037 0.040124692 -0.030282566
000190 5e 2a f9 bc 20 c6 9d ba 02 f4 f4 3c 57 a3 8f 3c
       -0.03041571 -0.0012037195 0.029901508 0.017533941
0001a0 cf 43 fa 3b e6 75 87 3b 09 6c 0d bd ab 3c a3 bb
       0.007637478 0.0041339276 -0.03452686 -0.0049815974
0001b0 0c 81 1a 3d 6f aa ff 3c ad 58 53 3c 33 c6 15 3d
       0.037720725 0.031209199 0.01289956 0.03656597
0001c0 1d 94 a2 3b b5 75 03 3c 3a fc 32 bb f5 23 eb bb
       0.004961504 0.008023669 -0.0027310983 -0.0071759173
0001d0 2e 65 7d bd 33 20 98 3c 06 6f c1 3c 15 7d 99 bc
       -0.06186407 0.018570041 0.02361251 -0.018736402
0001e0 a4 6a dd bc f5 ce 10 3d 9f 20 0d bc 20 e8 4f bc
       -0.02702839 0.03535362 -0.0086137345 -0.01268962
0001f0 88 17 1b bd bd 07 ce bc 44 d6 db 3c b4 1d b4 bc
       -0.037864238 -0.025150174 0.026835568 -0.02198682
000200 44 f1 2e bc 34 64 f6 bc c9 e6 89 bc 43 b5 21 3d
       -0.010677639 -0.030077077 -0.01683368 0.039479505
000210 5c 0f 35 3c 3e 3d b7 3c d8 f5 fa 3c 08 14 da 3c
       0.011051025 0.02236807 0.030634806 0.02662088
000220 e9 69 5b bc 7c f1 4f bd 7f 58 93 3c 11 43 f5 3b
       -0.01339195 -0.050767407 0.017986534 0.0074848016
000230 3a 6e e8 3c 6f 61 95 bc db 75 29 3d 0c 7f 0d bd
       0.028372873 -0.018234937 0.04137216 -0.03454499
000240 5a 52 24 bc cc c0 b1 bb be 08 59 3a a7 37 5f 3c
       -0.0100294 -0.0054245945 0.0008279196 0.013624108
000250 10 48 7d bb 49 d9 03 3c d5 77 6d bc 1d b7 79 bd
       -0.003864769 0.00804741 -0.014493902 -0.060965646
000260 15 8f 92 3c 97 bc 90 bc 66 46 aa bb 8f d1 ad 3c
       0.017890492 -0.017668052 -0.0051963804 0.02121809
000270 43 87 2b ba 56 15 31 3c d2 d0 13 bc 9a 1f 5d 3c
       -0.0006543288 0.01080831 -0.009021955 0.013496304
000280 01 32 ee 3c 43 17 c9 3c 3d 11 29 bd 13 56 08 3c
       0.029076578 0.024547225 -0.041276205 0.008321303
000290 df 26 8a 3c ef 21 fd 3c ec 7d 42 bb 67 54 41 3a
       0.016864238 0.03089997 -0.0029677106 0.00073749427
0002a0 06 64 5d bc 51 df b7 3c 07 64 2b bd 78 ff ac bc
       -0.013512617 0.022445353 -0.04184344 -0.02111791
0002b0 f2 fa 62 3d 1e 23 9b 3c d8 6a a6 3b 43 40 dd bc
       0.0554151 0.018937644 0.0050786547 -0.027008181
0002c0 f7 04 ca 3c 29 36 5f 3c b9 fe a1 bb e7 54 47 3c
       0.02466057 0.013623753 -0.0049436954 0.012166238
0002d0 22 ea 05 bd 30 01 39 3d f8 d2 bd bc 12 ed f0 bc
       -0.03269399 0.045167148 -0.023171887 -0.029409919
0002e0 71 52 b6 bc 4f 3a 1e bc c0 f9 04 3c cc 05 ed bc
       -0.022256108 -0.009657457 0.008116186 -0.028933428
0002f0 95 47 9a bc 23 de 02 3c 39 8b 49 bd dc 4c 7b bc
       -0.018832961 0.007987532 -0.04920504 -0.015338149
000300 12 a3 81 bc 20 4e 8f 3b d7 4d 88 bc 32 ba 64 bc
       -0.015824828 0.004373327 -0.01663868 -0.013960408
000310 cf 40 b9 bb d3 00 a2 3c 2e ce 0d 3b 57 e6 ec bb
       -0.0056534777 0.019775784 0.0021637785 -0.007229607
000320 9e a0 ba bc 39 2f 3b bc 6b 57 5e bc 4f 9e 2c bb
       -0.022781666 -0.011424833 -0.013570647 -0.0026339476
000330 f1 81 70 bb 21 0e 42 bd c3 2e e3 3c 6d 2b 04 bd
       -0.0036698545 -0.047376756 0.027732259 -0.032267977
000340 ee a4 94 bb d8 44 c8 bb 93 c1 67 3b c6 a6 9f bc
       -0.0045362627 -0.0061117224 0.0035363182 -0.019488703
000350 98 83 80 3b 25 f5 1f 3d cf 57 84 3c 73 f6 74 3c
       0.003921937 0.039052147 0.016155152 0.014951336
000360 32 f8 ad 3c 0a 56 e1 3c 29 73 56 3c b5 33 6c bc
       0.021236513 0.027506847 0.01308898 -0.014416625
000370 c7 6f 5c bc 51 c5 1e 3d 5b 29 ce bc fe 1d c3 3c
       -0.013454384 0.038762394 -0.025166204 0.023818012
000380 49 58 24 3c a4 83 43 bb 69 97 bf 39 a9 2e 07 bd
       0.010030814 -0.0029833103 0.00036543168 -0.033003483
000390 cc 6f 04 3b 51 cc 14 3d 87 5f 8a bc ad 07 39 bc
       0.0020208238 0.036327664 -0.016891254 -0.011293334
0003a0 59 62 4e bd eb 49 c2 bc 34 f3 8b 3c a3 49 cf bc
       -0.05038676 -0.023716887 0.017083742 -0.025303667
0003b0 67 f9 3a bc e5 b5 f2 3b cb ba 20 3c 88 b7 e3 bb
       -0.011412001 0.0074069374 0.00981016 -0.006949369
0003c0 a0 dc 29 bd b6 46 f4 3b 5a 3e 15 3c de c5 2e bc
       -0.04147017 0.0074547185 0.009109104 -0.010667292
0003d0 23 5a d2 3c 49 8d d2 bc 79 8f 32 3d 56 6f 15 3d
       0.025677746 -0.025702136 0.043593857 0.03648313
0003e0 ba 47 13 3d da 5e 8f 3c ae 4a f7 bc d8 4f 29 bd
       0.035957076 0.017501283 -0.030186977 -0.04133591
0003f0 98 66 84 3c e7 b8 c1 bb 88 77 a9 bc b3 bf 31 3d
       0.016162202 -0.0059119347 -0.02068688 0.04339571

base_model.model.bert.encoder.layer.0.attention.self.key.lora_B.default.weight f4 [768, 8]
000000 1b f2 a9 ba 30 c2 6b 3b e4 2a 9e ba 10 3f d2 3a
       -0.001296583 0.00359739 -0.0012067226 0.0016040523
000010 7b 74 11 3b 59 32 d9 3a 3e 5f 7d ba d5 90 6c 3a
       0.0022194672 0.0016570791 -0.0009665376 0.0009024267
000020 6a 3a 62 bb 48 59 72 3b 88 ae fa 39 4f 30 32 bb
       -0.003451968 0.0036979485 0.00047813752 -0.0027189439
000030 34 c8 82 bb 05 ab f5 3a d8 dd 36 bb d9 7f 8d ba
       -0.003991151 0.0018742984 -0.0027903225 -0.0010795548
000040 5b bd 1b bc f0 c1 59 3c 37 24 2b bc 64 00 3e bc
       -0.009505595 0.013290867 -0.010445646 -0.011596773
000050 5c 13 1e bc 6d d9 c2 3b 94 47 0f bc 07 00 20 3c
       -0.00964817 0.0059463293 -0.008745093 0.0097656315
000060 5b 8b e0 3b 91 42 9f bb 62 57 8a 3b f5 bd af 3b
       0.00685255 -0.0048602303 0.0042218426 0.005363221
000070 ba ba e7 3b e3 2b ad bb db 21 03 3c 2b cb 3d bb
       0.00707182 -0.0052847727 0.008003677 -0.002896021
000080 53 e2 43 bc 17 06 90 3b b0 2c 11 bc 4d 09 db bb
       -0.011955815 0.004395257 -0.008860752 -0.0066844583
000090 13 b0 f3 bb 68 a2 45 3c 04 d5 04 bc 83 5f d0 3b
       -0.007436761 0.012062646 -0.0081074275 0.006359042
0000a0 f2 18 1b 3b b0 4e 36 ba ed 51 1d 3b 7e 80 26 3b
       0.0023665992 -0.00069544744 0.002400513 0.0025406177
0000b0 d5 ee 4a 3b 5e 15 f9 bb c1 38 61 3a 35 7a 59 bb
       0.003096511 -0.007601424 0.0008591526 -0.0033184413
0000c0 f8 53 1b ba d5 1d e8 3a aa 12 23 ba 30 68 a9 ba
       -0.0005925293 0.0017709086 -0.00062207377 -0.0012924727
0000d0 bd 24 86 38 fe dc 14 bb e1 e3 33 bb 0a c6 7b 3a
       6.396461e-05 -0.002271473 -0.0027449059 0.00096044
0000e0 6e dc bd bb 92 f7 ef 3b a4 8c d9 ba da 64 92 bb
       -0.0057940995 0.007323214 -0.00165977 -0.004467589
0000f0 ae 85 c5 bb 20 4d 89 3a de b7 c2 bb ab f1 99 3b
       -0.0060278988 0.0010475256 -0.005942329 0.0046979985
000100 01 cf 30 bc 02 2f d9 3b 8c 10 02 bc ba 0d f2 bb
       -0.010791541 0.006627918 -0.007938515 -0.0073868902
000110 14 e5 17 bc 63 6d 24 3c aa 99 12 bc 0c 08 29 3c
       -0.009270925 0.010035845 -0.008947769 0.01031686
000120 c9 79 70 3b 4f f4 e3 bb ea 0d 88 3b d5 59 53 3b
       0.0036693683 -0.006956614 0.0041520493 0.003224959
000130 6f 8c 0c 3b ba a3 00 ba 22 4c d6 3b 02 84 fe ba
       0.002144601 -0.00049072097 0.0065398375 -0.0019418004
000140 56 f8 a6 ba be 26 1e 3b 3a 4b 7c bb 3f c6 19 bb
       -0.0012738805 0.002413198 -0.0038496987 -0.002346411
000150 89 23 75 3b e4 2b c4 b9 09 7b e3 b9 8a f3 58 3b
       0.0037405214 -0.00037416734 -0.00043388482 0.0033104145
000160 5d ba 33 bb b0 5f 44 3b 1d e2 b0 bb 22 3b 92 b9
       -0.0027424314 0.002996426 -0.0053980486 -0.00027891347
000170 aa 4f 15 bc 20 e1 28 3c 2c 24 e8 bb 03 34 d3 3b
       -0.009113232 0.01030758 -0.00708439 0.0064454093
000180 39 33 bc 3b fa 32 07 bb d9 b3 0c 3c aa 0c bf 3b
       0.005743411 -0.002062975 0.008587801 0.005830367
000190 f6 4e 02 3b 1d 6a 3a bc 81 48 8d 3b 48 c3 2d bc
       0.001988349 -0.011377838 0.0043116217 -0.010605641
0001a0 41 5d 54 ba ad 4d 7d 3a 75 b3 32 ba 95 ea a4 39
       -0.0008101054 0.00096627587 -0.00068169023 0.00031455295
0001b0 47 8f 1b bb 0d e5 62 3b 0d 6e 6a ba e0 da 08 3a
       -0.0023736523 0.0034621388 -0.00089427904 0.0005220603
0001c0 97 1a 1a 3a e1 49 98 bb c3 eb db ba ab 89 47 3b
       0.0005878596 -0.004647479 -0.0016778636 0.0030447047
0001d0 02 4c 4b b9 c9 76 88 ba 54 a9 b1 39 5a 29 5b 3b
       -0.00019387904 -0.0010411377 0.0003388623 0.0033441395
0001e0 b5 ef 36 3b 23 d6 2d bc 3e e2 ae 3b a3 a7 04 3c
       0.0027913873 -0.010610136 0.0053370288 0.008096608
0001f0 59 4f 70 3b 9e 8c 31 bb d5 b1 da 3b 43 70 cb bb
       0.0036668389 -0.002709187 0.0066740313 -0.006208451
000200 4f 64 13 bc 50 cb 24 3c c3 2c db bb 7b 41 d2 bb
       -0.008996083 0.010058239 -0.0066886856 -0.0064164973
000210 1a e3 ad bb 23 e8 99 3b b4 a5 e2 bb 67 22 ac 3b
       -0.0053066136 0.0046968623 -0.006916726 0.0052531245
000220 14 ee 6c 3c 4f 48 25 bc 02 ad 2a 3c eb cb 4c 3c
       0.014461059 -0.0100880405 0.010417225 0.01249979
000230 94 1f 39 3c c2 52 8b bc 3b 5b 1f 3c 2a 0a 69 bc
       0.011299033 -0.017007235 0.009726341 -0.014223615
000240 93 ff 92 bc da ac 9e 3c 77 77 8c bc d2 57 a9 bc
       -0.017944133 0.019369531 -0.017146809 -0.020671759
000250 24 7f 8a bc 02 b8 43 3c 27 88 86 bc 13 57 67 3c
       -0.016906328 0.011945726 -0.016422344 0.014119881
000260 74 5c 3d 3c ba d0 2c bc be a6 1e 3c 4c d5 32 3c
       0.011557687 -0.010547811 0.009683309 0.010915112
000270 81 46 65 3c a2 c0 9f bc 5a eb 5f 3c f0 e7 31 bc
       0.01399386 -0.019501034 0.013666952 -0.010858521
000280 70 00 8d 3a dc c4 8f 3b 8a e1 4a 3a 73 ce 01 bc
       0.0010757577 0.004387481 0.00077392964 -0.0079227565
000290 1d 8d 80 3b bd c0 29 ba b0 ba ea ba 33 6a 38 3b
       0.003923072 -0.00064755586 -0.001790842 0.0028139472
0002a0 a2 f7 a0 3b c1 37 a1 bb 03 23 bf 3b 1c ce ca 3b
       0.0049123326 -0.0049199765 0.005833031 0.006189121
0002b0 d4 4a b5 3b a9 ed ee bb 70 14 67 3b 9c 1e 0e bc
       0.005532602 -0.007291515 0.0035259984 -0.00867429
0002c0 fc 84 df 3b 0d 3a 2d bc e4 f7 93 3b 47 0a ed 3b
       0.006821273 -0.010572922 0.004515635 0.007233891
0002d0 4f ca 3f 3c 0d ce 85 bb 40 a7 0f 3c 48 e0 af bb
       0.011705949 -0.004083401 0.008767903 -0.0053673126
0002e0 38 1f ae bb 89 2d 7c 3b 33 57 19 bc c7 72 85 bb
       -0.00531378 0.003847929 -0.009359169 -0.0040725204
0002f0 15 d1 7c bb d1 40 16 3c 2e 34 04 bc ec 1a db 3b
       -0.003857677 0.009170727 -0.008069081 0.006686559
000300 ca 63 d2 bb 63 55 7b bb f9 25 c2 3a 7a 80 51 ba
       -0.006420587 -0.0038350455 0.0014812342 -0.0007991862
000310 29 ed 91 ba 49 3c e9 39 ce ff ee ba 3b 6c 79 3b
       -0.0011133301 0.0004448614 -0.0018234195 0.0038058895
000320 d7 88 0a 3b 2c e6 94 3b 8c b9 3b 3a e7 28 2f bb
       0.0021138692 0.00454404 0.00071611325 -0.002672726
000330 b9 97 f7 38 df 14 a7 ba 66 36 43 ba b6 b6 cb 3a
       0.00011806138 -0.0012747309 -0.00074467657 0.0015542123
000340 33 cb 26 bc 3d 00 13 3c 3c 17 4a bc 43 51 e5 bb
       -0.010180282 0.008972225 -0.012334641 -0.0069982125
000350 2f 5f 5d bc bd 0f 35 3c ae da 3d bc bd 11 21 3c
       -0.013511463 0.011051116 -0.011587782 0.009830889
000360 de fd f8 3b 7e 7d 80 bc b8 a5 26 3c 0d c1 10 3c
       0.0075986227 -0.01568484 0.010171346 0.008835089
000370 b9 7e 1c 3c 62 37 0f bc 7d b1 2f 3c 95 73 c7 bb
       0.009551697 -0.008741232 0.010723469 -0.0060867765
000380 ba a2 f1 ba e9 09 0e 3b 12 a5 41 bb c7 e8 f3 ba
       -0.0018435337 0.0021673387 -0.0029547852 -0.0018608802
000390 62 3a 87 bb 6b 7c c2 3b b5 d3 66 bb 9b c4 16 3b
       -0.004126833 0.005935242 -0.0035221402 0.002300537
0003a0 75 11 1c b8 28 36 87 3a 38 39 8d bb 0c 23 eb 3a
       -3.7209556e-05 0.0010315822 -0.0043097995 0.0017939522
0003b0 1b ba 8b ba 88 19 37 3b 54 0f ee ba 65 d2 88 3b
       -0.0010660322 0.0027938802 -0.0018162527 0.0041754716
0003c0 fb 5e a4 bb 33 3c 6b 3a 68 c9 7c bb 04 64 7f bb
       -0.0050162054 0.0008973509 -0.0038572196 -0.0038969526
0003d0 37 e7 91 bb 37 17 21 3c c7 f5 7e bb 40 2c 9a 3b
       -0.004452612 0.009832195 -0.003890382 0.004704982
0003e0 a0 a2 20 3b d4 e5 56 bc 49 ab 8f 3b e2 b6 3d 3c
       0.0024510995 -0.013116319 0.0043844325 0.011579247
0003f0 2b 93 c5 3b 6d 46 00 3a c9 4c c8 3b 41 25 cb bb
       0.0060295067 0.0004893307 0.006112669 -0.0061995094

base_model.model.bert.encoder.layer.0.attention.self.value.lora_A.default.weight f4 [8, 768]
000000 b7 bd da 3c 18 66 eb 3c 40 4e 50 3c 7b ff f9 3a
       0.026701791 0.028735206 0.012713969 0.0019073331
000010 fd dd 04 bd e8 65 ab 3c e3 dc 92 3c d1 88 9e 3c
       -0.032438267 0.020922616 0.017927593 0.019352349
000020 40 60 eb bc 67 28 fb 3c f2 d0 f0 bc ab 40 84 bc
       -0.028732419 0.030658914 -0.029396508 -0.016144117
000030 95 37 f6 bc f4 66 05 3d 90 04 9f ba 76 d5 bd bc
       -0.0300558 0.032568887 -0.0012132097 -0.023173075
000040 2e 38 52 bc 7e e8 4e 3d d0 8b 3c 3c 3b 51 68 bc
       -0.012830777 0.05051469 0.011507943 -0.014179523
000050 50 a1 c4 bc 25 8d 8f bb 2c 29 ef 3b d0 b0 07 bd
       -0.024002701 -0.0043808394 0.0072986092 -0.033127606
000060 a6 7a 0b bd ce 94 3c 3b 54 91 58 3b 8c f5 d9 3a
       -0.034052514 0.0028775218 0.0033045607 0.0016628965
000070 98 7f 65 bd 4f c7 d0 bc ef e1 03 3d 3a f7 87 bc
       -0.056029886 -0.025485663 0.03219789 -0.016597379
000080 ac ca 0a 3c 4c 38 00 3d f2 65 14 bd d7 47 1c bc
       0.008471172 0.03130369 -0.036230035 -0.009538612
000090 43 4a 03 bd 4d 93 f0 bc ab 1e c3 bc ba fb 9b 3c
       -0.032053243 -0.029367113 -0.023818335 0.019040931
0000a0 35 47 a1 3b e8 47 32 bd 86 18 28 bd d9 50 6b bc
       0.0049218186 -0.043525606 -0.041039012 -0.014362537
0000b0 d9 02 a3 3b f8 8a dc bc 76 01 48 3c 7f 5f 07 bc
       0.0049747047 -0.026921734 0.01220738 -0.008262514
0000c0 0b 0e 77 bc f2 66 24 3d 2f 81 16 3d 33 36 55 39
       -0.015079032 0.04013724 0.036744293 0.00020333454
0000d0 dc 35 d2 3c f4 07 ef 3c 98 7b 08 3d 24 52 0b 3d
       0.025660448 0.029178597 0.033320993 0.034013882
0000e0 09 7e 2f 3c be 58 0e bc 36 c8 4e bc 5b 4f a5 3c
       0.0107112015 -0.00868815 -0.012620976 0.020179441
0000f0 90 e3 6c bc 4f e2 46 3c 8a e6 39 bc 8e 5d 02 bd
       -0.014458552 0.012138917 -0.011346469 -0.031827502
000100 6a c6 b6 3c 06 47 96 bb a8 70 29 bd 53 63 02 3d
       0.022311408 -0.0045861034 -0.041367203 0.031833004
000110 cc af 12 bd f0 36 fb 3c d0 05 71 bc 52 9b 40 bc
       -0.035812184 0.030665845 -0.014710858 -0.011755781
000120 7b dd e9 bc 27 51 02 ba 9d c1 dc 3c a5 53 73 bb
       -0.028547993 -0.0004971199 0.02694779 -0.0037128713
000130 4b 93 00 3c 01 70 2e bd 12 bb 0c bd 1c 06 aa 3c
       0.007847617 -0.042587284 -0.03435809 0.020754866
000140 85 f0 20 3d d7 15 3a bc 95 6e 0f 3b 5f a5 12 3b
       0.039291877 -0.011357746 0.002188598 0.00223764
000150 92 df 34 3c cf e9 3c bc 68 8f 7f bc 25 db 0c bd
       0.011039631 -0.011530354 -0.015598156 -0.03438868
000160 62 70 8c bc cf 89 a3 bb f7 15 66 bc 7e be de 3c
       -0.017143432 -0.0049907933 -0.014043323 0.027190443
000170 9f ef f9 3c c4 e9 a1 3b 50 36 0d bd a7 68 63 3b
       0.030509768 0.004941197 -0.034475625 0.0034699829
000180 e7 6b f2 3c dc b1 dd 3c 5e a9 fc 3c 13 e4 fb 3b
       0.029592467 0.027062349 0.03084248 0.0076871007
000190 cc 65 16 3d 97 88 a0 bc d6 b7 0b bc 53 11 ec bc
       0.036718175 -0.019596381 -0.008527717 -0.028816855
0001a0 79 eb fb bc 7b 17 10 bd f8 bb 6d 3c 98 32 72 3a
       -0.03075193 -0.035178643 0.014510147 0.00092391064
0001b0 64 9f a2 bb e3 19 89 bc 5e 8d 04 bd 23 94 34 bd
       -0.0049628485 -0.016735977 -0.03236138 -0.044086587
0001c0 ab d2 eb bc 94 73 b4 3c d4 c6 2d ba 68 96 02 3d
       -0.028786978 0.022027768 -0.0006629054 0.03188172
0001d0 7c 15 1e 3b ba f2 b0 bc 76 a7 25 bd 7c 2d 73 3c
       0.0024121692 -0.021600116 -0.040442906 0.014842387
0001e0 2b cb 4a 3c f4 fd 90 bc d1 c9 04 bc 67 65 79 3b
       0.012377541 -0.01769922 -0.008104757 0.0038054825
0001f0 ff 43 9e 3c f9 69 c1 3c a8 36 2f ba 51 13 1c 3d
       0.019319532 0.023610102 -0.00066838646 0.03810436
000200 cf 65 e6 3c 85 f7 13 3d e3 f8 80 bb 29 a2 e9 3c
       0.028124718 0.036124725 -0.0039359196 0.028519707
000210 70 1c 98 3c 1d b4 cb bc 14 9c 8f 3b 06 f6 da 3c
       0.018568248 -0.024866158 0.0043826196 0.026728641
000220 44 40 02 3c c9 10 2b 3c 9c 1a 17 bc ad fd 9f bc
       0.007949892 0.010441014 -0.009222653 -0.019530142
000230 9e 3f 57 3c 9e 8f c7 3c 78 26 9f 3c 12 aa ff bc
       0.013137726 0.024360474 0.019427523 -0.031209026
000240 94 b2 cb bb 9d 0e d1 bc 30 a5 51 3c 92 27 10 bd
       -0.0062163565 -0.025519663 0.012795731 -0.035193987
000250 ec 7b b6 bc e3 20 d5 bb c0 c0 e9 bc e0 87 30 bc
       -0.022275887 -0.0065041645 -0.028534293 -0.010774583
000260 4b 71 16 bc c9 7c 10 3c bf cf c7 bc 5d eb 85 bc
       -0.009182285 0.008818814 -0.024391053 -0.016347582
000270 f0 4e 22 3c e2 fe fa 3c c6 51 d2 b8 71 aa f1 3b
       0.0099065155 0.030639116 -0.00010028812 0.0073750545
000280 77 6f 31 bc 2f 26 31 3c 78 9c 9a 3b bf 9c 40 3b
       -0.010829798 0.010812326 0.0047183596 0.0029390303
000290 5c 24 92 3c c3 0f c4 bc f2 17 7a bc 27 74 8b b9
       0.017839603 -0.023933297 -0.015264498 -0.00026598686
0002a0 d5 b9 d0 3b d2 81 3f bc b2 b0 b0 3c b4 0a 81 3c
       0.006369809 -0.011688666 0.02156863 0.015752174
0002b0 3d 4a d1 bb 69 69 12 bd 88 3a 61 bc ad 00 1d 3d
       -0.0063870237 -0.03574506 -0.013746865 0.038330723
0002c0 6d af e6 bc 31 59 22 3a aa 7f 20 3d 68 8e b7 3c
       -0.028159821 0.00061931 0.03918425 0.022406772
0002d0 cf 60 15 3c e8 15 84 3c 4a 03 93 bc a6 05 34 bc
       0.009117319 0.016123727 -0.017945904 -0.010987675
0002e0 75 31 8a bb d5 1a 14 3d 38 42 0c 3c 6c 22 60 3c
       -0.0042173215 0.0361584 0.00856071 0.013680082
0002f0 13 92 dc 3c 74 9a c2 bc 92 58 8b 3c 54 be eb 3c
       0.026925122 -0.02375529 0.017010007 0.028777279
000300 91 c6 0f 3d 24 64 e2 bb 15 88 36 bc aa 38 1a 3c
       0.035101477 -0.0069089103 -0.011140843 0.009412924
000310 8c 23 14 bd c5 26 2e bc 35 72 af 3b c2 1c 8f 3c
       -0.036166713 -0.010629361 0.0053541907 0.017469767
000320 73 46 47 bc 4d b9 8b bb 74 88 91 3c ee 56 9e 3c
       -0.0121627925 -0.004264033 0.017765261 0.01932856
000330 ca 57 a5 3c 1c a2 e4 bb 03 9b fd 3a 30 06 6c 3c
       0.020183463 -0.0069773328 0.0019348565 0.014405772
000340 7d e4 e8 ba 45 21 90 3c 48 6c c0 bc c7 5f e7 3c
       -0.001776829 0.01759399 -0.023489133 0.028243912
000350 b0 fc d1 3c be 66 25 3d 18 af f4 3c 2c 53 8b bc
       0.025633186 0.040381186 0.029868647 -0.017007433
000360 be 01 03 3d 61 7f d4 3c 96 ff 5a bc a2 e7 07 bd
       0.031984083 0.025939645 -0.0133666005 -0.033179887
000370 cd a3 57 3b f4 6b 01 3c 10 6e a9 3c 8c 1d 36 3c
       0.003290403 0.007899273 0.020682365 0.011115443
000380 05 03 3f bb a7 5e 78 3c 71 da 55 3c 16 91 5e 3c
       -0.0029146087 0.015159286 0.013052569 0.013584396
000390 c3 24 88 bc 20 07 e0 bc 95 6d 21 bd 9e a2 01 bd
       -0.016619092 -0.027347147 -0.039411146 -0.031649224
0003a0 98 46 bd bb e1 bb c9 3b 43 5e 9e 3b 97 19 f9 3c
       -0.0057762377 0.00615643 0.004833014 0.03040771
0003b0 34 77 63 3b b2 a1 38 bc 5d a6 36 bc b0 e4 99 bb
       0.0034708502 -0.01126902 -0.011148063 -0.004696451
0003c0 a4 79 7d 3c ae 93 01 3d 5f 0a f5 bc b5 58 ff bc
       0.015470896 0.03163498 -0.029912172 -0.031170228
0003d0 d3 ce 86 3b 7b 38 0a bd 4b 58 b5 3c 13 9d df 3b
       0.004114011 -0.03374527 0.022136828 0.0068241446
0003e0 14 7a 11 3c 4b c3 b2 3a ed 92 fc 3c a6 18 e9 bc
       0.008879203 0.0013638524 0.030831778 -0.028454136
0003f0 5f 09 27 3c 21 da 77 bc 69 f2 55 3c 0d 56 ac bb
       0.010195105 -0.01512769 0.013058283 -0.0052592815

base_model.model.bert.encoder.layer.0.attention.self.value.lora_B.default.weight f4 [768, 8]
000000 64 d5 c4 39 ca 6f 0a 3b 89 8f 9a 3a 74 2b a1 b9
       0.00037543022 0.002112376 0.0011792044 -0.00030740688
000010 36 4c 26 ba a6 ef 0b ba 0b 70 03 ba 3f 26 e1 ba
       -0.0006343754 -0.00053381396 -0.0005013949 -0.0017177536
000020 95 38 b9 3a b5 eb df 3a 05 c1 43 3a 7d ad 8b ba
       0.0014131243 0.0017083796 0.0007467422 -0.0010656562
000030 af 61 09 bb b4 a5 a1 ba be 53 29 bb 2f df ab ba
       -0.0020962765 -0.0012332709 -0.0025837268 -0.0013112779
000040 67 f1 00 bb 27 db 33 bb b1 71 f4 ba 6f b4 99 3b
       -0.0019675137 -0.0027443857 -0.0018649605 0.004690699
000050 ae f8 dc 3a ac 67 b8 3b 46 15 23 3b 7b 63 45 3b
       0.001685878 0.005627593 0.0024884506 0.003011911
000060 09 27 5a bb b7 59 5e bb 36 aa 6c bb bb b7 d0 3b
       -0.0033287427 -0.0033927986 -0.0036112196 0.0063695586
000070 60 af 6b 3b 54 60 e2 3b e4 0c 98 3b 04 3e 48 3b
       0.0035962686 0.006908456 0.0046402086 0.0030554542
000080 74 b7 02 3c fc 85 fd 3b 0b 01 ee 3b 54 15 00 bc
       0.007978309 0.0077369194 0.007263308 -0.007817585
000090 0a 0c 12 bc d3 6f 16 bc bb 1a 0e bc 2a 81 33 bc
       -0.008914003 -0.009181934 -0.008673365 -0.010956088
0000a0 a0 85 f9 bb 77 39 19 bc 7a cd eb bb 32 5e 2b 3c
       -0.0076148063 -0.00935208 -0.0071961256 0.01045947
0000b0 c8 31 06 3c 65 b1 46 3c 85 58 3e 3c 98 eb 4b 3c
       0.00819058 0.012127255 0.011617784 0.012446307
0000c0 c4 4e b6 3a d5 ee 11 3b cd 8f 76 3a b4 1c 39 bb
       0.0013908972 0.00222676 0.0009405583 -0.0028245868
0000d0 e7 ae 6e ba 86 7b 3a bb 9d 1d 15 ba 14 7e 61 ba
       -0.0009105042 -0.0028454973 -0.00056883116 -0.0008601856
0000e0 40 96 84 bb 49 f4 97 bb d8 91 87 bb 43 90 87 3b
       -0.0040462315 -0.0046372754 -0.004137259 0.0041370704
0000f0 7d 0d 8c 3b 8f 7a 9f 3b fa 57 99 3b fe 4e 99 3b
       0.004274069 0.004866905 0.004679677 0.004678606
000100 5a d5 2d 3a 43 c4 7e 3a f9 6b e4 b8 a6 af b7 38
       0.0006631218 0.00097185763 -0.00010891999 8.758837e-05
000110 75 4b 78 ba 55 f7 d2 3a c6 89 54 ba a0 99 e7 b9
       -0.0009471693 0.0016095439 -0.0008107688 -0.00044174213
000120 39 ce 52 3b 44 5b c1 3b a5 ad 82 3b 50 11 bb bb
       0.0032166375 0.0059007723 0.003987985 -0.005708851
000130 82 58 90 bb 5b a5 d5 bb 88 bb ec bb 2c 67 a3 bb
       -0.004405082 -0.006519956 -0.007224504 -0.0049866643
000140 92 e9 1d bb ef 53 51 bb e9 1e df ba 7a 38 b2 3b
       -0.0024095518 -0.0031940897 -0.0017022762 0.0054388614
000150 a1 2b 38 3b 7a 81 ee 3b 28 18 9d 3b 59 28 7c 3b
       0.0028102177 0.0072786184 0.0047941394 0.0038476198
000160 db ea cb b9 fe 75 05 bb 0c a3 3f ba 76 06 84 3b
       -0.00038894158 -0.0020364518 -0.00073103677 0.0040290905
000170 82 ce 6f 3a c7 02 9d 3b d3 6d f2 3a dc ac 9b 3b
       0.00091478985 0.004791591 0.0018495865 0.004750831
000180 b2 a8 2c 3c 67 02 11 3c da 98 22 3c 20 db 14 bc
       0.010538267 0.00885067 0.009924138 -0.009085447
000190 3c 41 2a bc 90 b2 19 bc f8 40 23 bc e1 12 0c bc
       -0.01039153 -0.0093809515 -0.00996422 -0.008549423
0001a0 cb 34 70 3b 81 75 2e 3b 7f 9b 5d 3b b5 87 1c bb
       0.003665256 0.002662033 0.0033814607 -0.0023884599
0001b0 1d 03 4e bb ce cc a1 ba 66 f4 24 bb 03 64 0e bb
       -0.003143496 -0.0012344362 -0.0025170087 -0.0021727092
0001c0 9e 57 c6 38 f5 99 1e bb 8d 3c 5c ba e4 39 2a 3b
       9.457696e-05 -0.0024200652 -0.0008401357 0.0025974447
0001d0 df 9d c9 3a 3c bd e2 3a 9a 0d f7 3a 08 92 03 3b
       0.0015382132 0.0017298828 0.0018848658 0.0020076055
0001e0 69 63 ac 3a 8d a6 ec 3a 26 1a bf 3a 49 04 80 3a
       0.0013152185 0.0018055007 0.0014579936 0.0009766902
0001f0 0f b3 9e b9 d8 a3 e5 3a 50 10 76 b9 85 cc 16 ba
       -0.00030269517 0.0017520143 -0.00023466465 -0.00057525217
000200 fa 8f 1f 3c 80 59 2d 3c 97 68 37 3c 9e 69 aa bb
       0.0097389165 0.0105804205 0.01119437 -0.005200579
000210 ab a4 24 bc b9 44 b3 bb ca fd 10 bc 2f a0 07 bc
       -0.0100490255 -0.005470839 -0.0088495705 -0.008277937
000220 26 b4 23 3b 2f db 17 3b 1e eb 42 3b 44 92 6e 3a
       0.0024979203 0.0023171415 0.0029742192 0.0009100775
000230 44 c2 37 bb c4 de f9 3a ae 3f b3 ba a7 f4 23 bb
       -0.0028039375 0.0019063582 -0.0013675594 -0.002501765
000240 81 e1 e7 3a 67 a6 14 3b 65 73 a3 3a 5c 12 85 bb
       0.0017691107 0.0022682191 0.0012470303 -0.0040610265
000250 24 0e 02 bb d1 12 d7 bb 25 95 6b bb 18 80 8f bb
       -0.0019844854 -0.0065635224 -0.0035947051 -0.0043792836
000260 1d ee 01 bc 83 67 0a bc d2 cf eb bb e3 f5 f8 3b
       -0.007930306 -0.008447531 -0.007196405 0.0075976714
000270 3f d9 13 3c 21 85 17 3c af e9 23 3c ea da 1a 3c
       0.0090239635 0.009248049 0.010004445 0.009451607
000280 97 43 b7 bb ef 9e c8 bb 35 66 a7 bb ce ea 06 3c
       -0.005592774 -0.006122462 -0.0051086196 0.008234693
000290 92 4c ad 3b 25 45 1b 3c 56 6a 06 3c 39 46 f1 3b
       0.005288669 0.009476935 0.008204063 0.0073631075
0002a0 05 05 08 3b 2a 6c 08 3b f3 e1 f8 3a 82 d0 d3 ba
       0.0020754945 0.0020816424 0.0018988237 -0.0016160163
0002b0 02 4b 04 bb b1 b2 d2 ba d3 82 00 bb cf b2 9f ba
       -0.002018631 -0.0016074983 -0.0019609227 -0.0012184026
0002c0 7d 08 44 ba 17 92 d2 3a cf bd 67 ba 34 eb 41 bb
       -0.00074780715 0.0016065267 -0.00088402344 -0.0029589655
0002d0 eb 74 84 39 49 26 85 bb ac fd d0 ba 96 6d 3a bb
       0.00025264113 -0.004063402 -0.0015944741 -0.0028446666
0002e0 11 a8 47 3b 3e c8 8e 3b e8 75 71 3b 06 83 78 b9
       0.0030465166 0.004357367 0.003684396 -0.00023699933
0002f0 75 40 25 bb 95 cf 8c ba dd 1a 3f bb e6 e0 49 ba
       -0.0025215421 -0.0010743017 -0.00291603 -0.0007701054
000300 81 8e 02 3c 33 fb fd 3b 11 4d fa 3b 1f 75 b4 bb
       0.007968546 0.0077508925 0.0076385816 -0.005507126
000310 e0 6d 07 bc ba 26 8f bb 90 46 eb bb bd e6 0b bc
       -0.008265942 -0.0043686302 -0.0071800426 -0.008538899
000320 fa 4e f3 ba 33 53 1c bb 51 e2 29 bb d0 eb 8a 3b
       -0.0018562966 -0.0023853302 -0.0025922249 0.004239537
000330 49 74 07 3b 7f 2a a6 3b 3e 38 df 3a 6a cc 74 3b
       0.0020668677 0.005070984 0.0017030311 0.0037353286
000340 0d bf 6b 3a cc 2f 42 3b 93 61 af 3a dc 65 17 bb
       0.00089930074 0.002963054 0.001338052 -0.0023101484
000350 e5 9f a3 ba 32 57 49 bb 23 59 b4 ba 36 97 80 bb
       -0.0012483565 -0.0030722138 -0.0013759475 -0.0039242757
000360 25 ab 61 3b 4e 7f 59 3b 82 c9 85 3b 8c fc 94 bb
       0.0034434285 0.0033187452 0.0040828595 -0.0045467075
000370 5f bf 35 bb 8a 8d ae bb ac 63 18 bb a2 45 d5 bb
       -0.0027732474 -0.0053269314 -0.0023252768 -0.006508545
000380 1f e4 bd bb 98 0b 8c bb 03 4a a8 bb f6 3d 9c 3b
       -0.0057950164 -0.004273843 -0.005135776 0.0047681285
000390 ea c9 ab 3b 45 8f a1 3b 3e 16 9d 3b 79 b7 94 3b
       0.005242576 0.004930409 0.0047939112 0.004538473
0003a0 c6 39 c1 ba 20 9b ea ba de 4e f1 ba f5 2a 50 3b
       -0.0014741949 -0.0017899014 -0.0018410345 0.0031763886
0003b0 2e 58 d0 3a 19 a5 3d 3b 07 1a 2d 3b 0a db 8a 3b
       0.001589542 0.0028937517 0.0026413219 0.0042375373
0003c0 af 69 7a ba 8a 85 9b ba 61 45 59 b9 0a 9b 43 3b
       -0.0009552491 -0.0011865359 -0.00020720578 0.002984705
0003d0 06 52 a6 3a 61 12 29 3b b6 df f7 3a 4b 50 d0 ba
       0.001268924 0.0025798308 0.0018911276 -0.001589307
0003e0 01 2c 31 3a b5 7a 4c b9 c6 0f 0c ba 5e 95 c8 3a
       0.0006758571 -0.00019500668 -0.00053429266 0.0015303304
0003f0 77 fa f3 39 d4 28 93 3a 49 74 8c 3a e4 a5 b7 b9
       0.00046535183 0.0011227378 0.0010715808 -0.00035028078
