吴佳莹/week03/rnnmodel.pth (torch, 4584 bytes, 3 tensors)

embedding.weight f4 [28, 20]
00000000: 0000 0000 0000 0000 0000 0000 0000 0000
00000010: 0000 0000 0000 0000 0000 0000 0000 0000
00000020: 0000 0000 0000 0000 0000 0000 0000 0000
00000030: 0000 0000 0000 0000 0000 0000 0000 0000
00000040: 0000 0000 0000 0000 0000 0000 0000 0000
00000050: 9a84 0940 3f4c 9d3f 0259 313e a896 a8bf
00000060: 4a7b 3140 8da5 02be f17b b4bf 0da3 03c0
00000070: cb49 aabe 49e7 3340 b6e7 983f c3f0 f0bf
00000080: 143c 543f cc95 2dbf eb20 e4be 2c37 8e3e
00000090: 7f91 443f 9245 c4be 128c debc c131 1b40
000000a0: f7ba 863f eee3 743f 25ca 5ebe e27f 423f
000000b0: c3fc 023f eb30 08bf 73fc 40bf dab8 3c3f
000000c0: 7758 463f 6893 c1be 0522 623f e0f0 0040
000000d0: cdfd 693f 6265 fabf 8e6e 66bc 899f 6abf
000000e0: 9def df3d f11d a53e 56b1 863f c4e6 1a3f
000000f0: 3c79 a23f aae1 c3be 79d7 edbe b425 ff3e
00000100: 71d7 2fbf 10a4 50bf 801c 4ebf 6352 393f
00000110: cb4c cd3e c125 8a3e 8698 0140 d098 b53f
00000120: b267 7fbe bcde a3bf cf10 f1be 9550 ecbf
00000130: dea8 b33e a0ba 033f d4d5 113f 9c8a ac3f
00000140: 4087 efbf 301f e03f b432 493e 8f97 993f
00000150: 37c4 ad3f f5e6 07bf 080f 1b3f 5603 54be
00000160: 2dd3 e6be 3620 c1bf f4e4 123f 8fdb 42be
00000170: e6ec 943f d3bd 203e 9dc9 573f bab7 80bf
00000180: 0d89 babf 4081 b13e e023 5ebf cef8 153f
00000190: 79e2 92bf 38b2 0cbf c3e5 b73e 24e6 4d3f
000001a0: 557f c83e d1fd 8ebf 1391 82bf 4f51 4c3f
000001b0: 9f6b 083d 419d bc3f 86b8 bcbd be46 563e
000001c0: 5af1 2f3f f58f 54bd cd33 50bd a83e 82bd
000001d0: 68c1 c1bf febe f63e 87c7 02bf 215c 443d
000001e0: e27f 2d3f d73b bc3e a91e d43e dd17 a83f
000001f0: 2eed 95be ab92 fbbf b030 0e3f ae84 273e
00000200: dc03 683f d4cf 41be e7b4 8fbf 3a07 5f3f
00000210: f35f ae3f 358d 363e 4e83 0bc0 972d 213f
00000220: 16ba 55bd 8222 113f 9fe5 83bd a2f7 aa3e
00000230: ed96 74bd 183e 823f ce59 c9be 4d0c 9f3f
00000240: 987d 793f cabe 663f f775 993e 9dd1 883f
00000250: afc0 c03e de61 833f a724 5bbe dd23 593f
00000260: 3feb f4be ce6b 283f 7428 3abf 334c 393f
00000270: d06e 66bf c04c 9ebf 6a23 25bf ae1b 093f
00000280: 86af 48c0 1397 8a3f 653d 9b3f 1332 87bb
00000290: 6ef4 613f a3de a93e c395 183f fdc2 adbd
000002a0: c23b af3f c6de fa3e c084 d9bf 3723 8b3e
000002b0: 5851 953f 6c48 1bc0 de48 563e 17bc 55be
000002c0: bd3b b2bd 6528 91bf 39fc 97bf af72 953c
000002d0: d024 cfbf 5306 b13f 75f2 21bf 63e9 cdbe
000002e0: ebd2 663e cd16 86be 6bab 043f fd54 25bf
000002f0: 9799 80be 298b 71bf 4443 143f 5b55 86be
00000300: 54bd 87bf 3652 aebe 65eb d0be fc5d e3bf
00000310: 1e78 9bbf a46a 973f 6ec4 73bf e00b 303f
00000320: 2e9e 8abf 567e f03f 27a2 c3bf e0f8 bd3d
00000330: fae8 94bf e258 48bf 2f63 f93e 2a8c bcbe
00000340: 468b 1240 29c2 1040 4b3f 44be 42e9 2e3f
00000350: 08b7 c63e e2d0 9bbf d33e b5be d40d eabe
00000360: a6c1 b93f e566 95bf 306e 463c c224 813f
00000370: 1f6d 84bf dee9 a33d fd8d e7be a356 803f
00000380: c208 aabe 0e3e ccbf a571 8cbe 6329 a5be
00000390: 0fef bf3f 7754 fd3e 333b bcbe eb37 d83e
000003a0: 2279 d03f 2fae 773e b011 e3be 64f6 7dbf
000003b0: 6422 203f 3de2 9bbe 4ee2 ca3e 7536 9b3f
000003c0: 1a77 f0bf 29da 2fbf 32e1 d7bf 53b8 6bbe
000003d0: e878 35bf f0d6 88bf ddd1 b5bd d001 23bf
000003e0: ec4c 033e 74ae 07bf aa92 79bf 345f 4e3f
000003f0: ffa8 c5be baf6 63bf 48a0 a8bf d025 c5bd
0.0 0.0 0.0 0.0 0.0 0.0 0.0 0.0
0.0 0.0 0.0 0.0 0.0 0.0 0.0 0.0
0.0 0.0 0.0 0.0 2.1487184 1.2288893 0.1731911 -1.3170977
2.77315 -0.12758465 -1.4100324 -2.0568268 -0.33259425 2.8109915 1.1945713 -1.8823475
0.8290417 -0.67806697 -0.44556364 0.27776468 0.7678451 -0.38334328 -0.0271664 2.4249117
1.0525807 0.95660293 -0.217568 0.75976384 0.51166934 -0.5319964 -0.75385207 0.7371956
0.77478737 -0.37807775 0.8833316 2.0147018 0.91402894 -1.956219 -0.014064444 -0.9164968
0.109343745 0.32249406 1.0522869 0.6050837 1.2693248 -0.38258106 -0.46453455 0.49833453
-0.6868811 -0.8150034 -0.8051224 0.7239134 0.4009765 0.2698193 2.0249343 1.418726
-0.249419 -1.2802348 -0.47083136 -1.8462092 0.35089773 0.5145664 0.569669 1.34798
-1.871315 1.7509518 0.19648248 1.1999377 1.3575505 -0.5308679 0.6056981 -0.20704398
-0.4508299 -1.5087955 0.57380605 -0.19029067 1.1634796 0.15697412 0.8429201 -1.0056069
-1.4573075 0.34668922 -0.8677349 0.5858277 -1.1475364 -0.5495944 0.35917482 0.8042929
0.39159647 -1.1171209 -1.0200523 0.7981157 0.03330576 1.473549 -0.092148826 0.20925424
0.6872765 -0.0518951 -0.05083065 -0.06359607 -1.5137148 0.4819259 -0.51085705 0.047939423
0.6777326 0.36764404 0.41429642 1.3132282 -0.29282516 -1.9654135 0.5554304 0.16359207
0.9063089 -0.18926936 -1.1227082 0.871204 1.3623031 0.17827304 -2.1798892 0.6296019
-0.05217942 0.5669328 -0.06440281 0.33392054 -0.059714247 1.01752 -0.39326328 1.2425629
0.97457266 0.9013487 0.29972813 1.0688969 0.37647006 1.0264242 -0.214007 0.8482035
-0.4783573 0.65789497 -0.72717977 0.72381896 -0.90012836 -1.2367172 -0.6450716 0.5355786
-3.135713 1.0827354 1.2128111 -0.0041258424 0.88263595 0.3317767 0.5960352 -0.08484457
1.3690112 0.48998088 -1.6993637 0.27175304 1.1665449 -2.4262953 0.20926234 -0.20872532
-0.087028004 -1.1340452 -1.1873847 0.018243162 -1.6183109 1.3830055 -0.63260585 -0.40217122
0.22541396 -0.2618927 0.51824063 -0.64582807 -0.2511718 -0.94352967 0.5791514 -0.26236996
-1.0604653 -0.34047097 -0.40804592 -1.7763057 -1.2146032 1.1829419 -0.952216 0.6876812
-1.0829523 1.8788555 -1.528386 0.09275985 -1.1633599 -0.78260624 0.48708484 -0.36825687
2.2897506 2.2618506 -0.1916477 0.68324673 0.38811517 -1.2173121 -0.35399494 -0.45713675
1.4512222 -1.1672026 0.012111232 1.0089343 -1.0345801 0.08003591 -0.45225516 1.002644
-0.33209807 -1.5956438 -0.27430454 -0.32258138 1.499483 0.49478504 -0.36763915 0.42230162
1.6286967 0.2418754 -0.44349432 -0.9920409 0.62552476 -0.30446044 0.39625782 1.2125994
-1.8786347 -0.6869226 -1.6865599 -0.23019533 -0.70887613 -1.0690594 -0.08877919 -0.6367464
0.12822312 -0.5300057 -0.97489417 0.8061402 -0.38605496 -0.8904835 -1.3173914 -0.09626353

layer.weight_ih_l0 f4 [8, 20]
00000000: d6fc 05ba 10cd 603d 4252 abbd 7894 b53d
00000010: 2b83 a23d 838d 51bd 12d0 913d cfca 18bd
00000020: 51f2 963c 8c21 743c 019d 703d 8568 d7bd
00000030: f17f b83d 0c98 a1bd 7102 e3bd eba4 00bd
00000040: d3e2 3f3d b748 ba3d 975f c7bc 9378 f03d
00000050: 8be5 51bd afca 413e 907c 073c b607 d3bd
00000060: fbe3 0abd 485d 5dbe 9816 90be df31 943d
00000070: cd58 a43d 79a1 ffbd 71d5 c73a cf47 9b3e
00000080: 562a b9bd 000f f13d 8b72 f63c 425c 05bd
00000090: 6e85 7bbd beb9 45be 9960 58be 4b92 01bc
000000a0: c747 313d 043a 443d eead 243d 3268 343e
000000b0: 97b7 323e 15bb 3fbe 450f e53d 95fc 8abd
000000c0: 9ab0 ee3d dd89 4b3e 3268 b73c 7ae3 213e
000000d0: 0366 fc3c f971 12be b125 0cbe 9fb5 dbbd
000000e0: 61d3 78bd c347 e63c b7ec 15be bc76 4f3e
000000f0: 4344 ba3c 3bea 55be d389 df3d c8a4 34be
00000100: 9dc0 86be 6a76 603e d472 423e a6c6 74bd
00000110: 044a c0be 5dac 08be 78f3 26bd d108 94be
00000120: eb2d 27bd 4dd8 1c3d b38b 9c3e 447f af3e
00000130: b4b3 853e 461c 2dbd ab0b 003f b76a 20be
00000140: 66bc c13d f3fb 83be 88e2 0b3e 03fb d7be
00000150: 4ba4 81be a45c 873e 1f69 c33c 906b 2bbe
00000160: fcd2 06bf fbb9 2fbe 5bb5 033c e858 dfbe
00000170: 04a9 d9bc ad02 153d 5db0 883e aad7 0c3f
00000180: 0a28 ac3e d826 a9bd 1acb 373f 394e 12be
00000190: d741 693e a8de babe 1c7f 043e 318c 06bf
000001a0: 2fa4 fc3c 4922 993e 1e90 393e 1c9a c8be
000001b0: 584a 12bf 1196 49be 6783 9fbd 6cab 41bf
000001c0: 1de8 383e 5945 bdbd 5d1c 0e3e 8055 0c3f
000001d0: b977 933e d5fc a8bd b1d6 293f a03a a0bc
000001e0: c392 abbe 241b 0ebe c311 d93d aaed 043f
000001f0: 0081 20bf fc9a dcbc 899b ba3e 3811 083f
00000200: 7ca1 553e 787d 24be cc6a 21be 82b0 c33e
00000210: 4e17 89be 4bed 4fba 554e c63e fa9e 4bbe
00000220: 5a3a 1ebc 2523 e23d e2f6 be3b aaf5 a1be
00000230: d5a2 8e3d 3fbf b9bd 17c4 d7bd 18f1 193e
00000240: 15c2 443e acf1 453e 2a20 593e 1ce4 93bd
00000250: 31b1 24bb d0c7 673e 34f2 0cbe 56bb f2bd
00000260: 2c0f cd3c 8469 edbc 9049 76bd bb3c 18be
00000270: 5b52 40bc 32e4 573e 643f b73d c887 903d
-0.0005111223 0.054883063 -0.08365299 0.08866209 0.079351746 -0.051160347 0.071197644 -0.03730279
0.018426092 0.014900576 0.05874348 -0.105179824 0.09008778 -0.07890329 -0.1108445 -0.031407278
0.046847176 0.090959005 -0.024337573 0.11741748 -0.0512443 0.18924974 0.008269444 -0.10304205
-0.033908825 -0.21617615 -0.28142238 0.07236075 0.0802475 -0.1248197 0.0015246106 0.30328223
-0.09041278 0.11770439 0.030083915 -0.032558687 -0.061406545 -0.19309136 -0.21130599 -0.007908414
0.043281343 0.04790689 0.040204935 0.17617872 0.17452846 -0.1872371 0.11184553 -0.067864574
0.11654778 0.1987681 0.022388551 0.15809432 0.030810362 -0.1430129 -0.13686253 -0.10728001
-0.06074846 0.02811039 -0.14641081 0.20260137 0.022737628 -0.20890133 0.1091496 -0.17640984
-0.26318827 0.21920171 0.18989116 -0.05975976 -0.3755647 -0.13347001 -0.040759534 -0.28912976
-0.040815275 0.038292218 0.30575332 0.34276783 0.26113665 -0.04226329 0.50017804 -0.15665708
0.09459762 -0.2577816 0.13660634 -0.42183694 -0.25320658 0.26437867 0.023853837 -0.1674025
-0.52665687 -0.1716079 0.008038844 -0.43622518 -0.02656985 0.036379505 0.26697055 0.5501658
0.33624297 -0.08259362 0.71794283 -0.14287652 0.22779022 -0.36497998 0.12939113 -0.52557665
0.030840008 0.2990897 0.18121383 -0.39180076 -0.5714469 -0.19686152 -0.07788735 -0.75652194
0.18057294 -0.09241743 0.13878007 0.5481796 0.2880228 -0.08251349 0.6634322 -0.019559205
-0.33510408 -0.13877541 0.10599091 0.51925147 -0.6269684 -0.026929371 0.3644679 0.53151274
0.20862383 -0.16063488 -0.15763396 0.38220602 -0.26775593 -0.0007931783 0.38731638 -0.19884863
-0.009657467 0.110418595 0.0058277706 -0.3163274 0.069646515 -0.090696804 -0.10535448 0.15033376
0.19214661 0.19330472 0.21203676 -0.07221243 -0.0025130028 0.22634816 -0.13764268 -0.11852138
0.025031649 -0.028980978 -0.06012875 -0.14866917 -0.011738385 0.21083143 0.08947638 0.07057148

layer.weight_hh_l0 f4 [8, 8]
00000000: ea08 f43f 0000 8c3f e763 54bf d1c7 21be
00000010: 7a31 3d3f 6d50 42bd e69a 10be 384c 1440
00000020: 14bc a33f f421 053f 58c5 4340 319a a73d
00000030: fc4e 1b3f 40eb 523e 2ab2 e1be 704f d7bf
00000040: fc87 833f 1b12 41bf 6674 8c3e 4304 7840
00000050: 0e61 ec3e ea40 463d 4c9a d0be 906f 95be
00000060: f268 1a3e 32dc 10c0 017e 3dbe 83fd 143f
00000070: cbfe 5940 d481 2cbe e38f 29bd 6f82 7c3e
00000080: abb6 cd3d 1410 ebbf d311 473f c005 f83d
00000090: c828 e4bf d93d 4b40 44db 41bf 22e3 ac3f
000000a0: e004 86bd 9e94 5ebf 8698 713f 52c5 8d3f
000000b0: c8e2 6dbe ec87 583f 78ec 0040 6952 523f
000000c0: fe2a 62bf 5803 3d3e ef84 3d3e 6204 afbe
000000d0: e42a bfbe fe68 aabe 9fa4 8140 a36d 5b3f
000000e0: 9033 ce3e 0332 00bf 8740 fd3f 78e0 a33f
000000f0: dd08 173f 5999 03bd fb22 913f 1478 da3f
1.906522 1.09375 -0.8296494 -0.1579888 0.7390362 -0.04743998 -0.14121589 2.317152
1.2791772 0.52004933 3.05892 0.081837066 0.60667396 0.20597553 -0.4408124 -1.6821117
1.0275874 -0.7541825 0.27432555 3.87526 0.46167797 0.04840175 -0.4074272 -0.29186678
0.15079096 -2.2634397 -0.18505098 0.5819933 3.4061763 -0.168464 -0.041396987 0.24659131
0.10044607 -1.8364282 0.7776157 0.12110472 -1.7824945 3.17565 -0.757252 1.3506815
-0.065438986 -0.8694552 0.9437336 1.1075842 -0.23231041 0.845824 2.014433 0.82157
-0.8834685 0.18458307 0.18507741 -0.3418303 -0.3733741 -0.33283228 4.0513453 0.8571417
0.40273714 -0.5007631 1.9785317 1.2802877 0.589979 -0.032128666 1.13388 1.7067895
