肖芳/Week03/model.bin (torch, 12462 bytes, 7 tensors)

embedding.weight f4 [28, 20]
0	0x00000000	0.0
1	0x00000000	0.0
2	0x00000000	0.0
3	0x00000000	0.0
4	0x00000000	0.0
5	0x00000000	0.0
6	0x00000000	0.0
7	0x00000000	0.0
8	0x00000000	0.0
9	0x00000000	0.0
10	0x00000000	0.0
11	0x00000000	0.0
12	0x00000000	0.0
13	0x00000000	0.0
14	0x00000000	0.0
15	0x00000000	0.0
16	0x00000000	0.0
17	0x00000000	0.0
18	0x00000000	0.0
19	0x00000000	0.0
20	0x3eca8fd5	0.3956286
21	0x3f58b771	0.8465491
22	0xbd15a8af	-0.036537822
23	0x3fbd9027	1.4809617
24	0x3f83f364	1.0308652
25	0x3ec9659c	0.39335334
26	0x3ef2093b	0.47272667
27	0xbe9f215d	-0.31080142
28	0x3dc5eb7b	0.09664055
29	0xbe93a598	-0.28837276
30	0x3fda6301	1.7061464
31	0x3f8a7bbf	1.0819014
32	0xbf84da7c	-1.0379176
33	0x3f02dc21	0.5111714
34	0xbf94f3ba	-1.163688
35	0xbe291f7d	-0.16515918
36	0x4000d234	2.0128298
37	0xbf482ed6	-0.78196466
38	0x3e19c790	0.15017533
39	0xbfc777af	-1.55834
40	0xbecab1c1	-0.3958874
41	0xbe211e5d	-0.15734239
42	0x3f5bad91	0.85811716
43	0xbf33becc	-0.7021301
44	0xbf99204b	-1.196298
45	0x3f4f09a2	0.80874074
46	0x3ed2942c	0.4112867
47	0x3eb061c7	0.34449598
48	0x3f4f3518	0.8094039
49	0x3f37e548	0.7183423
50	0x3f11f4ff	0.5701446
51	0xbf0eca39	-0.5577732
52	0xc00fa6c9	-2.2445548
53	0xbfe313e2	-1.7740443
54	0x3ee503a4	0.4472934
55	0x40013c10	2.019291
56	0x3e869acd	0.2628998
57	0x3f065672	0.52475655
58	0xbfa18e85	-1.2621619
59	0xbf415999	-0.7552734
60	0xbfc4be50	-1.5370579
61	0xbf69fb4e	-0.91399086
62	0xbfa082da	-1.2539933
63	0x3eb26915	0.34845796
64	0x3fac37ff	1.3454589
65	0x3fb2de0a	1.3974011
66	0xbf14be3b	-0.5810277
67	0x3fdd0359	1.7266647
68	0x3fe0dc31	1.7567197
69	0x3f23f113	0.64039725
70	0xbfaae19c	-1.33501
71	0xbfd4a006	-1.6611335
72	0xbfc1c851	-1.5139257
73	0xbf2a0b03	-0.6642305
74	0x3f5aba3b	0.85440415
75	0xbedc49ea	-0.43025142
76	0x3ff977e7	1.9489716
77	0xbefb8315	-0.49123445
78	0xbee6f579	-0.45109156
79	0x3fe2ad65	1.7709166
80	0xbfbfed51	-1.4994298
81	0x3e45d985	0.19321258
82	0xbf0d94d4	-0.5530522
83	0xbe250b71	-0.16117646
84	0x3e56b880	0.20968819
85	0xbff06425	-1.8780562
86	0x3dd01ab9	0.10161347
87	0xbec6c899	-0.3882492
88	0x3f5d40dc	0.8642709
89	0xc0248eca	-2.5712152
90	0x3f528afb	0.8224332
91	0x3facc0f6	1.3496387
92	0x3f43fab8	0.7655444
93	0xbeae3b0b	-0.3402942
94	0xbf866e2a	-1.0502369
95	0xbfe070b9	-1.75344
96	0x3f806ac8	1.0032587
97	0x3f0ef3fa	0.5584103
98	0xbea3d17e	-0.31995767
99	0xbef6c353	-0.48195896
100	0x3f00e8f0	0.50355434
101	0x3da5cfa8	0.08096248
102	0xbf6c2228	-0.9223962
103	0x3f8680e0	1.050808
104	0x3e4b7336	0.19868168
105	0x3fd4b56f	1.6617869
106	0xbd8757a8	-0.06608516
107	0x3f073cce	0.52827156
108	0x3fea93f1	1.8326398
109	0x3eb1283f	0.34601018
110	0x3f1774cc	0.5916259
111	0xbe63bacf	-0.2223923
112	0x3e8c90f4	0.2745434
113	0x4012debe	2.294845
114	0xbe97244c	-0.2951988
115	0x3e54c99d	0.20780034
116	0x3a742049	0.0009312672
117	0xbf58c139	-0.84669834
118	0xbd818ead	-0.06326041
119	0xbf339686	-0.70151556
120	0xbdb2d34b	-0.08731707
121	0x3f1e7bf7	0.61907905
122	0x400d88bd	2.2114708
123	0xbc74916c	-0.014927249
124	0x3fa1fe36	1.2655704
125	0xbff80bc2	-1.9378588
126	0x3f572742	0.8404428
127	0x3f8f5939	1.1199104
128	0xbf48f470	-0.7849798
129	0x3ff99fe1	1.9501916
130	0x3e40abe8	0.18815577
131	0x3fe7480c	1.8068862
132	0xbf2fabcb	-0.6862151
133	0xbf1c7403	-0.6111452
134	0x3e64864a	0.22316852
135	0xbf4bab1b	-0.7955796
136	0x3fa2575b	1.2682909
137	0xbd8100f2	-0.062990084
138	0x3f3a0c9c	0.7267549
139	0xbf9a1980	-1.2039032
140	0xbf63fb59	-0.890554
141	0x3eb5b4cd	0.35489503
142	0xbfad31a0	-1.3530769
143	0xbf295679	-0.6614757
144	0xbe4a05f2	-0.1972883
145	0x3d79bc81	0.060970787
146	0xbf70c2b8	-0.9404712
147	0xbecda361	-0.4016371
148	0xbf118108	-0.5683751
149	0xbda754da	-0.08170481
150	0x3f874174	1.056685
151	0xbeeacde6	-0.45860213
152	0xbf14817d	-0.58010083
153	0xbf4e9c56	-0.807073
154	0xbf2eee2c	-0.6833217
155	0x3f0311b2	0.51198876
156	0x3ee43ff1	0.44580033
157	0xbf13f716	-0.577989
158	0x3eabf898	0.335881
159	0x402e0f6b	2.719691
160	0xbfa2e316	-1.2725551
161	0xbf3c53ce	-0.73565376
162	0x3e5e16a3	0.21688323
163	0xbfc89eec	-1.5673499
164	0x3ea75e8d	0.32689324
165	0x3f9f8e0e	1.2465227
166	0xbf296f7e	-0.6618575
167	0x3ff7b014	1.935061
168	0x3fc08af0	1.50424
169	0x3f138510	0.5762491
170	0x3f395235	0.7239106
171	0x3ec5e015	0.38647524
172	0xbdd43bb7	-0.10362952
173	0x3e3c7859	0.18405284
174	0x3e002997	0.12515865
175	0x3f378631	0.71689135
176	0xbf902ff6	-1.1264637
177	0x3e7c864a	0.24660602
178	0x3f389850	0.7210741
179	0xbefd648c	-0.49490774
180	0x3f3c4192	0.7353755
181	0xbf0b1600	-0.54330444
182	0x4000b738	2.0111828
183	0x3f97c04e	1.1855562
184	0xbfe8cf3c	-1.8188243
185	0x401815c9	2.3763297
186	0x3f8b2c2a	1.0872853
187	0xbf6cd9d4	-0.9251988
188	0xbfbec59e	-1.4904058
189	0xbed466d9	-0.41484717
190	0x3ee32040	0.44360542
191	0x3e2ee9b9	0.17081346
192	0xbef72245	-0.48268333
193	0xbea301b0	-0.31837225
194	0xbf98102d	-1.1879936
195	0x3fb38043	1.4023517
196	0xbf3710c9	-0.7150999
197	0xbf484a8b	-0.78238744
198	0xbf5201a7	-0.8203377
199	0x3ecb15b7	0.39665005
200	0xbd50e9a1	-0.051004056
201	0x3eb1a7df	0.34698388
202	0x3e97bc05	0.29635635
203	0x3f019285	0.50614196
204	0xbfb4ef61	-1.4135553
205	0x3fd34de9	1.6508151
206	0xbf9ab112	-1.2085288
207	0x3f6ca5b1	0.92440325
208	0xbf829633	-1.0202087
209	0x3ebbbf01	0.36669162
210	0xbf35b82a	-0.7098414
211	0xbf443439	-0.76642185
212	0xbf757953	-0.9588825
213	0xbf37bd58	-0.7177329
214	0x3f1ecca2	0.62030995
215	0xbe31289f	-0.17300652
216	0x3f9961d2	1.1982977
217	0xbf35be96	-0.70993936
218	0xbe751852	-0.23935059
219	0x3fe5919f	1.7935065
220	0xbe4019c3	-0.18759827
221	0xbe992e6b	-0.29918227
222	0x3faf81be	1.3711469
223	0xbf863aec	-1.0486732
224	0x3f1a663f	0.60312265
225	0xbfa6fa82	-1.3045199
226	0xbf3d5973	-0.73964614
227	0xbe249a1f	-0.16074418
228	0x3e96c32b	0.29445776
229	0xbf3194f9	-0.6936794
230	0x3e4ee328	0.2020384
231	0x3f8fdac0	1.1238632
232	0xbea44e6c	-0.3209108
233	0xbf68ec06	-0.90985143
234	0xbf405638	-0.7513156
235	0xbf7a0fa0	-0.9768009
236	0xbffe99c6	-1.9890678
237	0x3d617691	0.055044714
238	0x3f2ef413	0.6834118
239	0xbf66e016	-0.9018568
240	0xbf67bf7d	-0.9052656
241	0xbfa78ac5	-1.3089224
242	0xbf1b571c	-0.60679793
243	0xbd987848	-0.07444817
244	0x3fe6e9d6	1.8040111
245	0x3ff5e75b	1.9211229
246	0xbf725025	-0.9465354
247	0x3f9f4b92	1.2444937
248	0xbe47e777	-0.1952189
249	0xbde7d1f3	-0.113193415
250	0xbfcfac99	-1.6224548
251	0xbf22cbff	-0.63592523
252	0x3db60a01	0.08888627
253	0xbdb42129	-0.08795387
254	0x3f2a8003	0.6660158
255	0xbf35f52c	-0.7107723

rnn.weight_ih_l0 f4 [32, 20]
0	0x3d30880c	0.043098494
1	0x3d8de7d0	0.0692898
2	0xbdecf9d7	-0.11571091
3	0x3d0d3300	0.034472466
4	0xbd586633	-0.05283184
5	0xbdc30d3e	-0.0952401
6	0xbe06b7af	-0.13156007
7	0xbe2c3359	-0.16816463
8	0x3d92e3c1	0.07172347
9	0xbca77b4a	-0.020444531
10	0x3dad8061	0.08471752
11	0xbe659a32	-0.22422102
12	0x3d53d408	0.05171588
13	0xbcf5c0df	-0.029999195
14	0x3daa77d6	0.08323638
15	0x3de9bc3d	0.11412857
16	0xbd97690d	-0.07393084
17	0x3e160864	0.14651638
18	0x3d0b9239	0.034074996
19	0xbe1eaf76	-0.1549662
20	0x3e047b80	0.12937737
21	0xbe43e82f	-0.1913154
22	0xbccfba23	-0.025357312
23	0x3c537f1d	0.012908724
24	0xbdcc331c	-0.09970686
25	0xbd82f75e	-0.06394838
26	0x3db8b685	0.09019188
27	0xbb3a8d39	-0.0028465523
28	0xbe031a03	-0.12802891
29	0x3dc557b4	0.09635869
30	0x3ca8c009	0.020599382
31	0x3dbad4e9	0.09122641
32	0xbd458d83	-0.04823066
33	0x3ce9acde	0.028524812
34	0x3e223849	0.15841784
35	0xbd9f675b	-0.07783385
36	0x3e0c5a59	0.1370634
37	0xbca5f7f2	-0.020259831
38	0xbdf43e83	-0.11925986
39	0x3e05275d	0.13003297
40	0xbd7f7945	-0.06237151
41	0xbe000ec0	-0.12505627
42	0x3d0829b7	0.033242907
43	0xbd5c31e5	-0.05375852
44	0x3a47e9dc	0.00076260953
45	0xbd9e2da4	-0.07723549
46	0x3d96c6e7	0.07362156
47	0x3e4c0bba	0.19926348
48	0xbd426400	-0.04745865
49	0xbd873e1a	-0.06603642
50	0x3da84c8a	0.08217724
51	0x3e1b31a0	0.15155649
52	0x3d41c9bd	0.047311533
53	0x3d2622a8	0.040560395
54	0x3d589603	0.052877437
55	0xbd5d8402	-0.05408097
56	0x3dc7784b	0.09739741
57	0xbd563ccc	-0.052304074
58	0xbe293b4d	-0.16526528
59	0x3e01cfeb	0.1267697
60	0xbd15c936	-0.036568843
61	0x3e6d41ec	0.23169678
62	0xbd4725ac	-0.04861991
63	0x3d5f9d22	0.054593213
64	0x3d8a195b	0.067431174
65	0x3e053fef	0.1301267
66	0xbcebae4d	-0.028769637
67	0xbea236b7	-0.3168237
68	0xbcdc3716	-0.026881736
69	0x3da43be6	0.08019237
70	0x3db81821	0.08988977
71	0xbe67a7b8	-0.22622573
72	0x3e2be28e	0.16785643
73	0x3cf79b79	0.030225502
74	0x3e5a387e	0.21310613
75	0xbcfc84ad	-0.030824983
76	0xbe266fcd	-0.16253586
77	0x3cdcb189	0.026940124
78	0x3e48c4fc	0.19606394
79	0x3cb5a20b	0.022171995
80	0xbbf2060d	-0.007385975
81	0x3bfc9292	0.007707902
82	0xbd669f13	-0.05630405
83	0x3d24675f	0.040137645
84	0x3d06c1d2	0.032899685
85	0x3d20d282	0.039263256
86	0xbd897a05	-0.067127265
87	0xbe0b9fee	-0.13635227
88	0xbdb14a95	-0.086568035
89	0xbd31b66b	-0.043386858
90	0x3dae7242	0.08517887
91	0xbcadc739	-0.02121316
92	0x3d709320	0.05873406
93	0x3d36b562	0.044606574
94	0x3dd1e9b3	0.10249653
95	0x3de2d8e4	0.11076525
96	0x3d539007	0.051651027
97	0xbd4122a7	-0.047152188
98	0xbdc6cc4f	-0.097069375
99	0x3d0e03aa	0.034671463
100	0xbe65f7a3	-0.22457747
101	0xbe9b0085	-0.30273834
102	0x3d75b5f6	0.059987985
103	0xbd9a89f6	-0.07545845
104	0x3df297da	0.1184537
105	0x3db2e3a2	0.08734824
106	0x3d7be265	0.061495204
107	0x3e0a77e7	0.13522302
108	0x3d156d63	0.036481272
109	0xbe3ae120	-0.18249941
110	0xbdd2418d	-0.10266409
111	0x3dfa4508	0.12220198
112	0xbe371000	-0.17877197
113	0x3e0f2beb	0.13981597
114	0xbe63be40	-0.22240543
115	0xbd9a0feb	-0.07522567
116	0x3d52c96a	0.051461615
117	0xbead1135	-0.3380219
118	0xbe3728c4	-0.17886645
119	0x3d2b3896	0.04180201
120	0xbded5b1d	-0.11589644
121	0x3e4e72ed	0.20161028
122	0xbdbd30cf	-0.09237825
123	0x3e3fa168	0.18713915
124	0x3e53d1f3	0.20685558
125	0x3adb3fd7	0.00167274
126	0x3d067cf4	0.03283401
127	0xbe8676f9	-0.26262644
128	0xbc1d28ca	-0.009592244
129	0x3da25258	0.07925862
130	0xbe0907cb	-0.13381879
131	0xbe9082d4	-0.28224814
132	0x3e03fe36	0.12889943
133	0xbdde7efc	-0.10864064
134	0xbd65e474	-0.056126073
135	0x3e27ea56	0.16397986
136	0xbd1327ef	-0.035926756
137	0x3dbecf5b	0.09316894
138	0x3b08eaaf	0.0020891835
139	0xbda76eb7	-0.08175414
140	0x3c4ea048	0.012611456
141	0xbe768005	-0.24072273
142	0x3d52250d	0.051304866
143	0xbdab8d95	-0.08376614
144	0xbe028afa	-0.12748328
145	0xbc4c8e9d	-0.0124851735
146	0x3b152f1b	0.0022763673
147	0x3ea93983	0.3305169
148	0xbd0babb2	-0.03409929
149	0xbd413712	-0.04717166
150	0x3d93a2c8	0.072087824
151	0x3dfd0a93	0.123555325
152	0xbce4893a	-0.027897466
153	0xbd5015e2	-0.05080212
154	0xbdfa43fe	-0.1222
155	0xbcb1fe4c	-0.021727704
156	0xbcbf67cb	-0.023364922
157	0xbe81e381	-0.25368884
158	0xbb69a4b5	-0.0035651152
159	0xbd24e378	-0.040255994
160	0xbd7dc2cc	-0.06195335
161	0xbdb310a6	-0.0874341
162	0xbcaf144c	-0.021371983
163	0xbcce83fc	-0.02520942
164	0xbd2ac91b	-0.041695695
165	0x3d2d24c5	0.042271394
166	0x3df7a0e9	0.12091238
167	0x3ca6889f	0.020328818
168	0x3cc0178b	0.023448726
169	0x3d73fba7	0.059566166
170	0xbcb08899	-0.02154951
171	0x3e3b460f	0.18288444
172	0x3d6ceae2	0.05784119
173	0xbddc8b85	-0.10768799
174	0x3da2c033	0.07946815
175	0xbcb48f5a	-0.022041012
176	0x3e24d007	0.16094981
177	0x3def9dc6	0.11700015
178	0xbd96ce47	-0.07363563
179	0xbcffc394	-0.031221189
180	0x3e09cedc	0.13457817
181	0xbd00cbd7	-0.031444397
182	0x3dcdec7d	0.10054872
183	0xbe05299c	-0.13004154
184	0x3dca6856	0.09883182
185	0xbdb2f81f	-0.087387316
186	0x3cb724cd	0.022356415
187	0xbc879180	-0.016548872
188	0xbd450879	-0.048103783
189	0xbca68709	-0.020328062
190	0xbdab5849	-0.083664484
191	0x3c8a63f7	0.01689337
192	0x3d2e4df4	0.04255481
193	0xbd6d8efe	-0.057997696
194	0x3da94300	0.08264732
195	0xbcf0b7d7	-0.029384537
196	0x3dd6bd82	0.104853645
197	0xbe09420d	-0.13404103
198	0xbce45b4d	-0.027875567
199	0x3d4b9d5e	0.049710624
200	0x3da87862	0.08226086
201	0xbe1b6409	-0.15174879
202	0xbd59a036	-0.053131305
203	0x3d90120b	0.070346914
204	0xbce63071	-0.02809927
205	0xbd02ad7e	-0.031903736
206	0x3cd6581d	0.026165063
207	0x3e1bc229	0.15210785
208	0xbd0038fa	-0.031304337
209	0x3c8c1d03	0.017103678
210	0x3e1025e3	0.14076953
211	0x3d607f6c	0.05480902
212	0xbd6f4cea	-0.05842296
213	0xbb6ee60e	-0.0036453041
214	0x3aaca678	0.001317217
215	0xbd81eb7a	-0.06343742
216	0x3dab00b9	0.08349747
217	0xbde4bac5	-0.11168436
218	0xbddf6f03	-0.10909846
219	0x3da9ed65	0.082972325
220	0xbe0748d6	-0.13211378
221	0xbc6bee40	-0.014400065
222	0x3db796f7	0.08964341
223	0x3cfc78ed	0.03081938
224	0xbdaf4838	-0.085586965
225	0x3cb2f67f	0.021846054
226	0x3c4c8bb2	0.012484478
227	0x3e640fda	0.22271672
228	0xbc09e56c	-0.008416515
229	0xbd8f7965	-0.07005576
230	0x3df2cb4b	0.11855181
231	0x3e2db4f1	0.16963555
232	0xbdfaaf7b	-0.122405015
233	0x3e2f22ba	0.17103091
234	0xbc340407	-0.010987288
235	0xbc7b7abe	-0.015349088
236	0x3b6dce9e	0.0036286484
237	0xbdd11838	-0.102096975
238	0xbe5df01c	-0.21673626
239	0x3e1e8ec1	0.15484144
240	0x3d1f74ce	0.038929753
241	0x3e853d1c	0.26023185
242	0x3e09a642	0.13442329
243	0x3cb57422	0.022150103
244	0x3db70e52	0.08938278
245	0xbe01f69a	-0.12691727
246	0xbe3ca375	-0.18421729
247	0xbde47122	-0.11154391
248	0xbaca29d6	-0.0015423845
249	0xbd589b38	-0.052882403
250	0xbdd01c37	-0.101616316
251	0xbe8e9a47	-0.2785208
252	0x3e00be59	0.12572612
253	0x3d5a39d6	0.053277813
254	0x3d378fda	0.044814922
255	0x3db32b3c	0.08748481

rnn.weight_hh_l0 f4 [32, 32]
0	0xbe228c50	-0.15873837
1	0xbe65cbaf	-0.2244098
2	0xbebbe774	-0.36700022
3	0x3e8d988f	0.27655455
4	0x3df0af82	0.117522255
5	0xbe3ba16c	-0.18323296
6	0xbc0264b2	-0.007958578
7	0x3e12511c	0.14288753
8	0x3d3453df	0.0440253
9	0xbbeca231	-0.007221483
10	0x3e84c783	0.25933465
11	0xbcd3a9ff	-0.025837896
12	0x3ed93dcb	0.42429957
13	0x3dcb8009	0.0993653
14	0xbd405a2a	-0.046960987
15	0xbe8f8482	-0.28030783
16	0xbd3fcdd6	-0.04682716
17	0xbc353df3	-0.011062133
18	0xbacfdd8c	-0.0015858873
19	0xbe4b6e18	-0.19866216
20	0xbc9eee1a	-0.019400645
21	0x3dff4276	0.12463848
22	0xbe350364	-0.17677075
23	0x3d398d83	0.04530097
24	0x3b76e1df	0.003767125
25	0x3baccb9d	0.005273296
26	0x3e6087b0	0.2192676
27	0xbe11c339	-0.14234628
28	0x3eb44ce0	0.352149
29	0x3d47ce3b	0.04878066
30	0x3e1197c6	0.14218053
31	0xbcaee639	-0.021350013
32	0x3e52e150	0.20593762
33	0xbd84366d	-0.064556934
34	0xbe4dbdb6	-0.200919
35	0xbd325bad	-0.04354446
36	0xbdc3f88c	-0.09568891
37	0xbe430f06	-0.190487
38	0x3e861b78	0.26192832
39	0xbe799401	-0.24372865
40	0xbbd43b80	-0.0064768195
41	0xbd8afb55	-0.06786219
42	0x3e0822c6	0.13294515
43	0xbd7fdd47	-0.062466886
44	0x3e623942	0.22092155
45	0xbd8789a2	-0.06618048
46	0xbebee712	-0.37285668
47	0x3e5e180b	0.21688859
48	0xbe5ff709	-0.2187158
49	0x3ecb4bdf	0.39706323
50	0xbe37ebde	-0.1796107
51	0x39d41eeb	0.00040458827
52	0x3dc7f7b3	0.09764042
53	0xbdfde928	-0.12397987
54	0xbe9484fc	-0.2900771
55	0x3e8145b7	0.252485
56	0xbd5c114d	-0.053727437
57	0x3d8e0b74	0.06935778
58	0x3d981667	0.07426148
59	0x3dc1a197	0.09454649
60	0xbd934dfc	-0.07192609
61	0xbdaf2a9c	-0.08553049
62	0x3dae7cb3	0.08519878
63	0xbe9ff5f4	-0.31242335
64	0xbd8e88d4	-0.06959692
65	0xbe0a59f6	-0.1351088
66	0xbe539241	-0.2066126
67	0x3e914e16	0.28379887
68	0x3d6b5be9	0.0574607
69	0xbeaa153d	-0.3321933
70	0x3e01e4c3	0.12684922
71	0xbbefa252	-0.0073130513
72	0x3d9ce526	0.07660894
73	0x3d6d6b14	0.057963446
74	0x3d74f482	0.059803493
75	0x3d9634d7	0.07334297
76	0x3eb548de	0.35407156
77	0x3cd95fe9	0.026534991
78	0x3e303320	0.17207003
79	0xbd3f6bde	-0.04673373
80	0x3d64b3c8	0.055835515
81	0x3c5e41da	0.013565505
82	0x3e01ade3	0.12663989
83	0xbda2b775	-0.07945148
84	0x3ce404f7	0.027834399
85	0xbcf83b67	-0.030301763
86	0x3b47f26f	0.0030509492
87	0xbe0247d7	-0.12722717
88	0xbd3e6cfd	-0.046490658
89	0x3d514d5c	0.051099166
90	0x3eafb2c7	0.34316084
91	0xbdd08ce5	-0.101831235
92	0x3eae2843	0.34015092
93	0x3dd1337a	0.102148965
94	0x3db19cde	0.08672498
95	0x3d0d4e4b	0.034498494
96	0x3e1a7455	0.1508344
97	0xbd6f9011	-0.058487
98	0x3e633db4	0.22191507
99	0x3e5b3958	0.21408594
100	0xbe68e8bc	-0.22745031
101	0x3d6ee441	0.05832315
102	0x3eac3ec3	0.33641633
103	0x3d67708f	0.05650383
104	0xbcb69c11	-0.022291215
105	0x3df277b9	0.118392415
106	0xbe7834e7	-0.2423893
107	0xbe6a49c3	-0.228797
108	0x3d8aa38e	0.06769477
109	0xbcf22b6f	-0.029561726
110	0xbe7bad2d	-0.2457778
111	0x3cb6ee23	0.02233035
112	0xbe817cb9	-0.25290468
113	0x3c97338a	0.018457193
114	0xbd230e1b	-0.039808374
115	0xbe14c203	-0.14527135
116	0xba1d458a	-0.0005999437
117	0xbe0e42ef	-0.1389272
118	0xbe2830c7	-0.16424857
119	0x3e8cbb5c	0.27486694
120	0x3d8ea620	0.069652796
121	0x3d46996a	0.04848615
122	0x3e75f0ea	0.24017683
123	0x3ea41df8	0.32054114
124	0x3d291fd8	0.041290134
125	0xbe1553b7	-0.14582716
126	0xbcf2c759	-0.029636072
127	0xbcba0100	-0.022705555
128	0xbdaabd8b	-0.08336934
129	0x3e21f9be	0.15817925
130	0x3da2f321	0.079565294
131	0xbe998db1	-0.29990914
132	0x3e173ba2	0.14768842
133	0x3e5034d8	0.20332658
134	0x3c15d50a	0.009145031
135	0xbc5a75c3	-0.013333741
136	0xbe43b69d	-0.1911263
137	0xbe632819	-0.22183265
138	0x3d9a878d	0.075453855
139	0x3dbb39cb	0.091418825
140	0xbe968ddb	-0.29405102
141	0xbe6cbbe4	-0.2311855
142	0xbdff29ba	-0.124591306
143	0x3e2a2341	0.16615011
144	0xbe95f385	-0.29287353
145	0x3e27a61f	0.16371964
146	0xbd67d63c	-0.056600794
147	0x3e9dfe26	0.30857962
148	0x3e7283ec	0.23683137
149	0xbd0397b0	-0.032127082
150	0xbe74ef90	-0.23919511
151	0xbe005d73	-0.12535648
152	0x3b760fb7	0.0037545988
153	0xbd8ec7b5	-0.06971685
154	0xbd9e9f88	-0.07745272
155	0xbdc52275	-0.09625713
156	0xbeb9422e	-0.36183304
157	0xbe005038	-0.12530601
158	0x3e3fa11d	0.18713804
159	0xbdf00fc5	-0.11721758
160	0x3d7327d4	0.059364155
161	0xbe9da5aa	-0.30790454
162	0xbe806572	-0.25077397
163	0xbcbe387d	-0.023220295
164	0xbe988f7e	-0.29796976
165	0xbe959eeb	-0.29222807
166	0x3d98e450	0.07465422
167	0x3ccb3a77	0.024808152
168	0x3e133812	0.14376858
169	0x3e09de4d	0.13463707
170	0x3e85dfa1	0.26147178
171	0xbc168144	-0.009186093
172	0x3e49d629	0.19710602
173	0xbd99c58c	-0.07508382
174	0xbd364ea5	-0.044508595
175	0x3d253572	0.040334173
176	0xbdb54dd0	-0.08852732
177	0x3e97f20b	0.29676852
178	0xbeb24bee	-0.34823555
179	0x3c36ce41	0.011157573
180	0x3cdb8342	0.026795987
181	0x3d320b52	0.043467827
182	0xbe7176e0	-0.23580503
183	0x3df43d8a	0.119258
184	0xbcdd624c	-0.02702441
185	0x3d2d1b97	0.04226264
186	0x3e23e75c	0.16006225
187	0xbd61e8d8	-0.055153698
188	0x3d0b6f80	0.03404188
189	0x3d471a4b	0.04860906
190	0x3e1d282e	0.15347359
191	0xbe680681	-0.22658731
192	0xbe10b615	-0.14131959
193	0xbe3f880c	-0.18704242
194	0xbea7d617	-0.32780525
195	0x3d16527c	0.036699757
196	0x3d9b6995	0.075884975
197	0xbe9e2d52	-0.30893952
198	0x3da8b98c	0.08238515
199	0xbd288e6d	-0.041151453
200	0x3e402238	0.18763053
201	0xbe21f678	-0.15816677
202	0xbd8beb28	-0.06831962
203	0xbe291950	-0.16513562
204	0x3e9620ff	0.2932205
205	0x3e1d5a0a	0.15366378
206	0x3e155c09	0.1458589
207	0x3c8520fe	0.016251083
208	0x3d13b6c5	0.036062974
209	0x3d828a6e	0.063740596
210	0x3db322a7	0.08746844
211	0xbe1e6bed	-0.15470858
212	0xbc3a2ead	-0.011363667
213	0x3e4b7706	0.19869623
214	0x3db6baa1	0.089223154
215	0xbd902be5	-0.07039622
216	0x3d22a9d2	0.039712735
217	0x3b0b0455	0.00212123
218	0x3ec947fa	0.39312726
219	0x3d0b715a	0.034043647
220	0x3e323a08	0.1740495
221	0x3de33261	0.110935934
222	0x3d2c7adc	0.042109355
223	0xbe04e9cc	-0.12979811
224	0xbdce8732	-0.1008438
225	0x3e829ee5	0.25511852
226	0xbe48fe2c	-0.19628209
227	0x3e7aed88	0.24504673
228	0x3e5f422e	0.2180259
229	0x3df1ff6b	0.11816295
230	0x3cfe0e2b	0.031012615
231	0xbe448f0e	-0.19195196
232	0xbc9b3976	-0.018948298
233	0xbc8802c3	-0.01660288
234	0xbe06eb19	-0.1317562
235	0xbddb2604	-0.1070061
236	0x3c9c1ddf	0.019057212
237	0x3e7a60da	0.24451008
238	0x3ac11b0d	0.0014732793
239	0xbe548107	-0.20752345
240	0xbe7f877c	-0.24954027
241	0xbe70375c	-0.23458618
242	0x3e06acda	0.13151875
243	0xbe356a9a	-0.17716447
244	0x3d58dcd5	0.052944977
245	0xbe480c1d	-0.19535871
246	0xbe2bcf36	-0.16778263
247	0xbe93c4ad	-0.2886099
248	0x3e41cd5d	0.18925996
249	0x3e83c310	0.25734758
250	0xbe8a6e68	-0.27037358
251	0x3e90aacb	0.28255305
252	0x3d0abcac	0.033871338
253	0xbe5ce39b	-0.215712
254	0xbe156239	-0.1458825
255	0x3e162240	0.14661503

rnn.bias_ih_l0 f4 [32]
0	0xbda42736	-0.080152914
1	0xbdbd20ff	-0.09234809
2	0xbe27ab5b	-0.1637396
3	0xbd6bb8c9	-0.05754927
4	0xbe0e7e2d	-0.1391532
5	0x3e1ebc6d	0.15501566
6	0xbd5617fb	-0.052268963
7	0xbd575fd9	-0.05258164
8	0xbca54415	-0.020174066
9	0x3e315024	0.17315727
10	0x3e81376b	0.25237593
11	0x3a9ad711	0.0011813362
12	0xbdc28026	-0.094970986
13	0x3e3c82ba	0.18409243
14	0x3be6528e	0.0070288843
15	0xbca66d04	-0.020315655
16	0xbe3bec33	-0.18351822
17	0x3db8bdcc	0.09020576
18	0xbda6222e	-0.08111988
19	0x3e579cf7	0.21055971
20	0xbe12f189	-0.14349951
21	0xbd335d3b	-0.043790083
22	0x3cd09be1	0.025464954
23	0xbe3d0507	-0.18458949
24	0x3aa6eb0e	0.0012734847
25	0xbe7adf99	-0.24499358
26	0xbdfb7fef	-0.12280261
27	0xbc528319	-0.012848639
28	0xbe83ca39	-0.2574022
29	0x3c66a5e6	0.014077639
30	0xbc470791	-0.0121478
31	0xbe08e4c5	-0.13368519

rnn.bias_hh_l0 f4 [32]
0	0xbe02eb01	-0.1278496
1	0xbde3bc48	-0.11119896
2	0x3d4182c4	0.04724385
3	0x3c6b3184	0.014355067
4	0xbd8eb149	-0.06967408
5	0x3d0845bb	0.033269625
6	0xbe6fe750	-0.23428082
7	0x3dd82787	0.10554414
8	0x3d2bc503	0.041935932
9	0x3e1e5f03	0.15465932
10	0x3e9f5887	0.31122229
11	0x3db1f616	0.08689515
12	0xbe0c8796	-0.13723597
13	0x3b3b26d0	0.002855707
14	0xbe4f2ac6	-0.2023116
15	0x3e2b0cee	0.16704151
16	0x3dbfa6ae	0.093579635
17	0x3e13bc08	0.14427197
18	0xbd858f43	-0.06521466
19	0xbc5c79a0	-0.013456732
20	0x3c50908b	0.012729774
21	0x3dd4993c	0.1038079
22	0x3e098212	0.13428524
23	0xbe233f93	-0.1594222
24	0x3cc570d2	0.024101648
25	0x3c1efb8f	0.009703531
26	0xbe26bc5b	-0.1628279
27	0xbdaf3ece	-0.08556901
28	0xbe516b3b	-0.20451061
29	0xbd430478	-0.047611684
30	0x3dd19892	0.102341786
31	0xbddc70cd	-0.107637025

classifier.weight f4 [6, 32]
0	0xbe8ec9cd	-0.27888337
1	0x3c843b31	0.016141506
2	0xbe406e8a	-0.18792167
3	0xbeb4900f	-0.35266158
4	0x3ec50a11	0.38484243
5	0xbe6a9282	-0.22907451
6	0xbe365f3b	-0.17809765
7	0x3e683450	0.22676206
8	0x3ee625ee	0.44950813
9	0x3cbe2f2b	0.02321585
10	0x3e800402	0.25003058
11	0xbf04a812	-0.51818955
12	0x3e53e8a6	0.20694217
13	0x3e17983e	0.1480417
14	0xbeb35be1	-0.35031036
15	0xbe287270	-0.16449904
16	0xbec41897	-0.3830001
17	0x3e056c65	0.1302963
18	0x3e93c1a6	0.2885868
19	0x3eaa1ba2	0.33224207
20	0xbe9ecea1	-0.3101702
21	0xbe24e24f	-0.16101955
22	0x3ef22871	0.4729648
23	0x3cd3e1db	0.025864532
24	0x3e9dcb45	0.30819145
25	0xbeec5330	-0.46157217
26	0x3d18f9cc	0.0373476
27	0x3e178da9	0.14800133
28	0xbee2c1cf	-0.4428849
29	0xbca755b4	-0.020426609
30	0xbdbedeff	-0.09319877
31	0x3ec2bde1	0.3803549
32	0xbed88cff	-0.4229507
33	0x3eac921b	0.3370522
34	0xbeb2d448	-0.34927583
35	0x3d014e15	0.031568605
36	0x3ed1e50a	0.40995055
37	0x3e1f61a7	0.15564595
38	0xbe93276a	-0.28741008
39	0xbea52a5f	-0.3225889
40	0xbec96507	-0.3933489
41	0xbed3f6cd	-0.41399232
42	0x3e706961	0.23477699
43	0x3e4fc56b	0.20290153
44	0xbe867e1a	-0.26268083
45	0x3daf4ec1	0.08559943
46	0x3e9f1925	0.3107387
47	0x3e773d39	0.24144448
48	0xbbaa176e	-0.0051907813
49	0x3e0a7e43	0.13524728
50	0x3defaeeb	0.11703285
51	0x3e97c3ac	0.29641473
52	0x3b668b14	0.0035178112
53	0xbe8e8ed7	-0.27843353
54	0xbe63dff0	-0.22253394
55	0xbec02322	-0.37526804
56	0xbdc2e863	-0.095169805
57	0x3ed91f54	0.42406714
58	0xbe8b6eb3	-0.27232894
59	0xbe2cfcfe	-0.16893384
60	0xbea51dc3	-0.3224927
61	0xbd9d4fef	-0.07681262
62	0xbe2f2566	-0.1710411
63	0xbe91bebf	-0.2846584
64	0x3e72446d	0.23658915
65	0xbe880ed0	-0.265738
66	0x3eb851fb	0.36000046
67	0xbea84cc1	-0.3287106
68	0xbe3a10ab	-0.18170421
69	0x3d8d7913	0.06907859
70	0x3d82bf5e	0.06384157
71	0xbe65bbc5	-0.2243491
72	0xbd75d75b	-0.060019832
73	0x3e18a70c	0.14907473
74	0x3d611506	0.05495169
75	0x3e39d07a	0.18145934
76	0xbe903869	-0.28168038
77	0xbec3c439	-0.38235644
78	0xbe74e458	-0.23915231
79	0x3e6ab648	0.22921097
80	0xbe206649	-0.15664019
81	0x3d724ea4	0.05915703
82	0xbeccd645	-0.40007225
83	0x3ead2196	0.33814687
84	0x3e81ed19	0.25376204
85	0x3e589255	0.21149571
86	0xbdfac872	-0.12245263
87	0x3eb993ab	0.36245474
88	0xbeae2457	-0.340121
89	0xbeaf220d	-0.34205666
90	0xbe56a5b4	-0.20961648
91	0xbe820426	-0.2539379
92	0xbea5a743	-0.32354173
93	0xbdf0e99e	-0.11763309
94	0x3edec1d0	0.43507242
95	0xbe9ca6bf	-0.30595967
96	0xbeb4225e	-0.3518247
97	0xbe9b9ecf	-0.303946
98	0xbd92ec1a	-0.07173939
99	0x3cbf7d4d	0.023375178
100	0xbe3bdd2e	-0.18346092
101	0xbedf4a07	-0.43611166
102	0xbea977f3	-0.33099326
103	0x3e10b7c0	0.14132595
104	0x3e839a2b	0.25703558
105	0xbd045e69	-0.0323166
106	0x3ead2dc8	0.3382399
107	0x3ebde8f5	0.37091795
108	0x3eabcd86	0.3355524
109	0x3dfbe15d	0.12298844
110	0x3ecfbb1c	0.4057244
111	0x3c38eb92	0.011286633
112	0x3ea913e4	0.33022988
113	0xbeb8d5a8	-0.36100507
114	0xbe2f3a6c	-0.1711213
115	0xbeb95c7f	-0.3620338
116	0xbe85fa60	-0.26167583
117	0x3e9609f1	0.2930446
118	0x3dbc71c5	0.09201387
119	0xbe63eed3	-0.22259073
120	0xbeb59db5	-0.35471883
121	0xbe69c28b	-0.22828119
122	0x3eb3a3d4	0.35085928
123	0xbe7e566e	-0.24837658
124	0x3dac82a0	0.08423352
125	0x3ee104a2	0.43948847
126	0x3ea287ee	0.3174433
127	0x3e01f98d	0.12692852
128	0x3ec7d839	0.39032152
129	0x3ecc5360	0.3990736
130	0x3e4f5e93	0.20250921
131	0x3e8e8d01	0.27841952
132	0xbe3fa967	-0.18716966
133	0x3e12d01d	0.14337201
134	0x3de31944	0.110888034
135	0x3e2ec3c7	0.1706687
136	0xbe99df16	-0.30053014
137	0x3ea34904	0.31891644
138	0xbeb435a5	-0.35197178
139	0xbd3b379b	-0.045707326
140	0xbeb36730	-0.35039663
141	0x3d9d6f0b	0.076871954
142	0xbd64b383	-0.05583526
143	0xbed24919	-0.41071394
144	0x3ea601b1	0.32423165
145	0xbe6e295b	-0.23257963
146	0x3df1187c	0.11772248
147	0xbeb221e4	-0.34791481
148	0xbeb547ec	-0.35406435
149	0x3e5058a8	0.2034632
150	0x3e7b57bf	0.24545191
151	0xbe7a0a1e	-0.24417922
152	0x3e84225c	0.25807464
153	0xbe8d0fd3	-0.27551135
154	0xbe813bef	-0.25241038
155	0x3e737e81	0.23778726
156	0x3e54e98b	0.20792215
157	0x3d53d5c2	0.051717527
158	0xbed69aa9	-0.4191487
159	0x3e9de447	0.30838224
160	0x3efb5714	0.49089873
161	0xbe3c1f6d	-0.18371363
162	0xbe80fcd8	-0.25192904
163	0x3ec6fa63	0.38862905
164	0x3c234f55	0.009967645
165	0xbeebe842	-0.46075636
166	0x3e9c8758	0.3057201
167	0xbe95b749	-0.29241398
168	0xbd37372a	-0.044730343
169	0xbddf89a3	-0.10914924
170	0xbe51b47d	-0.20479007
171	0xbec52e36	-0.3851182
172	0x3e529524	0.20564705
173	0x3e362a55	0.17789586
174	0x3df4cea5	0.11953477
175	0xbe93068c	-0.28715932
176	0xbe6dea92	-0.23234013
177	0x3e691fd6	0.2276605
178	0x3ea9656d	0.33085194
179	0xbdae03d0	-0.08496821
180	0x3e8a27a8	0.2698338
181	0xbe8e3e73	-0.2778202
182	0xbe87e248	-0.26539826
183	0x3ea9fe01	0.33201602
184	0x3df3a677	0.11896985
185	0x3e74cd2f	0.23906396
186	0x3ea7842d	0.3271803
187	0x3e662251	0.22474028
188	0x3ed0dc61	0.40793136
189	0xbea14cd3	-0.31503925
190	0x3ed5be97	0.4174697
191	0xbe3b3743	-0.182828

classifier.bias f4 [6]
0	0x3e413513	0.18867902
1	0x3d3a7c09	0.045528445
2	0xbcc8194f	-0.02442613
3	0x3d45937f	0.048236366
4	0xbe45961d	-0.19295545
5	0xbe2f3825	-0.17111261
