刘昕/week13/output/lora_tuning.pth (torch, 926355 bytes, 38 tensors)

base_model.model.bert.encoder.layer.0.attention.self.query.lora_A.weight f4 [8, 768]
000000 c8 69 46 3b dc 1e 53 bd 0a ba 99 bc 66 6c c0 39
       0.0030275453 -0.0515431 -0.018765468 0.00036701857
000010 ff 61 58 3d b9 21 40 3b 4b ab b9 3b 84 63 9f 3c
       0.05282783 0.0029316975 0.0056661717 0.019456632
000020 78 7d 81 3d c6 7d e2 3c 45 63 20 3d ed f6 10 3c
       0.063227594 0.027647864 0.03915717 0.008847934
000030 59 97 8c bc f9 e2 2a bc d5 4c 8d bd d7 2e 85 bc
       -0.017162012 -0.010430091 -0.0689942 -0.016257687
000040 97 ae 00 3c a0 fe d2 3a db 53 2c bd 1b 10 09 bc
       0.007854125 0.0016097613 -0.04207216 -0.008365656
000050 7a 18 50 bc 72 bd a0 bc 6a 4e b0 bc 76 97 ba 3b
       -0.012701148 -0.019621585 -0.021521766 0.005694325
000060 68 b1 43 3d e9 6d 6d 3c 3f 5c 18 3c 9a 91 0a 3d
       0.04777661 0.014491537 0.009299337 0.033830263
000070 a7 f7 b0 bc 76 ff d7 3b ee 5b ed ba 2e d7 8f bc
       -0.021602465 0.0065917326 -0.0018109062 -0.01755866
000080 5a e2 a8 bc 93 2e f2 bc 6b 6e 48 bc c4 6f 4a bc
       -0.020615745 -0.029563224 -0.012233357 -0.012355749
000090 0b 45 fd bc 0a 67 5c bd 2d da 1e bd d1 00 9f 3c
       -0.030916711 -0.053809203 -0.038782287 0.019409569
0000a0 7b 27 bd ba b6 aa 03 bd 59 c3 06 bc e7 37 c5 3b
       -0.0014431322 -0.032145225 -0.008225285 0.006018627
0000b0 37 31 37 3d 7e 5e f7 3c 53 74 a5 bc 29 df ed bc
       0.04472467 0.030196425 -0.02019707 -0.029037075
0000c0 87 e6 4c bd bb 76 36 3d 60 bb 1a bd 1c 28 e2 3b
       -0.050024536 0.044546824 -0.03777635 0.006901754
0000d0 cd 57 a4 3b d5 37 60 3c 49 2f df 3b 53 fb 53 3d
       0.0050153495 0.013685186 0.0068110568 0.051753353
0000e0 5c b1 52 3d fe 6f 85 3c e5 7a 85 3d cc b7 36 3c
       0.051438674 0.016288754 0.06517581 0.011152219
0000f0 b0 3f 1c 3c 2f cf 0c bd 00 d2 3c 3c c7 04 b7 bc
       0.009536669 -0.034377273 0.011524677 -0.022341145
000100 e5 c3 b6 3c f1 dd b6 bc 76 25 11 bc 78 54 ec bb
       0.022310207 -0.022322627 -0.008859029 -0.007212218
000110 35 ce 4c 3d 87 b1 03 bd 99 bd 02 3d a0 1a 2a 3d
       0.05000134 -0.032151725 0.031919096 0.041529298
000120 ed b5 5c 3d 6a 32 df 3c 6c 02 b3 3c 33 8a 0c bd
       0.053884435 0.027245719 0.02185174 -0.034311485
000130 5c c4 0a 3d 29 ea 2f 3d fb 8d ce 3b 60 14 ab bb
       0.03387867 0.042947922 0.0063035465 -0.0052209347
000140 8c 3a 92 b9 70 08 98 ba 27 ca 5a 3d 6f 10 ef bc
       -0.0002789091 -0.0011599194 0.053415444 -0.02918264
000150 b5 3e 3e bc 20 a4 fa 3c 32 13 6b 3c e5 c6 1b bd
       -0.01161163 0.030595839 0.014347838 -0.038031477
000160 93 fd 34 3d 84 88 35 3d 58 c8 21 3b a1 b9 04 bd
       0.04418714 0.044319645 0.0024686065 -0.032403592
000170 5b a2 df 3c 8a bc 15 bd 5c f8 f0 bc 56 38 b0 bc
       0.027299097 -0.036556758 -0.029415302 -0.021511238
000180 a5 45 94 3c 52 8d dd bc e1 f8 10 3d 95 ee e7 3b
       0.018099615 -0.027044926 0.0353936 0.0070780017
000190 49 4b 17 3d 83 d8 85 bc 97 72 19 bd 46 a9 f5 bc
       0.036937032 -0.016338592 -0.037462797 -0.029987942
0001a0 25 04 f3 39 89 7b 21 bd 73 1c 33 3d d8 ee 02 3d
       0.0004635166 -0.039424453 0.043728303 0.03196606
0001b0 6a 6a fe bc 9e f1 3f 3d ba a1 0a bc 7b 9c 93 bc
       -0.031056602 0.046861283 -0.00846141 -0.018018952
0001c0 76 40 0b bc 83 1d 0e 3d 90 ca 20 3c 8e 96 04 3d
       -0.008499255 0.034696113 0.00981392 0.032370143
0001d0 12 8d 64 bd 06 2e 38 3b 9c 93 f5 3c 92 2c 90 3c
       -0.055798598 0.0028103604 0.029977612 0.017599378
0001e0 4f e6 a7 3a 24 14 95 bd 4c 59 d6 ba fc 9d a7 3a
       0.0012809726 -0.07279232 -0.0016353517 0.0012788172
0001f0 72 0b 35 3c af f7 44 3d c1 83 2c bd eb 1d b0 3b
       0.011050092 0.048087772 -0.042117838 0.0053746602
000200 0a 68 62 3d 4a a0 0c 3b 61 18 b1 3c 72 ea 48 bb
       0.055275 0.0021457844 0.02161807 -0.0030657318
000210 cc f7 7e bb 1f 2c 84 3b e7 6b c8 bb 28 8a 0e 3d
       -0.0038905023 0.00403358 -0.0061163786 0.034799725
000220 ee 3b d0 bc cc 79 eb ba 8e c7 04 3d 21 60 a8 3c
       -0.025419202 -0.0017965375 0.032416873 0.02055365
000230 c7 2c da bc 12 c1 33 3c ff 2e 0e bb 84 5d 28 bb
       -0.02663268 0.0109713245 -0.0021695492 -0.0025690505
000240 3d b3 9a 3c 13 85 30 bd e6 93 7f 3c 17 92 61 3d
       0.018884296 -0.04309566 0.015599227 0.055070963
000250 5d 87 41 bc 9c 52 71 bc 43 38 d8 bc 74 df 82 3c
       -0.011812058 -0.014729168 -0.026394015 0.015975691
000260 c0 3a 58 3c 12 07 bb 3c 39 bd 01 3d 52 2d 83 3c
       0.013197601 0.02283052 0.031674597 0.016012821
000270 cc 20 01 3a 25 b9 53 bd 1d bc b8 bc 0d b3 85 3c
       0.00049258466 -0.05169024 -0.022550637 0.01632073
000280 bb 98 e4 3a c5 12 ca 3c 3e 33 d6 3c 4d 25 c0 3c
       0.0017440537 0.024667153 0.026147481 0.023455286
000290 40 1c a8 bc 64 80 1d bc 52 5e 90 bc 15 41 9b bc
       -0.020521283 -0.00961313 -0.0176231 -0.018951932
0002a0 11 8f 7f bb d3 bc cd bc e7 4d 0b 3d ea 19 fe bc
       -0.0038995186 -0.025114452 0.03400984 -0.031018216
0002b0 bd e6 a7 bc 57 da 0d 3d 74 51 2e bc a4 3c 6a bc
       -0.020495767 0.034632053 -0.010639537 -0.014296684
0002c0 1c f1 0d 3c ba d7 a1 3c 78 03 cf bb b7 ba 29 bd
       0.008663442 0.019756187 -0.006317552 -0.04143783
0002d0 35 85 de bb 61 85 b5 3c 6b 6c 66 3c 8e b9 c8 3c
       -0.006790782 0.022158327 0.014063935 0.024502542
0002e0 35 68 2e bd 2b dc 99 bd c0 7f f1 3b 6f 22 c9 bc
       -0.04257985 -0.07512697 0.0073699653 -0.024552552
0002f0 1a f4 2d 3c 07 4c 29 bd 00 4d 0c 3d 5d 85 2d 3b
       0.01061728 -0.04133227 0.03425312 0.0026477196
000300 e3 41 fa bb e8 a0 7e 3c 8a 7e 11 3d 5c bc 62 3c
       -0.007637249 0.015541293 0.035521068 0.013838854
000310 23 65 ee bc 9c 07 d6 bb 49 36 f0 bc c1 01 1e 3d
       -0.02910096 -0.006531669 -0.02932276 0.03857589
000320 2e 92 1b bc 0c a6 b0 3c 58 a3 95 bc 7a 18 8f bc
       -0.009495301 0.021563552 -0.018266365 -0.017467726
000330 2b 5a a4 3c 80 10 65 bd b6 46 95 3d cc a0 6b bc
       0.020062527 -0.05592394 0.07288878 -0.014381599
000340 8e 13 06 bd 9a c0 56 bd 53 e4 06 bd 97 b0 25 3c
       -0.032733493 -0.052429773 -0.03293259 0.010112903
000350 40 78 1e bb 08 94 3e bc 99 5e b8 3a 54 65 af bc
       -0.0024180561 -0.011631973 0.0014066278 -0.021410622
000360 12 2b 8b bc 4a e6 56 3b 4c 14 02 3d 87 68 c0 3c
       -0.016988311 0.0032791072 0.031757638 0.023487343
000370 9b f4 14 3c e9 36 0a bd ed 0c b7 bb 96 0a a4 3b
       0.009091522 -0.033743773 -0.0055862577 0.0050061448
000380 1d a9 8e bc 39 5b 21 3c bc e1 89 bc 1c 71 fc 3c
       -0.017414624 0.009848409 -0.016831271 0.030815654
000390 d7 db 60 3d eb 6b 94 bc e5 c6 26 bd ae 6a 9f 3c
       0.054897156 -0.018117866 -0.040717024 0.019460049
0003a0 0e c0 a7 bc 3b f6 e6 bb 47 5e 30 bd dc 41 4c 3b
       -0.020477321 -0.007048396 -0.04305866 0.0031167185
0003b0 5b 69 0f bc 0c 08 e1 bb 22 8f 17 3c 4c ba 90 3c
       -0.008753146 -0.0068674143 0.009250434 0.017666958
0003c0 03 7b 58 bd ef e1 51 3c 1b 50 95 3b 8d 2c 79 bc
       -0.052851688 0.012810214 0.0045566685 -0.015208376
0003d0 c7 23 02 3d b7 8e 88 3d 22 a8 3b 3c 22 47 85 bc
       0.0317724 0.06667846 0.01145366 -0.01626927
0003e0 cc 1c fa bb bc f5 55 3c 11 d1 7d 3d 46 bc 36 bd
       -0.0076328274 0.013059076 0.06196696 -0.044613145
0003f0 0c 25 65 3d d4 e6 b3 3c d4 dc 3f bc 36 e1 d8 bc
       0.055943534 0.021960653 -0.011710364 -0.026474576

base_model.model.bert.encoder.layer.0.attention.self.query.lora_B.weight f4 [768, 8]
000000 13 3e 59 bc 40 b2 1d 3b 65 b6 90 bb 46 0e 20 bc
       -0.013259429 0.0024062544 -0.0044162744 -0.009769028
000010 11 12 83 3c 4e 4f a9 bb 4f d9 c9 ba 81 d2 98 3c
       0.015999826 -0.0051669246 -0.0015399846 0.018655064
000020 ce ad 22 ba fd bc f4 bb 45 79 27 3b ec a6 02 3d
       -0.00062057085 -0.007468818 0.002555446 0.03189747
000030 1f 90 a7 bb a1 cc 16 bd e5 cc 2a 3d 5f fa 5f 3c
       -0.005113616 -0.036816243 0.04169931 0.013670533
000040 d4 e6 a9 bc 76 bf 71 bc 22 46 32 bc 60 bf b4 3b
       -0.02073995 -0.0147551205 -0.010880979 0.0055159777
000050 0a dd 76 bc 5e 0d a8 bc c4 ea a2 3c 35 33 05 bc
       -0.015067348 -0.020514186 0.019887336 -0.0081298845
000060 36 cb e6 3b 91 d9 b5 3b a7 b5 8d 3c 0f 54 37 bc
       0.0070432676 0.0055496176 0.017298533 -0.011189475
000070 de e4 a8 3c 6d 64 f1 bb a2 30 88 3c 85 81 de 3c
       0.020616945 -0.007366708 0.016624752 0.02716137
000080 60 06 cb bb 03 5d d1 bc b3 30 01 ba 05 50 60 3c
       -0.0061958283 -0.025557047 -0.0004928216 0.013690953
000090 b4 ea 43 bc ba 71 bb 3b 1d 72 98 3c 2c 49 94 bb
       -0.011957813 0.0057203444 0.018609101 -0.0045253243
0000a0 70 26 9c bb 7a 86 c5 3c ec 1b 38 3c 03 cf 82 bc
       -0.0047653243 0.024111975 0.011237126 -0.015967852
0000b0 67 7b b7 bc c4 81 96 bb c1 0a c8 3c 1c 5c ea ba
       -0.02239771 -0.004593106 0.02441919 -0.0017880234
0000c0 01 df b1 3b 92 df 94 bb eb ba b4 bc 19 07 de bc
       0.0054281955 -0.004543253 -0.022061786 -0.027102994
0000d0 98 b5 fd 3b c9 60 8e 3c 18 97 01 bd 29 9c c2 3c
       0.007742595 0.017380135 -0.031638235 0.023756104
0000e0 25 2c 23 ba 98 05 ef 3c 01 8c 97 3c 70 c5 f8 bc
       -0.00062245346 0.029177472 0.018499376 -0.030367583
0000f0 4e 6f 6b bc 0e e0 47 3c 5b d7 9a bc 16 24 ee bc
       -0.014369799 0.012199415 -0.018901518 -0.029069941
000100 3a 69 9e 3b 59 66 37 bc d6 94 89 3c 2d 94 e2 bc
       0.0048343213 -0.011193835 0.016794603 -0.027658546
000110 0f 60 72 bc 46 28 da 3b c0 21 83 bc 98 bb 5a 3c
       -0.01479341 0.006657633 -0.016007304 0.01335039
000120 40 50 08 bc 67 a8 b3 ba 4d 60 ac bc e4 2d 1a 3d
       -0.008319914 -0.0013706804 -0.021042014 0.03764142
000130 07 42 5e bc 8a e4 6a bb cd 8f 32 3c 2c 1b 95 bc
       -0.013565547 -0.0035841786 0.010898543 -0.018201433
000140 2d fc 9f bc 7f b2 0d 3d 77 80 fd ba 05 4d 8f 3c
       -0.019529426 0.034594055 -0.0019340654 0.01749278
000150 71 f6 d7 bc 2f bf e2 bc eb 8d 1c 3d 28 98 44 3c
       -0.02636263 -0.027679054 0.03822128 0.0119991675
000160 a9 b6 e5 3c ec b3 23 3c 4c 6a 07 39 c7 98 f2 bb
       0.0280412 0.009991627 0.00012914202 -0.0074034664
000170 c0 95 05 b8 f4 ab 5f 3c 9d cb 1b bd ad 58 c2 3c
       -3.1849137e-05 0.013651837 -0.038035978 0.023723925
000180 e4 0f 2c bd 7f a1 5a bc e8 bf a7 bc b4 9f 71 3c
       -0.042007342 -0.013344168 -0.02047725 0.014747549
000190 f1 ad 90 3b e9 8a d1 bc 66 6f a7 ba 2d 30 8e 3a
       0.0044152667 -0.025578933 -0.0012774288 0.0010848098
0001a0 87 74 37 bb b8 b6 1f 3c 0f 31 fd bb 7c 1c 90 b8
       -0.002799304 0.009748153 -0.0077267955 -6.871761e-05
0001b0 a9 57 de 3c 03 3a 6d 3c 2a 82 49 bc 82 bb 93 bc
       0.027141409 0.014479163 -0.0122991 -0.018033747
0001c0 3c 81 67 3d ec e4 39 3d 98 b7 23 3d 55 58 32 bd
       0.056519732 0.045384333 0.03997001 -0.04354127
0001d0 41 e2 87 3c 77 64 22 3d 3a 32 81 bd 0a e4 24 3c
       0.016587378 0.039646592 -0.06308408 0.010064134
0001e0 6f e8 ba 3b 1a 1b 8d 3c 89 db 5b 3c 21 07 a3 3b
       0.005703978 0.017224837 0.0134190405 0.004975215
0001f0 28 7b 0c 3d 47 c3 77 3d 30 9c f1 bc 5c 1d 99 bc
       0.03429714 0.060488965 -0.029493421 -0.018690757
000200 73 64 4e 3c dc 2c 9f 3c 9c 46 8e 3c e2 55 7c bc
       0.012597191 0.01943057 0.017367654 -0.015401335
000210 a1 0c 16 bc 4e e1 0a 3c 18 26 dd bc a7 59 54 bc
       -0.009158284 0.008476568 -0.026995704 -0.012960828
000220 09 3a e6 3b 3f 16 89 3c e4 45 26 3c 5a 6e 11 bb
       0.0070259613 0.01673424 0.010148499 -0.0022191019
000230 dc 72 40 3c 4c 9f 1e 3d 86 77 cb bc 8e 29 c6 bc
       0.011746135 0.038726136 -0.024837267 -0.024189737
000240 56 60 94 bc 3c 6f 2c bc 13 9f 8b 3b 6f 6b 8c 3b
       -0.018112343 -0.010524567 0.0042609065 0.004285268
000250 e3 20 fd 3a d5 06 c9 b9 16 06 95 3b 3f ec 6a 3c
       0.0019312169 -0.00038342798 0.0045478446 0.014338552
000260 a8 9d 24 bc fa bb 90 3c c1 d5 0e 3c af bc 06 3c
       -0.010047354 0.01766776 0.008717955 0.008223697
000270 19 1b 5b bd 95 d9 54 3c a4 c7 5d bc cc 42 68 bc
       -0.05349264 0.012991329 -0.013536368 -0.014176082
000280 c5 f4 d3 3c c4 bd 14 3c 30 3a ff bb 8d 97 0b bd
       0.025873551 0.009078447 -0.007788919 -0.034080077
000290 e9 72 2b 3d a3 3e 03 3d a9 a7 70 bd f3 f2 39 3c
       0.041857634 0.032042157 -0.058753643 0.0113494275
0002a0 ec 30 3b bc c1 97 b1 bc 8c 76 cd bc e8 9c 01 3d
       -0.011425238 -0.021678807 -0.025080942 0.031643778
0002b0 c6 60 76 bc 22 a7 27 bd f4 26 2e 3d ac f1 88 bc
       -0.015037721 -0.040930875 0.042517617 -0.0167168
0002c0 d2 bc 51 bc 7b e1 89 bc 02 05 15 bc cf 1e 19 bb
       -0.012801366 -0.01683115 -0.009095432 -0.002336431
0002d0 8e 49 46 3c cd e2 9d 3c 79 e1 88 3c fa 16 2e 3d
       0.012102498 0.019273186 0.016709076 0.04250238
0002e0 be 9f 88 b9 e6 f4 05 bd c2 ef 97 bc 01 09 9a 3c
       -0.0002605896 -0.032704256 -0.018546943 0.018803122
0002f0 55 3c b1 ba cf 1c da 3b 92 81 34 3c 27 69 8a 3c
       -0.0013522009 0.0066562663 0.01101722 0.016895844
000300 b3 f9 6f 3c cf 09 11 3d 30 0a 98 3c 6d 30 a9 bc
       0.014646935 0.035409745 0.018559545 -0.020652974
000310 19 c1 26 bc 1a da 50 bb a3 a6 cd bc 5a 89 f5 bc
       -0.010177874 -0.003186828 -0.025103873 -0.02997272
000320 4c a7 16 bc 27 14 34 bc 7f 53 c1 bc 4b 7d ef 3c
       -0.00919516 -0.010991133 -0.023599384 0.029234549
000330 c7 6f a8 ba 42 7a 85 3b 73 77 b8 3c 8a e9 15 bc
       -0.0012850695 0.004073412 0.022517895 -0.009149918
000340 5f 05 08 3d 2a 8b 25 bb 8c fc 89 3c 9b 5b ac bc
       0.033208247 -0.002525995 0.016844057 -0.021039775
000350 f9 56 bb 3c f3 d7 73 3a 35 a5 0d 3c ef 7a 8e 3c
       0.02286862 0.00093018933 0.008645345 0.017392604
000360 54 b0 62 3c 38 e8 b7 bb 1f ca 05 3b f8 6a 1c 38
       0.013835985 -0.0056123994 0.0020414663 3.729292e-05
000370 9e 7c 85 3b 74 aa 7d 39 15 71 9d 3b 20 32 08 3b
       0.0040736934 0.00024191459 0.00480474 0.002078183
000380 01 d1 44 bc 30 f4 0d ba 91 52 89 3c 26 45 75 3c
       -0.012012721 -0.000541511 0.016763004 0.0149701
000390 b1 5e b5 bc 74 9e 67 bb fc 85 e7 3b db 23 c4 bc
       -0.022139879 -0.0035342248 0.0070655327 -0.023942878
0003a0 45 91 19 bb a1 fa 5e bc 91 82 1f 3c 33 d3 af ba
       -0.0023432535 -0.013609559 0.009735719 -0.0013414383
0003b0 96 b1 66 3c 82 4a 06 bc 4f cc 04 3c 74 32 56 3b
       0.014080426 -0.008196475 0.008105352 0.003268388
0003c0 f4 ad 81 3c e1 dd 4d 3b bb dd 7d 3c f4 1e e3 3b
       0.015830018 0.0031412768 0.015494759 0.00693118
0003d0 79 ba 44 bc ca 60 38 bd 08 61 63 3c 50 24 93 bc
       -0.012007349 -0.04501418 0.0138781145 -0.017961651
0003e0 0c 31 60 bb b4 4f 89 bc 8a 39 17 3d 0f 7e 87 3b
       -0.0034208922 -0.016761638 0.036920108 0.0041349004
0003f0 38 55 33 bb 67 1f cc bc 3e 30 1d 3c 4b 12 55 bd
       -0.0027364027 -0.024917318 0.009594021 -0.0520194

base_model.model.bert.encoder.layer.0.attention.self.key.lora_A.weight f4 [8, 768]
000000 af 2b bd 3b cb 63 fb 3c 05 77 13 bc a6 3f d0 bb
       0.0057730298 0.030687233 -0.009000544 -0.0063552437
000010 8e 12 23 bd d1 da 1a 3d 13 fc b7 bb e5 3e 0e bc
       -0.039812617 0.037806336 -0.0056147664 -0.008681987
000020 ef cb 45 bd 76 b1 df 3c 43 bc 01 bd cf ae 3d 3d
       -0.04829019 0.0273063 -0.03167368 0.04630929
000030 80 d0 3a bd 60 32 67 bc 62 da 27 3d 62 15 85 bc
       -0.045608997 -0.014111131 0.04097975 -0.016245548
000040 5b 86 68 3c 38 ea 9c bc a7 3b 8a 3b 1a 5e 9e bc
       0.014192189 -0.019154653 0.004218537 -0.01933198
000050 b6 b3 d0 3c c0 12 34 3d a3 7b 1f bd 65 b8 87 3c
       0.025476318 0.043963194 -0.03893627 0.016567418
000060 a8 67 15 bd a5 52 b1 3c 8c dd 33 3d 96 14 a8 bc
       -0.036475807 0.021645853 0.043912455 -0.020517629
000070 be a9 4a bb 99 06 33 bc f0 cd d8 3c 5b 0f 94 3c
       -0.0030923928 -0.010926866 0.026465386 0.018073728
000080 d7 bc f8 3c 55 e4 fd bc 0a 8d 2b 3d 8c 37 c3 bb
       0.030363483 -0.030992666 0.041882552 -0.0059575494
000090 c3 95 98 bc 1b b4 c1 3b 1b 78 cc 3c 5a eb a0 bc
       -0.0186261 0.005911363 0.024959615 -0.019643474
0000a0 4a 3f a3 bc 38 57 02 3d 37 ce a2 3c 76 f6 78 3d
       -0.01992764 0.03182146 0.019873722 0.06078192
0000b0 f7 6a 06 3d 94 e2 86 3d a3 87 82 bb b1 92 c2 3c
       0.032816853 0.06586185 -0.0039834543 0.023751589
0000c0 14 f7 d4 3b 00 61 0b bd 55 be e4 bc 85 4c 87 3d
       0.0064991806 -0.034028053 -0.027922789 0.06606392
0000d0 e0 c3 ad 3c b7 b6 a6 bd b5 20 36 bc ee 89 f4 ba
       0.021211565 -0.08140319 -0.011116196 -0.0018656829
0000e0 64 03 ca 3b f0 4d c7 3c cf c2 c2 bc 32 66 20 bd
       0.006164955 0.024329156 -0.023774533 -0.03915996
0000f0 bc 86 6b bb 80 cb e4 3c af 1a 70 bc 52 88 3d 3c
       -0.0035938462 0.027929068 -0.014654799 0.011568146
000100 e6 2c 7d 3d 8f 50 47 3d 32 4b bb 3c ba 7e b0 bc
       0.061810397 0.04866081 0.022863004 -0.021544803
000110 f5 94 07 bd 51 78 8f 3c da d9 c2 3c c4 d3 ab 39
       -0.03310104 0.017513426 0.02378552 0.0003277344
000120 12 c5 48 bc b4 9e 83 3c cd a2 8b bc 3d 32 17 bc
       -0.0122540165 0.016066886 -0.017045403 -0.009228286
000130 c6 c2 c2 bb 52 3c 22 bc da 87 b1 bc 41 e3 2c 3d
       -0.005943629 -0.009902077 -0.021671224 0.042208914
000140 fe dd fa bc ea 76 76 bd 21 66 b5 3c 13 72 ab bd
       -0.030623432 -0.060172 0.022143425 -0.08371367
000150 14 13 84 bc 4b 34 40 bb 9e b7 37 3c 5e 21 07 3c
       -0.016122378 -0.0029328044 0.011213211 0.008247701
000160 81 62 c0 3c f4 12 2b 3d a3 f2 6f 3c e1 15 4c bd
       0.02348447 0.041766122 0.014645251 -0.049825553
000170 a6 08 22 3c e0 bc ee 3c 93 82 2a 3c b3 81 ed 3c
       0.009889757 0.029142797 0.010407108 0.02899251
000180 52 9f fd 3b 5e 71 89 3c a4 f5 fe 3c c4 29 48 bd
       0.0077399397 0.01677769 0.03112299 -0.048867956
000190 bb 59 62 bd 5b 85 44 bd e2 57 32 3d c5 db 1f bc
       -0.055261355 -0.04797874 0.043540843 -0.009756987
0001a0 9b 02 ce 3c 45 7e be 3c b7 ef 24 bc 1b 9c a6 bc
       0.025147727 0.02325357 -0.010066918 -0.020338109
0001b0 9a da e4 3b be ea 38 3c fe 13 9a 3d 64 db 51 bc
       0.006984067 0.011286436 0.075233445 -0.012808654
0001c0 80 c2 be 3c 72 01 c3 3c 77 f9 e2 bc 6f f1 26 bd
       0.023286104 0.0238044 -0.027706845 -0.040757593
0001d0 8e 95 40 3c 48 1f be 3c 50 ae 9e 3c 9c de f1 bb
       0.011754407 0.023208275 0.019370228 -0.0073812734
0001e0 e6 3a c8 ba f6 ac 20 bc ab 75 9c bc bf ee a1 bc
       -0.0015276342 -0.009806862 -0.019099077 -0.019767163
0001f0 5c 50 75 3d 91 00 1b 3d 48 9f cd 3c 60 16 2b 3d
       0.05989109 0.037842337 0.025100365 0.041769385
000200 58 ae c1 bc 12 6d 8d bc c9 7a 62 bc 27 c1 16 bd
       -0.023642704 -0.017263923 -0.01382322 -0.0368053
000210 8f fd bc 3c fb 15 e6 bb a7 d4 06 bd 3b 50 5b 3b
       0.023070125 -0.0070216632 -0.032917645 0.003346457
000220 97 bd 29 bd fa 89 07 bd ff f1 56 3d ad 03 93 3c
       -0.041440573 -0.03309057 0.05247688 0.017946089
000230 d7 93 03 3a b8 01 e2 bb fb 94 4c bd 01 0c 3e 3c
       0.0005019283 -0.0068971775 -0.049946766 0.011599542
000240 de 43 55 bd c5 61 98 ba b8 84 06 bc 3f 8e bd bd
       -0.052066676 -0.0011625817 -0.008210354 -0.09255647
000250 28 18 6e 3c 7c f6 74 3d ed d0 ec 3c 91 41 6d 3b
       0.0145321265 0.05980538 0.028908217 0.003620241
000260 44 45 07 3c ae 8f 1a 3d 63 09 b9 3b ad 2c b7 bc
       0.00825626 0.03773468 0.005646871 -0.02236017
000270 41 28 03 bd 20 a5 5b 3d 5b 40 10 3c b3 98 39 bd
       -0.03202081 0.053624272 0.008804406 -0.04531164
000280 63 24 d0 bc 69 8c c9 bb 17 ab d9 bc 3a ae 00 3d
       -0.025407976 -0.0061507714 -0.02657084 0.031416155
000290 6b 85 57 bd 4f c1 1a 3c b9 39 21 3d 16 32 11 3d
       -0.05261747 0.009445502 0.03936169 0.035448156
0002a0 d4 dc d2 b9 83 90 ed bc e8 cd b8 bc 32 45 f7 bc
       -0.0004021885 -0.028999573 -0.022559121 -0.030184362
0002b0 37 53 14 3c 79 a2 d5 3c c2 6e c6 3c 8e 52 71 bc
       0.009053043 0.02607845 0.024222735 -0.014729155
0002c0 da f9 2e 3d 17 11 07 3d 40 cc 08 3c 41 db 1d 3d
       0.042718746 0.032975283 0.008349478 0.038539175
0002d0 8f 61 75 3c ed 18 69 bd 28 4a 30 bc 16 14 fc 3c
       0.014976873 -0.056908537 -0.010759868 0.030771296
0002e0 39 9d 59 3d 9f 0b bb 3c 07 33 a0 3c 45 69 a4 3c
       0.053128455 0.02283269 0.019555582 0.020069728
0002f0 90 e4 97 3c fe cb 45 b9 ee f3 4d 3d d0 07 dd bb
       0.018541604 -0.00018863377 0.050281458 -0.006745316
000300 58 2f be bc 73 89 71 bc 61 d2 f5 bc 51 f3 37 3c
       -0.023215935 -0.014742243 -0.030007543 0.011227445
000310 8c f4 f4 3c 72 23 ca bc fa 31 87 bc 20 f0 78 3b
       0.029901765 -0.024675105 -0.016503323 0.0037984923
000320 d0 a5 bf 3b 63 f8 88 bb fe e7 1a 3d 75 ee 5c bd
       0.005848624 -0.0041800006 0.0378189 -0.053938348
000330 6d f4 a1 bc d6 c2 db bc 90 38 1f bc 13 1d c7 3c
       -0.019769872 -0.026826303 -0.009718075 0.024305856
000340 03 ff 46 bb a4 60 11 3c 4a 4a 28 bd cc e5 02 3d
       -0.0030364401 0.008873139 -0.041086473 0.031957433
000350 19 01 35 bc 8e 21 1e 3d cd 14 62 3d 2a d4 5d 3c
       -0.011047625 0.03860622 0.05519562 0.013539353
000360 41 38 87 bd 40 02 69 3b 42 8c cd bb c8 bd 04 bd
       -0.066025265 0.003555432 -0.0062728235 -0.032407552
000370 df 47 0d 3d bc ad a9 3c 9e ac 26 ba 3f 21 5f bc
       0.03449237 0.020712726 -0.00063581194 -0.013618766
000380 d5 1a d5 3a 20 13 0f bd ea c8 08 bd e4 ea 0c 3d
       0.0016258607 -0.03493035 -0.03339473 0.034403697
000390 3f 7d 2d bd e7 c3 99 bd c3 f3 df bc 74 d0 73 bd
       -0.042355772 -0.075080685 -0.027337914 -0.05952497
0003a0 a9 a7 a9 bc 65 9f 43 bc bb 84 06 3d 07 8c 7f 3c
       -0.02070983 -0.011939858 0.032841425 0.01559735
0003b0 9d 1e ca bc d7 6c 4d 3c b1 bf 10 bd 0b 7f 06 3d
       -0.0246728 0.0125381565 -0.03533906 0.032836
0003c0 c0 a0 b8 bc ec ae 47 3c c8 4b 65 3c 58 d0 82 bc
       -0.02253759 0.012187701 0.013995118 -0.015968487
0003d0 d1 02 c3 3c cf c7 fb 3b 07 22 cd bc 63 f1 fa 3c
       0.023805054 0.007683731 -0.02504064 0.03063268
0003e0 18 15 f4 3c 43 48 db bb 79 c1 2a bc e3 8f ef bc
       0.029795215 -0.006691964 -0.010422104 -0.029243415
0003f0 a5 4d 93 bc de 9c 08 bc 9b e0 e3 3b 85 d0 83 3c
       -0.01798136 -0.008338181 0.0069542653 0.01609064

base_model.model.bert.encoder.layer.0.attention.self.key.lora_B.weight f4 [768, 8]
000000 83 6f c6 bb f8 82 32 3c 41 52 11 3d a5 b8 87 3c
       -0.0060557737 0.010895483 0.035478834 0.016567538
000010 83 f4 d3 bc 7f 6d 34 bc 36 0f c6 bc 40 9c 15 bc
       -0.025873428 -0.011012434 -0.024177175 -0.009131491
000020 1d 85 80 bc d0 37 84 3b 30 eb 4c bc c2 19 4e bb
       -0.015688473 0.0040349737 -0.012507245 -0.0031448458
000030 46 34 9e 3c 38 e7 f0 3c e6 0e 40 3d ae 76 99 3c
       0.019312035 0.029407129 0.04688921 0.018733349
000040 7c c3 c7 3c 59 d2 2e bd 10 45 31 bb 9e 5e 57 bb
       0.024385206 -0.042681072 -0.002704922 -0.0032862793
000050 d7 f3 65 39 28 68 02 3d aa 27 40 3a 88 be 29 3d
       0.00021929979 0.031837612 0.0007330129 0.04144147
000060 d3 a2 ee bc 52 1b e3 ba a6 de 6c 3b af 1f 77 3b
       -0.029130375 -0.0017326868 0.003614345 0.0037708094
000070 9d bd 8d 3c 16 d2 71 3c 96 ae 0a ba be 7e 18 ba
       0.017302329 0.014759561 -0.00052902976 -0.0005817226
000080 15 d7 79 bc 4d be 7d bc 50 b7 93 3c 4e d3 2a bc
       -0.015249033 -0.015487266 0.018031746 -0.0104263555
000090 78 e0 bc bc c9 02 4f 3a 7c 46 21 bc e2 42 af bb
       -0.023056254 0.00078968384 -0.009843465 -0.005348549
0000a0 b0 e4 3f bc 00 b8 9b 3c de 95 ac bc 0a ca 24 3c
       -0.011712238 0.019008636 -0.021067556 0.0100579355
0000b0 c9 9f b7 ba d2 49 3c bc 72 26 2b 3a 9d 67 38 3c
       -0.0014009412 -0.0114922095 0.0006528861 0.011255172
0000c0 16 24 43 bd 83 77 a7 3b 21 46 de bb c2 20 07 bd
       -0.047641836 0.0051106825 -0.0067832624 -0.032990225
0000d0 20 80 37 3c 91 59 aa bc cc b6 d0 bb 1e d5 a4 3b
       0.011199981 -0.020794662 -0.0063694473 0.0050302884
0000e0 54 3e 46 3c c0 f3 3f bc 10 75 c8 ba 45 20 b2 bb
       0.012099821 -0.011715829 -0.0015293676 -0.0054359757
0000f0 59 47 8a 3c bf 80 59 3d bb 71 91 3c 6e 95 61 3d
       0.016879724 0.053101297 0.017754426 0.055074148
000100 a7 7e be 3c 9b b4 89 bc 36 d3 2c 3c e3 0b e4 bc
       0.023253752 -0.016809752 0.0105484035 -0.0278377
000110 e3 2b c6 3a 43 d5 b2 3c 1e 3b e2 3c bf 25 92 3c
       0.001511928 0.021830207 0.02761608 0.017840264
000120 39 1d 4e bb 2b 78 69 3b d0 57 58 3c d3 f3 b7 3c
       -0.0031450524 0.0035624604 0.01320453 0.022455132
000130 02 1f 6e 3c 34 61 15 bc e4 f2 29 3c 77 3a 9f bc
       0.01453376 -0.009117413 0.010372851 -0.019437058
000140 7f 62 de 3b 9b 9d a3 3c 95 55 19 bc 40 9b c4 3c
       0.006786644 0.019972613 -0.009358783 0.02399981
000150 95 2e c9 3c 86 35 3c bd b5 6d ea bc 8c 51 0e bd
       0.024558345 -0.04594948 -0.028616766 -0.034745738
000160 16 e4 0e bc f2 d2 39 3b 45 d7 53 3c 26 7e 25 3d
       -0.008721372 0.0028354493 0.012929742 0.040403508
000170 7f 2f 17 3c f2 f7 e4 bc 9e 38 ef bb ca 2d 21 bc
       0.009227633 -0.02795026 -0.0073004505 -0.009837577
000180 80 2b ff 3c f9 09 ca bc 52 bc c8 bb 3a eb 80 bc
       0.031148672 -0.024662958 -0.006125965 -0.015737165
000190 b3 f7 ed 3c 0d 2e a8 3c e1 04 57 bc 25 07 17 3d
       0.029048776 0.020529771 -0.013123722 0.036872048
0001a0 cd ac 60 3b 9a c4 34 3c 97 e7 1c 3d 62 85 68 bc
       0.0034282685 0.011033202 0.0383068 -0.014191957
0001b0 86 c8 88 bc 76 8d a5 bc e3 34 87 bc ce 9b 42 bc
       -0.01669718 -0.020209055 -0.01650471 -0.011877967
0001c0 32 44 01 3b d1 99 12 3d dd e4 7c bc f5 75 88 3c
       0.0019724485 0.035791222 -0.015435425 0.016657809
0001d0 17 0d 67 bd dd 8c af bc 58 50 60 bc 43 5a e1 ba
       -0.056408968 -0.021429474 -0.01369103 -0.0017193038
0001e0 d2 0e 1e 3c ab e6 16 bb 25 ac 12 bd df 4f 0f bc
       0.009647088 -0.0023025672 -0.0358087 -0.00874707
0001f0 3b 6f ae bc ca de ca 3b 5c 31 2d ba b1 6f 98 3b
       -0.021293273 0.0061911093 -0.00066067814 0.0046519865
000200 1a 96 b6 3c 52 ff cf bc 41 a7 8b bc 0b e2 0a bb
       0.02228837 -0.0253903 -0.017047526 -0.002119186
000210 f8 80 05 bd 94 25 60 3d a9 cc 84 3c 34 42 52 3d
       -0.032593697 0.054723337 0.01621087 0.051332667
000220 e3 1c b0 bc 2c 91 37 3c 19 6e 2a bd fc 6b 85 3c
       -0.02149815 0.011204045 -0.041608904 0.016286843
000230 2a 56 20 bd 18 a7 96 3c b8 5b 0c 3d a9 72 33 3d
       -0.039144672 0.018390223 0.034267157 0.04381052
000240 2a ea 98 bb db 56 25 bc d0 65 06 bd e1 60 51 3c
       -0.0046665864 -0.010091509 -0.03281194 0.012779445
000250 a1 e4 fb bc 4d 8d e6 3c 8f 3e 80 bc d6 3f fb 3c
       -0.030748667 0.02814355 -0.01565483 0.030670088
000260 14 9f 94 bc 7b 91 2d bc 46 1e 2c bc d0 73 1b 3b
       -0.01814226 -0.010593767 -0.010505265 0.0023720153
000270 af 4e d9 3a b2 46 fc 3c 22 2d e4 3b be 14 fd 3c
       0.0016579236 0.030795429 0.006963388 0.03089368
000280 f4 cd 2b bd 95 49 ce 3c 21 f1 bc bb ec 3d d5 3c
       -0.04194446 0.025181571 -0.0057660495 0.026030503
000290 94 f3 10 bd 67 0a ff bb 99 3a ec bc ab 9e 81 bc
       -0.035388544 -0.0077832225 -0.028836535 -0.01582273
0002a0 79 ab 1d bc 31 ee 11 bd 81 e9 06 3d a6 f7 08 bd
       -0.009623402 -0.035627548 0.03293753 -0.0334393
0002b0 89 cb 10 bc 9c 02 43 3b 47 fd ae bc e7 d6 b6 3b
       -0.008837589 0.0029756194 -0.021361006 0.0055798176
0002c0 c1 c3 0f bd 25 3e 97 3c c7 b0 79 bc 6e 65 a7 3c
       -0.035098795 0.01846225 -0.015239901 0.020434108
0002d0 2d 83 71 bb 70 fc 08 bd c7 45 38 3c 46 eb 26 bd
       -0.0036851868 -0.03344387 0.011247105 -0.040751718
0002e0 6c 2a 49 b9 36 6b e8 3b 4c 59 b3 3c 22 ed 20 3c
       -0.00019184657 0.0070928587 0.021893166 0.009822162
0002f0 fa fc 13 bc a1 7c 77 bd 7f ac be bc fa a5 31 bd
       -0.009032482 -0.06042159 -0.023275612 -0.04337118
000300 f0 f8 80 bc 70 e3 29 3c 55 16 ca bc 8c 8e 54 b9
       -0.015743703 0.010369167 -0.024668852 -0.00020270998
000310 2f 9d 2c bd 8a 39 1e 3c e8 cd 04 3c b2 9d 1f 3d
       -0.04214209 0.009657273 0.0081057325 0.03896875
000320 4d 67 c6 bc a2 40 0b 3c 2f 9f db 3c 01 0d 00 bc
       -0.02421918 0.008499296 0.026809303 -0.0078156
000330 c3 9c 50 3b 1f 36 d2 bc 59 7d 48 3c 6e 1c da bc
       0.0031831719 -0.025660573 0.012236916 -0.026624884
000340 9d 9b d7 bc 26 3e 67 3c f7 77 ac 3c af 3f 11 3d
       -0.02631932 0.014113938 0.021053297 0.035461124
000350 6d a0 21 bd 44 ae 79 bd fe 84 24 b9 7d 0a 41 bd
       -0.039459635 -0.06095721 -0.00015689802 -0.047129143
000360 76 fa 5a 3c a8 37 4b 3c 6d a2 81 bc 4e 63 60 3c
       0.013365379 0.012403406 -0.015824521 0.013695551
000370 79 29 c7 3c 4d 16 3c bd b1 2a 0f bc 24 2b 4b bd
       0.024311768 -0.045919705 -0.008738206 -0.04960169
000380 64 2e 45 bc 37 58 41 3a 18 ea b6 3c 38 3c 20 3c
       -0.012034986 0.0007375511 0.022328421 0.009779982
000390 1a 08 21 bd fb 8f dd bc 43 6c 2f bd cb d6 84 bc
       -0.039314367 -0.027046194 -0.042827856 -0.016215703
0003a0 15 1f b4 3c 95 e9 06 bd ae 00 4f 3d f0 3f fe bc
       0.021987477 -0.032937605 0.050537758 -0.031036347
0003b0 9b 41 e2 ba 00 9a c2 bc 08 e0 23 3b 2c 65 04 bd
       -0.0017261984 -0.023755074 0.002500536 -0.032323048
0003c0 0d a1 2b 3c 59 7b a6 bb 1e e6 fd 3c 5e 98 84 ba
       0.010475409 -0.005080622 0.030993517 -0.001011621
0003d0 07 6c 2b 3d 06 48 85 bc 7a 80 65 bc 7e b8 a2 bc
       0.04185107 -0.016269695 -0.014007682 -0.019863363
0003e0 06 ac 1a 3c 2e 54 fb 3b 47 38 17 3c b1 e3 6a b9
       0.009440428 0.007669947 0.009229726 -0.000224008
0003f0 92 67 0c bd 31 07 d2 bc 59 29 e4 ba 66 10 a1 bc
       -0.03427846 -0.025638195 -0.0017407342 -0.01966114

base_model.model.bert.encoder.layer.0.attention.self.value.lora_A.weight f4 [8, 768]
000000 0b e2 82 3c 26 d6 a1 bb 4e de 0a bd 64 ec e5 bc
       0.015976926 -0.0049388586 -0.033903413 -0.028066821
000010 d9 ec 27 bd 75 aa 0d bb de fa d7 3c a4 51 6e 3d
       -0.04099736 -0.0021616493 0.02636474 0.058183327
000020 69 4b 9f 3b cc c0 18 bd 31 44 27 3d c7 44 3c 3d
       0.0048612845 -0.03729324 0.040836517 0.04596403
000030 c3 6c 06 3b 6c b4 ff 3c 46 ae 8d bc 1d 2b 59 bc
       0.0020511604 0.031213962 -0.017295014 -0.013254908
000040 c8 79 09 3c bb 2b 76 3c 11 61 1f bd 08 f3 92 3c
       0.008390851 0.015025075 -0.03891093 0.017938152
000050 8e 8f 98 bc a6 00 7e 3c e0 2a db bb 27 29 e2 bc
       -0.01862314 0.015503084 -0.0066884607 -0.027607514
000060 01 91 12 bd 4a 46 90 3b b5 3e ea ba 4d 07 e0 3c
       -0.035782818 0.0044029104 -0.0017871471 0.027347231
000070 a1 23 d6 bb c7 ff 05 bd f6 c1 fe bb bb f9 40 3d
       -0.006535009 -0.03271463 -0.007774587 0.04711316
000080 f9 af a0 3b 86 f4 f2 bc 37 5a b5 bc c3 18 85 bc
       0.00490379 -0.029657613 -0.022137744 -0.016247159
000090 42 d5 08 bc 49 4b 10 bc 92 e7 17 3c 9a bb 81 3b
       -0.008351626 -0.008807012 0.009271519 0.0039591314
0000a0 fd c9 83 bd 35 e5 de bc be dc 6b 3b 48 e0 4b bc
       -0.064350106 -0.027208904 0.0035989727 -0.01244361
0000b0 90 6f d9 3c f6 41 d0 3c e2 79 4a 3c e3 ad 52 3d
       0.026542455 0.025422078 0.012358161 0.051435363
0000c0 34 0b 33 3d b6 7f 77 3c 23 3a aa bc 72 45 a9 3c
       0.043711856 0.015106132 -0.020779675 0.020662997
0000d0 4f 33 8c 3c 13 e9 40 3c e6 79 3c bd 77 c2 96 3c
       0.01711431 0.011774319 -0.04601469 0.018403275
0000e0 31 61 b2 3c 7d 26 d3 ba c4 ce 34 3c 6c e3 33 3d
       0.02177486 -0.0016109493 0.011035625 0.04391806
0000f0 79 da 24 bd 78 1b 8e bc 7b 61 d2 bb 3e c9 44 3d
       -0.040247414 -0.017347082 -0.006420312 0.048043482
000100 23 e7 70 ba 16 cf 3e bd 65 10 24 3d c3 b3 25 3d
       -0.00091897155 -0.04658421 0.040054698 0.040454637
000110 99 03 bf 3b d3 b7 d4 3c c5 17 00 bd 1a 39 00 bd
       0.0058292863 0.02596656 -0.03127267 -0.031304456
000120 49 c9 24 bd 36 81 05 bd db b3 8b 3c 31 74 54 bd
       -0.040231023 -0.03259393 0.017053535 -0.05186862
000130 3e a0 0b bd d1 d7 88 3c 9a 4e f6 ba be b1 90 bc
       -0.034088366 0.016704472 -0.0018791736 -0.01766288
000140 3e 34 84 bd aa 8c a5 3c b3 82 e3 3c 28 f3 ed bc
       -0.06455277 0.020208675 0.027772283 -0.02904661
000150 eb bc f6 3c 1c c6 1a bd 4d 32 51 3b c8 df 21 bd
       0.03011938 -0.037786588 0.003192085 -0.039520055
000160 13 38 15 bd c7 b7 9a 3c 30 10 b6 bc a6 3f 0e bd
       -0.03643043 0.01888646 -0.022224516 -0.03472867
000170 96 e9 26 ba 3e bb 24 bc 05 b4 77 bd 51 31 f7 3c
       -0.00063672045 -0.010054408 -0.060474414 0.030174883
000180 30 cb 58 bd 42 f1 32 bd d6 b5 7b 3c 78 2a 9f bc
       -0.05292815 -0.043687113 0.015363177 -0.01942943
000190 b6 5c 04 3d 0e b6 bc 3c ea d3 0f 3c 5f 31 9f bc
       0.03231498 0.02303603 0.008778552 -0.019432722
0001a0 ec 2b 0a 3d 8e aa 18 bc 13 2a 36 3d d9 ed c2 3c
       0.033733293 -0.009318007 0.04447372 0.023795055
0001b0 c4 40 24 3d ea ae 9e 3d b4 05 38 3d 61 e2 1b 3d
       0.040100828 0.07748206 0.044927314 0.03805769
0001c0 47 1f 32 bc 1e d1 10 3d b8 11 bf 3b f7 da dc bb
       -0.010871715 0.03535568 0.0058309697 -0.00673997
0001d0 96 92 a9 3c 15 cc 09 bc 7a 8f fe bc b4 84 18 3d
       0.02069978 -0.008410473 -0.031074274 0.03723593
0001e0 e5 fe 9c bc 2d 6f 3a bd a8 84 62 3d d0 10 02 ba
       -0.019164512 -0.04551618 0.055302292 -0.00049616117
0001f0 3b 0f aa 3c e6 5e 24 3c be 3d d5 bc b9 08 a9 bc
       0.020759216 0.010032391 -0.026030418 -0.020634042
000200 03 68 80 bc 79 db f7 bc cb a6 be 3c 22 05 bc 3b
       -0.015674597 -0.03025602 0.023272892 0.0057379166
000210 6f 92 13 bc f8 78 9f 3c 47 4c 83 3a 07 b7 10 bd
       -0.00900708 0.019466862 0.0010017239 -0.0353308
000220 24 4b 47 3b cd ae 2a bc ce 41 c0 bc ad f7 a3 3d
       0.0030409778 -0.010417652 -0.023468878 0.08006225
000230 15 ec 5b bd 3e 1c 1b 3d 3c f2 95 bc 98 e9 33 3c
       -0.053691942 0.03786873 -0.018303983 0.010980986
000240 6f 2a 74 3c 12 31 fd bc 8e 5c 86 bd 74 98 94 bb
       0.014902695 -0.030907188 -0.06560622 -0.0045347754
000250 c0 85 0e 3c 95 0c aa bc 4f 01 15 bd 5a 0e 12 bd
       0.008698881 -0.020757953 -0.0363782 -0.035658218
000260 92 b2 20 bd 3d 02 41 bd 36 42 3c bc 20 a3 58 bb
       -0.039232798 -0.047121275 -0.011490395 -0.0033056214
000270 11 24 f6 3b 20 06 07 bd fa a5 b1 3c fd 96 49 bd
       0.0075116237 -0.032964826 0.02168559 -0.04921626
000280 ae 50 15 bd 99 24 d0 3c 4c 62 dd 3c b4 1a f6 3c
       -0.036453895 0.025408076 0.02702441 0.03004203
000290 86 85 1f 3d 7c 7f eb bb 93 ff 81 3c 9c 51 95 3d
       0.038945697 -0.007186828 0.015868938 0.072909564
0002a0 f7 f7 2f 3b e3 a6 3b bd f0 e4 a1 3d 82 df 77 39
       0.002685068 -0.045813452 0.079049945 0.00023639019
0002b0 55 e2 03 bd 4a 4f bf 3c 24 43 5c bd b4 9a ff bc
       -0.03219827 0.023353238 -0.053774968 -0.031201698
0002c0 35 f8 cf 3a 4b 99 a1 3d 7a 1f b7 3c af 56 e2 bb
       0.0015866818 0.078905664 0.022353876 -0.006907306
0002d0 ad 66 fa bc 9a b0 f9 bc e6 f5 21 bc b1 4b 1d bd
       -0.030566538 -0.030479718 -0.009885287 -0.038402263
0002e0 2c 68 30 3d 06 09 6a 3d 50 e1 5f 3c e4 22 7c 3c
       0.043068096 0.05713751 0.0136645585 0.015389178
0002f0 2c a8 02 bd 2e 5c 79 3c e9 fd a0 bc 4d 34 db bc
       -0.031898662 0.015219731 -0.019652324 -0.026758337
000300 c7 39 c6 3c 44 0c 78 3d 1f 50 84 3c e0 ee 14 bd
       0.024197472 0.060558572 0.016151486 -0.03636062
000310 e0 fe d3 bc 35 45 d1 bc 65 7c ca bc dd 29 40 3d
       -0.02587837 -0.025545696 -0.024717519 0.046914924
000320 7a 8d 04 bd b3 15 be 3c df 4e 26 3d d2 d7 00 3d
       -0.032361485 0.023203706 0.04060256 0.031455822
000330 a6 8f 1a 3b e2 6d f2 3c 12 f9 8f bc 17 5c c6 3c
       0.0023584156 0.029593412 -0.01757482 0.024213834
000340 ba 90 c5 bc c9 07 bc 3c bb a3 68 bc 1a 4c ac bc
       -0.024116863 0.022952931 -0.014199193 -0.021032382
000350 ff d4 8f 3b cf 09 27 3b ce 30 50 3d 4c 82 ae bb
       0.004389405 0.0025488024 0.050827794 -0.005325591
000360 ab 5a a8 bc 44 70 e7 3c f8 68 8a 3c bb 26 85 3c
       -0.020551046 0.028251775 0.016895756 0.01625382
000370 a8 b6 09 bd 93 91 43 3d 86 23 5f bc 12 26 e4 3c
       -0.03362146 0.047746252 -0.013619309 0.027850185
000380 0f 34 e7 bc 8a b2 a7 39 09 ba a9 3c be 8c 8b 3c
       -0.028223066 0.00031985744 0.020718591 0.017034885
000390 e1 de 9f bd c4 79 a7 bd bb 40 2e 3d 96 0f 84 bc
       -0.07806183 -0.08177522 0.0425422 -0.016120713
0003a0 4d 0b 14 3d a9 bd 0c bd 7c 57 bd 3b d7 8c 64 bc
       0.03614359 -0.03436056 0.005778251 -0.013949594
0003b0 51 3d 04 3d e9 a2 e1 3c 7a fd c7 bc dc 86 b4 3c
       0.03228504 0.027543502 -0.02441286 0.022036962
0003c0 ab 4b 07 bd ed e4 0e 3d 66 f7 c6 bc 5f de 09 3d
       -0.033031147 0.03488629 -0.02428789 0.033659335
0003d0 91 e7 aa 3c 03 ef ec bc 8a 51 39 3d f1 01 5b 3d
       0.020862373 -0.028922563 0.045243777 0.05346865
0003e0 57 7c 24 bd ee 29 72 3c ae 9b b1 3c 63 41 1f bb
       -0.040157642 0.014780505 0.02168068 -0.0024300448
0003f0 18 0a 39 bd af d6 50 bc 40 36 15 3d 68 b4 e4 3c
       -0.04517564 -0.012746497 0.03642869 0.027918056

base_model.model.bert.encoder.layer.0.attention.self.value.lora_B.weight f4 [768, 8]
000000 99 08 0f 3c cb 4e 3b 3b 3c 18 e5 3a b7 2d 11 bd
       0.008730077 0.00285809 0.0017478536 -0.035443988
000010 07 bd 6e 3c 4f 6b 11 bc 2e 5c 40 ba 37 e2 d7 ba
       0.014571435 -0.008875682 -0.00073379546 -0.0016470616
000020 68 c2 16 3c 28 15 04 3b 99 f5 63 3a 7c ce a7 3b
       0.0092016235 0.0020154212 0.00086959597 0.0051210504
000030 b0 d6 68 bc 55 91 d7 bb a4 ff d5 3b 87 8c 85 bb
       -0.014211342 -0.006578604 0.006530719 -0.00407559
000040 f9 52 42 bc 63 99 66 3b 77 ae 31 3c e7 87 81 3c
       -0.011860603 0.003518664 0.010844818 0.015811874
000050 50 1b 14 3c c3 18 c3 3c b6 0e df 3b 2d e8 17 bc
       0.009039715 0.023815518 0.0068071736 -0.009271664
000060 06 b6 a2 bb c1 78 4a bc 5f 60 c2 3c bb ed 98 ba
       -0.0049655465 -0.012357892 0.023727594 -0.0011667529
000070 7a 6d e6 3b 8f 87 92 3c 3f 3f 1c 3c f7 12 4a 3c
       0.0070320936 0.017886905 0.009536563 0.012333623
000080 1c c4 d1 3b 5c 35 d7 3a 7a df 0a 3b 28 3c 11 3c
       0.006401552 0.00164191 0.0021190331 0.00886444
000090 f7 05 1f bc b3 3d 8e 3b e9 6e e3 3a 39 d4 42 3c
       -0.009706012 0.004340851 0.0017351779 0.011891418
0000a0 94 b7 0f bd a8 d9 75 b9 5b 5f e6 3b 58 9c 7c 3b
       -0.035087183 -0.00023446104 0.00703041 0.0038545337
0000b0 a9 b3 03 bb a2 63 5c 3c 5d 62 32 bb 5a 6e a1 3b
       -0.00200961 0.013451489 -0.0027219274 0.004926485
0000c0 19 59 9f bc 4f 0b a7 bb 68 05 ce bb 97 ea ae bc
       -0.019451665 -0.0050977836 -0.0062872656 -0.021352096
0000d0 6c 11 85 bc 73 ad b7 bb 8c f8 e2 3b 3c ae a3 3c
       -0.016243659 -0.0056053936 0.0069266018 0.019980542
0000e0 36 bb 5c bc c2 bb b0 bc ad c5 0b 3c 49 7f 7c bc
       -0.013472369 -0.021573905 0.008531016 -0.0154112065
0000f0 c0 9d 9a bc b8 c6 e5 3b 76 0e ea 3b e6 54 78 3c
       -0.01887405 0.0070122145 0.007142837 0.01515696
000100 48 3a 93 3c 92 05 38 3b 1e 67 92 3a 13 18 c1 bb
       0.017972127 0.0028079492 0.0011169647 -0.0058927624
000110 c3 99 ac 3c 6f 37 97 bc ca 21 af 39 eb b8 83 bb
       0.021069413 -0.01845905 0.00033403776 -0.0040198467
000120 26 6e 99 bc 9b a1 84 bc 04 52 e0 3c 10 a9 b4 3c
       -0.01872928 -0.01619034 0.027382858 0.022053272
000130 74 2c a2 bc 02 f2 34 3c a6 84 56 3c f1 32 74 3c
       -0.019796588 0.011044027 0.013093149 0.0149047235
000140 a2 b4 a3 bc 0c e5 32 bb 3b ac c9 b9 80 ae be bb
       -0.019983593 -0.0027297167 -0.0003846603 -0.005819142
000150 2c a2 d8 39 70 d2 1f 3c 37 e0 0c bc 66 2c 0d 3b
       0.00041319558 0.009754762 -0.008598379 0.0021541356
000160 d9 40 38 bd 19 16 57 bb 13 80 f5 3c 3f f2 84 bc
       -0.04498372 -0.0032819568 0.029968297 -0.016228793
000170 24 f9 63 bc 0b ad 4b 3c 7a 66 69 3c 6c 9c 36 3c
       -0.01391438 0.012431393 0.014245624 0.011145692
000180 67 12 1e 3c 84 c2 8f bb 5c 8f c9 3a d4 85 60 3c
       0.009647942 -0.0043872017 0.0015377807 0.013703782
000190 19 18 c9 bb 30 67 f4 38 b1 c4 9a 3a 76 dd b6 b9
       -0.006136906 0.00011654047 0.0011807886 -0.00034878746
0001a0 e4 90 f2 3c 6c 7c 88 bc 47 1e 88 3c 88 8c a5 3c
       0.029610105 -0.016660891 0.016616 0.020208612
0001b0 33 e7 a9 bb 0e 45 eb bc e6 2c 86 3c a9 e1 88 3b
       -0.005185032 -0.028719451 0.016378831 0.0041772914
0001c0 b3 6f eb bc 16 ee a6 bb 64 78 79 3c 3b 12 46 3c
       -0.028739786 -0.0050943 0.015226457 0.012089307
0001d0 78 df 84 ba 31 5a b7 3c b4 4a 8c 3b b2 22 60 3c
       -0.00101374 0.022381874 0.0042813662 0.013680147
0001e0 13 4b d7 3a 4e d3 82 bc 63 39 c1 3c 6c 7b 0d bd
       0.0016425572 -0.015969899 0.023586934 -0.034541532
0001f0 9b eb c6 bb dc 89 ab 38 a4 f4 6f 3c bd 63 87 3c
       -0.006070567 8.179594e-05 0.014645729 0.016527051
000200 36 e8 64 bd ee 11 c1 bb 16 37 8e 3c 09 60 ab b9
       -0.055885516 -0.00589203 0.017360251 -0.00032687213
000210 50 db 47 bc af 9c de 3b af d8 96 3b b7 d1 82 3c
       -0.012198284 0.0067935805 0.0046034674 0.01596914
000220 54 5b 1f 3c 4a c0 8a bc 87 4c 4a 3c 0f 77 de bb
       0.009726364 -0.016937394 0.012347347 -0.0067890952
000230 f2 d3 d4 bc 33 36 18 bd d6 08 c9 3c 20 6f e2 3c
       -0.02597997 -0.037161063 0.024540346 0.02764088
000240 32 17 2f 3b cb 7e 30 bc 88 68 3d 3c 6a 62 95 bb
       0.0026716706 -0.010772417 0.011560567 -0.004558851
000250 72 e3 72 bc f6 c5 33 b8 9f af 7b 3c 8c 6d b5 3c
       -0.014824735 -4.286129e-05 0.015361696 0.022146963
000260 70 d2 b3 b8 cc e2 fa 3a d6 0a 0e 3b b0 18 f4 bb
       -8.574582e-05 0.0019141077 0.002167394 -0.007449232
000270 1c ae a2 bb 83 34 15 bc 78 17 0a bb c0 3d fa 39
       -0.004964603 -0.009106758 -0.0021071117 0.00047729723
000280 0f 25 4a bc 05 01 fa 3b 21 1e ec bb 81 85 c9 3c
       -0.012337937 0.007629516 -0.00720574 0.024599792
000290 cd ed e1 3b fd 5a a6 3c 70 43 6a bc 89 73 67 bc
       0.006894803 0.020307058 -0.014298305 -0.014126667
0002a0 34 a0 1a 3d d3 8c 95 bc 0c c8 ac 3c 3e 4b b2 3a
       0.037750438 -0.018255627 0.021091484 0.0013602746
0002b0 c5 8d 2a bc c6 6f 04 bc 75 39 08 3d 87 64 c8 3c
       -0.010409777 -0.0080832895 0.03325792 0.024461998
0002c0 b2 43 e2 3c 43 72 6a ba eb 9e dc bb 93 a4 d6 bb
       0.02762017 -0.0008943418 -0.0067328117 -0.0065503805
0002d0 78 f3 b2 3c 2b 2c 76 3c 57 04 46 bb 8c 08 4b bc
       0.02184461 0.015025179 -0.003021499 -0.012392174
0002e0 5f e1 ca bb 9a a0 8c b9 48 80 f6 3a 17 33 f8 3c
       -0.006191417 -0.00026822538 0.0018806541 0.030297799
0002f0 e3 e2 1a bc 32 5a e3 3c 3a 26 49 3b 24 7c 4a b7
       -0.009453508 0.02775297 0.003069295 -1.2069042e-05
000300 f6 11 25 bb 95 a7 04 bd e9 4c ce 3c 93 c4 5d bb
       -0.0025187708 -0.03238638 0.025183158 -0.0033839091
000310 ff 08 64 bb 86 b1 d5 3b 5e 22 52 3c 47 bb a3 3c
       -0.00347954 0.0065214066 0.012825577 0.019986762
000320 59 e9 2b 3c 92 50 0e bc 8a c1 a4 3c e8 3e 49 3c
       0.010492646 -0.008686202 0.020111818 0.012283064
000330 0f e0 f5 bc 53 1d bd bc 52 40 d1 3c 20 5c eb 3c
       -0.030014066 -0.023085272 0.025543366 0.028730452
000340 6a 0f e9 3b 21 6f da 3b 6c f2 4f 3b 9d 3b 95 bc
       0.007112433 0.0066660796 0.0031730188 -0.018216902
000350 50 27 ea 3c d3 e2 5a 3c a4 99 6f 3b d2 52 c8 bb
       0.028583199 0.013359743 0.0036560083 -0.0061133886
000360 d2 00 2a bc a1 04 80 3c 18 60 1b bc 78 34 97 3c
       -0.010376172 0.015627207 -0.00948336 0.018457636
000370 c3 4f cd 3c 74 4e 56 3c a4 ee 0e bb 97 06 68 bb
       0.025062447 0.013080228 -0.0021809721 -0.0035404318
000380 86 64 e7 bb 99 32 60 bc cf b7 c6 3c 4f fe 36 3b
       -0.007061544 -0.013683938 0.024257569 0.0027922576
000390 64 c7 34 bc 83 03 a7 bc c4 90 be 3c 13 74 97 3c
       -0.011033867 -0.020387417 0.023262389 0.018487966
0003a0 f2 0e 66 bc db 0c 1c 3c 16 21 5c bc 91 af 0f bb
       -0.014041649 0.009524549 -0.013435623 -0.0021924714
0003b0 56 ad 51 bb c3 3e 48 3a 40 4b 51 bc 83 ab 9a ba
       -0.0031994185 0.0007638747 -0.012774289 -0.0011800382
0003c0 69 ca 6c bc 90 3b 0d 3b 82 85 77 bb 7a da 6c ba
       -0.014452555 0.0021550395 -0.0037768786 -0.0009035241
0003d0 4c a8 8b 3c 11 22 0f 3c f8 6f 52 bb 46 cb e3 bb
       0.017048024 0.008736149 -0.0032110196 -0.0069517223
0003e0 82 db 7e bc 4a 4b de bc 9b 78 ae 3c 52 59 1c 3c
       -0.015555264 -0.02713551 0.021297744 0.00954278
0003f0 28 15 a8 bc 16 75 1e bc 5e 97 aa 3c 22 ad a7 3c
       -0.0205179 -0.00967147 0.02082413 0.020468298
