郑昕/week03/model.pth (torch, 18734 bytes, 7 tensors)

embedding.weight f4 [28, 20]
0.0 0.0 0.0 0.0 0.0 0.0 0.0 0.0
0.0 0.0 0.0 0.0 0.0 0.0 0.0 0.0
0.0 0.0 0.0 0.0 -0.36000267 -1.57334 -1.4731057 0.036265273
1.1490488 0.90176666 1.3114548 -1.369124 -1.4653023 3.7140052 -0.695268 0.8325381
-1.012632 0.33762825 0.17325445 1.3944429 -0.061145287 -1.3064549 0.5278996 0.9464561
-0.12917425 1.1095096 0.256253 0.32795307 1.8888975 0.74183273 0.734532 0.13460344
1.350321 -0.13070384 -0.20057717 -1.4901787 -0.9888904 -1.5822239 -1.3179396 -0.64990693
-1.1554475 -1.4156544 1.5434687 0.51949054 -1.2763187 -2.4361777 0.29970053 -0.8456977
-0.18704572 -0.48587194 -0.5515995 0.53206956 0.011559619 1.7410903 0.53946096 -0.516821
-0.4191652 -0.24252674 -1.9584159 -0.15503111 -0.47211212 -0.45021623 0.40013865 -1.1173303
-0.8053731 0.90339404 0.90571433 -0.47753632 -1.5399857 0.06515852 -1.5638885 -0.99875724
0.06096498 0.6759722 0.53682065 0.22979544 -1.3134557 -1.5133525 -3.1045754 -0.1400722
0.21796589 1.5024856 -0.88863945 0.14493036 -0.58421326 1.0642798 0.90301675 -0.5382016
-0.21440996 -0.18050522 -0.82878804 -0.0809018 -0.33881876 -1.554218 1.6967429 -0.11076766
-1.7383373 -0.059005298 0.17729099 0.13678028 0.29140255 0.5930673 -0.48924458 -0.3550663
0.37350723 -0.7770122 -0.8162594 -1.4733919 0.009387422 0.4514096 -0.3464894 0.71960545
-0.14743187 0.3569413 0.47801563 -1.6855711 1.437186 -1.3261459 -1.4924439 0.030928148
-1.5139086 -0.73367584 -0.49938068 0.12847205 -0.01896452 1.1411134 1.0599859 -0.6283945
-0.5770429 0.9273499 0.36437458 -0.68609446 -0.8061392 -0.07387068 0.35899213 -0.5125446
-0.9967736 0.63155746 -0.88383055 -0.873893 -0.29437995 -1.213601 -0.11652874 -0.4683647
0.14006369 1.7941439 0.46120864 0.487356 -0.6890601 1.7455714 -0.91829383 -1.0865014
1.5055684 -0.73066396 1.3351042 -0.5459801 -2.613271 0.19061105 0.36893395 -1.1286812
-0.79870695 -0.60648185 -0.7201596 -1.186162 -0.007433636 2.2031672 0.89321345 -0.65830374
-0.088189095 -0.8867493 0.6523465 0.28419113 -0.67207545 -0.30567944 1.3435708 -1.1071583
-2.6204753 -0.17712757 0.05893545 -0.5469413 -0.5946118 1.7104926 1.3725091 -0.28394303
0.29807037 -0.77604115 1.606485 -1.619182 0.97745556 1.7013682 -1.2231202 -2.0290766
-1.9893259 0.26793897 -0.035747275 -1.0093603 0.37756875 -1.1194372 0.67721397 -0.6230106
-1.1768658 0.045148455 1.3580806 0.13442884 0.5279228 1.5553306 0.22353242 -0.67961574
0.85854274 1.8944154 0.3044282 -0.043316707 -0.28912932 -0.7461292 0.63395655 -1.0404135
0.17484385 1.3142595 1.138397 1.9194312 -1.1419135 -0.38366157 -0.13426773 -0.47616756
0.58007574 -1.8452269 -0.5211835 1.4097983 1.3673913 -1.2950385 -1.5097004 -0.5713505
2.0486057 0.17646101 1.8302712 -1.519076 -0.29738238 -0.116089515 0.7456322 0.041574445
00000000: 0000 0000 0000 0000 0000 0000 0000 0000
00000010: 0000 0000 0000 0000 0000 0000 0000 0000
00000020: 0000 0000 0000 0000 0000 0000 0000 0000
00000030: 0000 0000 0000 0000 0000 0000 0000 0000
00000040: 0000 0000 0000 0000 0000 0000 0000 0000
00000050: 4552 b8be 3563 c9bf ba8e bcbf e58a 143d
00000060: 0814 933f 2eda 663f c0dd a73f 753f afbf
00000070: 078f bbbf 43b2 6d40 15fd 31bf 3821 553f
00000080: ed9d 81bf 9cdd ac3e 9d69 313e 1b7d b23f
00000090: 7b73 7abd ea39 a7bf 6e24 073f f24a 723f
000000a0: 4146 04be 6904 8e3f 9833 833e 77e9 a73e
000000b0: 65c7 f13f c0e8 3d3f 4a0a 3c3f 7cd5 093e
000000c0: 52d7 ac3f 3ad7 05be 1a64 4dbe 2dbe bebf
000000d0: ec27 7dbf 5086 cabf 3fb2 a8bf 4d60 26bf
000000e0: b4e5 93bf 2a34 b5bf 6290 c53f 55fd 043f
000000f0: 695e a3bf 56ea 1bc0 5972 993e a57f 58bf
00000100: ea88 3fbe 35c4 f8be a035 0dbf b635 083f
00000110: 8e64 3d3c 0cdc de3f 1d1a 0a3f 624e 04bf
00000120: d29c d6be ee58 78be 5fad fabf 7ac0 1ebe
00000130: aeb8 f1be be82 e6be f9de cc3e ae04 8fbf
00000140: ee2c 4ebf d544 673f e5dc 673f a47f f4be
00000150: 401e c5bf d571 853d 802d c8bf 8eae 7fbf
00000160: 6ab6 793d 840c 2d3f 146d 093f 7f4f 6b3e
00000170: 511f a8bf 89b5 c1bf 5db1 46c0 166f 0fbe
00000180: 7332 5f3e 7351 c03f e07d 63bf a068 143e
00000190: 008f 15bf 523a 883f 1b2c 673f 94c7 09bf
000001a0: 498e 5bbe 5cd6 38be 742b 54bf d8af a5bd
000001b0: a779 adbe 9ef0 c6bf df2e d93f 28da e2bd
000001c0: d681 debf 8aaf 71bd c58b 353e 2110 0c3e
000001d0: b732 953e 42d3 173f 447e fabe 40cb b5be
000001e0: 573c bf3e 46ea 46bf 60f6 50bf 1b98 bcbf
000001f0: b4cd 193c 291f e73e 0f67 b1be 1038 383f
00000200: 61f8 16be 03c1 b63e 77be f43e cbc0 d7bf
00000210: b6f5 b73f 26bf a9bf 6708 bfbf 075d fd3c
00000220: c2c7 c1bf 2ed2 3bbf d3ae ffbe 2d8e 033e
00000230: 7b5b 9bbc 0110 923f 9ead 873f 76de 20bf
00000240: 15b9 13bf ce66 6d3f 4e8f ba3e e3a3 2fbf
00000250: 235f 4ebf 8349 97bd d1cd b73e 1f36 03bf
00000260: 8e2c 7fbf c0ad 213f b842 62bf 74b7 5fbf
00000270: f8b8 96be 4757 9bbf 9fa6 eebd 7fcd efbe
00000280: db6c 0f3e 82a6 e53f 8a23 ec3e ba86 f93e
00000290: 3e66 30bf e26e df3f 4e15 6bbf 7a12 8bbf
000002a0: 77b6 c03f cb0c 3bbf b2e4 aa3f 5ac5 0bbf
000002b0: d53f 27c0 8b2f 433e e9e4 bc3e a078 90bf
000002c0: 0f78 4cbf 6542 1bbf 615c 38bf 28d4 97bf
000002d0: dc95 f3bb b100 0d40 a3a9 643f 9886 28bf
000002e0: 7c9c b4bd 0102 63bf 2e00 273f 8081 913e
000002f0: 230d 2cbf 0482 9cbe 21fa ab3f 5db7 8dbf
00000300: deb5 27c0 ee60 35be 4c66 713d 5804 0cbf
00000310: 7b38 18bf 6cf1 da3f 61ae af3f fb60 91be
00000320: ae9c 983e a2aa 46bf 4da1 cd3f 5b41 cfbf
00000330: 873a 7a3f 6fc6 d93f 348f 9cbf 64dc 01c0
00000340: 3ba2 febf 4c2f 893e bc6b 12bd b832 81bf
00000350: b150 c13e b849 8fbf e55d 2d3f 9f7d 1fbf
00000360: 8aa3 96bf 96ed 383d 96d5 ad3f b7a7 093e
00000370: f325 073f 1315 c73f afe5 643e 4cfb 2dbf
00000380: 75c9 5b3f 347c f23f 03de 9b3e dc6c 31bd
00000390: c208 94be 5302 3fbf fa4a 223f 452c 85bf
000003a0: 440a 333e a839 a83f feb6 913f ecaf f53f
000003b0: 392a 92bf 4a6f c4be 7b7d 09be 3ccc f3be
000003c0: d87f 143f 6530 ecbf 486c 05bf 4574 b43f
000003d0: ae06 af3f d2c3 a5bf dd3d c1bf 0744 12bf
000003e0: 5b1c 0340 32b2 343e 5446 ea3f 1571 c2bf
000003f0: 8142 98be 57c0 edbd c0e1 3e3f f749 2a3d

rnn.weight_ih_l0 f4 [80, 20]
-0.24321835 0.21254532 0.321526 -0.27999106 0.07573525 0.10898308 -0.035578467 0.11540508
0.31439152 -0.24293491 0.17808379 -0.29024693 -0.095307775 -0.21132447 -0.098496236 -0.3807544
-0.11540452 0.17020796 0.042906333 -0.30446243 0.054170843 -0.15083496 0.19570538 0.14754292
0.02589239 0.29889527 0.30149198 0.13158928 0.24180855 -0.38280466 -0.15026473 -0.269243
0.068500474 -0.23422846 0.14593834 -0.32285064 -0.26103494 -0.028496401 -0.057602894 -0.20527054
-0.23404212 -0.2650566 -0.25399742 -0.1741874 0.18367754 0.27420363 -0.022670493 -0.10419458
0.06199932 0.1857325 0.23318896 0.018261716 -0.4746867 -0.21086022 0.009930417 0.11639999
-0.191293 -0.099110246 -0.14124334 0.2668078 -0.26839465 0.13692756 -0.065805845 -0.010665935
0.2521957 0.15121777 -0.14861423 -0.12807295 -0.14840873 0.14969973 0.17653722 0.059721977
-0.17635009 -0.13747549 -0.121693574 0.10978733 -0.28910056 -0.12044135 -0.044399716 0.1398305
-0.14890964 -0.0020911586 0.2004401 0.17156658 0.05789065 -0.2401036 -0.18859948 0.073516205
-0.004034235 -0.034167554 0.07753026 -0.20317797 -0.11830279 -0.250536 -0.3070869 -0.059640694
-0.033804893 0.24558277 -0.0655716 0.14946687 -0.00994624 -0.11449277 -0.21019818 0.06489732
0.4321044 0.3717445 0.16141737 -0.11157876 -0.054030422 0.21335082 -0.16627742 0.1520983
-0.04931607 -0.053921577 -0.13455802 0.16420749 -0.22887638 0.044346943 0.22196977 -0.012446706
-0.2756219 -0.084516615 -0.07308961 -0.4499704 0.2305732 0.06631322 -0.0626965 -0.16930798
0.23709379 -0.19562645 0.12483933 -0.1653676 -0.29499844 -0.29457954 0.08529289 0.11985107
-0.23539883 -0.10947958 0.06364141 0.054056615 -0.010570931 -0.05120187 -0.054333497 0.1208759
0.28843707 0.20771803 0.030170836 -0.095787406 -0.21870257 0.1586176 -0.13458568 -0.08569322
0.027398422 0.11888093 0.040670417 0.10857333 -0.1853063 -0.21754071 0.26360518 0.239887
-0.21691151 -0.17179687 0.032394644 0.15861535 0.25504178 0.35048524 0.41565022 -0.10157248
-0.11923905 0.33189282 -0.03359385 -0.023326753 0.22657299 -0.0878602 0.09037567 0.24079208
-0.19879031 -0.14511684 -0.23487136 0.3427949 0.027720965 -0.11022785 0.047362596 -0.24713407
0.18349518 0.17223302 0.018578239 -0.049575772 -0.1197583 0.26632723 0.113172516 -0.25598258
-0.15205309 0.065262884 -0.32438022 0.17023017 -0.31800896 0.061076142 0.31285414 0.23542549
-0.28424606 -0.14868681 0.17389551 0.16796272 -0.009663749 0.23990285 -0.09544423 -0.13668412
0.08194459 0.039051168 -0.05058513 -0.2609947 -0.23281676 -0.14977068 -0.19540943 -0.16404559
-0.24934362 0.10973566 0.16393012 -0.068825014 -0.03575283 0.06457061 0.26767296 -0.012869949
-0.11534744 -0.05912027 -0.13034335 0.16606279 0.2056624 -0.030235946 0.2720029 -0.32716087
-0.15313536 0.043441225 -0.2170562 -0.031157495 -0.2980437 0.060728166 0.08226999 0.14155059
-0.11040513 -0.34390408 0.14223494 0.037219703 0.34167442 0.11383892 0.030575514 -0.23553568
-0.012531823 0.24019733 0.0041150455 -0.115957804 -0.06400183 0.10234871 -0.0063342755 0.2181142
00000000: 3b0e 79be 7ba5 593e 0e9f a43e fd5a 8fbe
00000010: 151b 9b3d 8532 df3d baba 11bd 8059 ec3d
00000020: edf7 a03e eec3 78be 995b 363e 3f9b 94be
00000030: b930 c3bd 7165 58be 65b8 c9bd 3ef2 c2be
00000040: 3459 ecbd ff4a 2e3e 8dbe 2f3d 80e2 9bbe
00000050: 3fe2 5d3d 7b74 1abe fe66 483e 7e15 173e
00000060: 471c d43c cd08 993e 285d 9a3e 57bf 063e
00000070: a99c 773e f9fe c3be ffde 19be 38da 89be
00000080: fa49 8c3d 96d9 6fbe dc70 153e ae4c a5be
00000090: 5fa6 85be 4971 e9bc 03f1 6bbd 7132 52be
000000a0: bda8 6fbe 80b5 87be f30b 82be 2f5e 32be
000000b0: f715 3c3e 6b64 8c3e 78b7 b9bc f863 d5bd
000000c0: 00f3 7d3d a930 3e3e 16c9 6e3e 9899 953c
000000d0: 230a f3be beeb 57be 30b3 223c 1e63 ee3d
000000e0: 50e2 43be 50fa cabd 18a2 10be 089b 883e
000000f0: 066b 89be bd36 0c3e 37c5 86bd 2dc0 2ebc
00000100: cb1f 813e d5d8 1a3e 542e 18be 8e25 03be
00000110: 75f8 17be e34a 193e 2cc6 343e 089f 743d
00000120: 1e95 34be 60c6 0cbe 7b3a f9bd 2ed8 e03d
00000130: fd04 94be f4a9 f6bd 7adc 35bd ba2f 0f3e
00000140: c57b 18be d20b 09bb 2b40 4d3e 26af 2f3e
00000150: bf1e 6d3d b8dd 75be 3920 41be aa8f 963d
00000160: 9e31 84bb 47f3 0bbd 2fc8 9e3d e30d 50be
00000170: bc48 f2bd 4146 80be 7f3a 9dbe cd49 74bd
00000180: 0077 0abd 0d7a 7b3e 674a 86bd d80d 193e
00000190: 8ef5 22bc 2f7b eabd 313e 57be e3e8 843d
000001a0: ca3c dd3e 4c55 be3e 984a 253e 6883 e4bd
000001b0: 014f 5dbd a378 5a3e a144 2abe a8bf 1b3e
000001c0: a6ff 49bd dfdc 5cbd 94c9 09be 0226 283e
000001d0: 925e 6abe 24a5 353d 0b4c 633e 45ed 4bbc
000001e0: 501e 8dbe 0c17 adbd 01b0 95bd 8562 e6be
000001f0: 621b 6c3e 3acf 873d 0667 80bd 125f 2dbe
00000200: b7c8 723e 4d52 48be c3ab ff3d 2056 29be
00000210: 090a 97be 21d3 96be 0aae ae3d 7a74 f53d
00000220: 640c 71be d436 e0bd 6d56 823d 786a 5d3d
00000230: b331 2dbc 0db9 51bd cd8c 5ebd c98d f73d
00000240: 06ae 933e 09b4 543e d428 f73c 302c c4bd
00000250: 91f3 5fbe a76c 223e d4d0 09be ed7f afbd
00000260: a872 e03c d877 f33d 0696 263d b25b de3d
00000270: efc0 3dbe fec2 5ebe 42f7 863e f0a4 753e
00000280: 0d1e 5ebe 85eb 2fbe 3fb0 043d 106c 223e
00000290: d694 823e cd72 b33e 1bd0 d43e 3b05 d0bd
000002a0: 9a33 f4bd dbed a93e b499 09bd bf17 bfbc
000002b0: c002 683e 0cf0 b3bd e116 b93d 3392 763e
000002c0: b08f 4bbe 8299 14be 1e82 70be d082 af3e
000002d0: 1417 e33c 24bf e1bd 48ff 413d b710 7dbe
000002e0: 29e6 3b3e da5d 303e 6431 983c f70f 4bbd
000002f0: d743 f5bd 0b5c 883e fec6 e73d 2610 83be
00000300: ceb3 1bbe 8ca8 853d 2a15 a6be d150 2e3e
00000310: 12d2 a2be fa2a 7a3d 6b2e a03e 6113 713e
00000320: b388 91be 5b41 18be aa11 323e 6bfe 2b3e
00000330: b354 1ebc 18a9 753e 4478 c3bd ecf6 0bbe
00000340: 91d2 a73d 1ef4 1f3d 5a32 4fbd 19a1 85be
00000350: 8467 6ebe 7c5d 19be 6919 48be 91fb 27be
00000360: ef53 7fbe 17bd e03d 4cdd 273e 21f4 8cbd
00000370: 8f71 12bd 993d 843d 6e0c 893e 7bdc 52bc
00000380: 473b ecbd 1928 72bd ba78 05be 5d0c 2a3e
00000390: 2a99 523e 60b1 f7bc f743 8b3e a181 a7be
000003a0: 84cf 1cbe 6def 313d fb43 5ebe 013e ffbc
000003b0: 2f99 98be 19be 783d 2b7d a83d a3f2 103e
000003c0: 161c e2bd 3214 b0be 09a6 113e b073 183d
000003d0: f3ef ae3e 6124 e93d 8079 fa3c 4430 71be
000003e0: 4652 4dbc 4af6 753e 81d7 863b 497b edbd
000003f0: 6413 83bd 339c d13d c18f cfbb 5459 5f3e

rnn.weight_hh_l0 f4 [80, 20]
0.100670986 -0.06820294 -0.0674367 -0.4901556 -0.0061057406 0.07331835 -0.14568488 -0.11344652
0.15151809 -0.18961306 0.09082842 -0.025783498 0.13175331 0.13431501 -0.14042322 0.09331252
-0.12110795 0.13386773 -0.26142296 0.0042870217 0.2863021 -0.17636852 0.013563948 0.37650305
-0.08714195 -0.22357549 0.007215396 -0.13937128 -0.08130084 -0.22658221 -0.46538606 0.081545725
0.043428507 0.015119958 0.47546294 0.12617654 0.21131264 -0.3890191 0.1350245 -0.23430896
0.09578657 -0.27099797 0.1994349 -0.9798956 0.30743992 0.16210598 -0.045598853 -0.025016854
0.42959428 0.6979824 0.03686756 0.090030976 -0.040490136 -0.23167065 -0.08665779 -0.42154887
-0.100920394 0.3071959 -0.13213648 -0.4427632 0.28806832 -0.30546668 0.17998858 -0.15909185
0.17282517 0.04985404 0.46299663 -0.138533 0.045673653 -0.27666587 0.09824537 0.34451443
0.3388114 0.52651525 -0.06762132 -0.007985532 -0.35177323 0.014503271 -0.23215057 0.16865416
0.11827057 -0.35310444 -0.4592297 -0.42417693 0.33873898 -0.2094997 0.1805568 -0.337986
-0.12492344 0.2060285 0.090131454 0.1045307 -0.3864986 0.4830031 0.52407926 0.19844401
0.16558805 -0.06611764 0.117986284 -0.0027590783 0.24823242 -0.19436795 -0.19503024 0.100313164
0.025845291 -0.0921002 0.19104402 -0.084379904 -0.32726008 -0.29168615 -0.011844702 0.2818487
0.014641726 -0.03135859 0.38271397 -0.23026745 -0.010088973 -0.29218408 0.32325053 -0.12210917
0.2479646 -0.41691536 -0.14291507 0.12247596 0.33180293 -0.26980507 0.12753788 -0.18309677
0.012831585 -0.225339 0.13040961 0.19893144 0.010481702 0.29627 0.29800084 0.069118984
0.25810495 0.0020522035 -0.0021793186 0.041417595 -0.02395274 -0.21213844 0.12728243 -0.043169726
0.10388128 -0.13449354 0.05838575 0.009574366 -0.06248692 -0.34662908 -0.27114788 -0.054862
-0.21062241 0.31846353 0.16676961 -0.30455056 0.15300952 -0.20549996 0.22245094 0.04227623
0.10322997 -0.22775622 -0.1847518 0.07649835 0.14870852 -0.32620114 0.019402813 -0.18568504
-0.037619717 -0.3476129 0.1750218 0.0008993125 -0.15624227 0.32620198 0.24174546 -0.0591699
0.21251886 -0.2348646 0.30655742 -0.061811276 -0.02016601 -0.38445044 -0.29647785 0.016488392
0.65112215 0.021526149 0.3822505 -0.13938363 0.18429984 -0.005651516 0.46458834 0.122705065
0.14096722 0.4788622 0.16472802 0.07094144 -0.05109434 -0.015204608 -0.31269097 0.380459
-0.21828598 -0.34119266 -0.34313256 -0.19496958 0.04794917 0.123871215 -0.0093037905 0.22520307
0.5340603 0.26555935 0.2744426 0.07433333 0.62659323 0.030695718 -0.009652946 0.6139443
-0.56662774 0.3343829 -0.47861636 0.017300397 0.05426469 -0.19357514 -0.44320214 -0.0014863482
0.2029222 0.08490371 -0.07063593 0.10375023 -0.13547066 -0.2882426 0.07179997 0.13620892
0.28186333 -0.08473595 0.10742906 0.26566097 0.017500123 -0.28759882 -0.03085321 -0.120140396
0.06797215 -0.10878895 -0.44630504 0.25272694 0.13024527 -0.10622872 0.17366898 0.09992531
0.017714756 -0.11222651 0.33530673 0.07816381 -0.3452053 0.27190995 0.30812383 -0.20109531
00000000: 972c ce3d fcad 8bbd 411c 8abd adf5 fabe
00000010: aa12 c8bb ee27 963d 6b2e 15be a656 e8bd
00000020: 8f27 1b3e ed29 42be 4004 ba3d ea37 d3bc
00000030: 57ea 063e e089 093e 1bcb 0fbe a21a bf3d
00000040: 7207 f8bd 9f14 093e 3bd9 85be 257a 8c3b
00000050: 3096 923e f399 34be 523b 5e3c 02c5 c03e
00000060: 7b77 b2bd f9f0 64be 216f ec3b 58b7 0ebe
00000070: 0e81 a6bd 2b05 68be 1547 eebe 7201 a73d
00000080: 17e2 313d b3b9 773c e16f f33e 6c34 013e
00000090: 5762 583e 832d c7be dd43 0a3e b0ee 6fbe
000000a0: c02b c43d 3fc0 8abe aa38 4c3e 70da 7abf
000000b0: c468 9d3e 1cff 253e ddc5 3abd 25f0 ccbc
000000c0: c8f3 db3e f9ae 323f 7002 173d 2962 b83d
000000d0: fcd8 25bd 123b 6dbe a479 b1bd 41d5 d7be
000000e0: 5aaf cebd c848 9d3e c94e 07be dcb1 e2be
000000f0: b17d 933e 2166 9cbe ed4e 383e f9e8 22be
00000100: 15f9 303e c033 4c3d e50d ed3e 98db 0dbe
00000110: 4c14 3b3d 26a7 8dbe de34 c93d 3264 b03e
00000120: b078 ad3e b4c9 063f 0c7d 8abd c0d5 02bc
00000130: 9f1b b4be 219f 6d3c e1b8 6dbe adb3 2c3e
00000140: d737 f23d 1bca b4be 2820 ebbe b82d d9be
00000150: 326f ad3e 1787 56be e2e3 383e 800c adbe
00000160: dcd7 ffbd 23f9 523e d796 b83d 3114 d63d
00000170: 25e3 c5be 2f4c f73e 0f2a 063f e834 4b3e
00000180: ea8f 293e af68 87bd cba2 f13d a7d1 34bb
00000190: a430 7e3e 6408 47be 02b6 47be fd70 cd3d
000001a0: 81b9 d33c 089f bcbd 0ba1 433e 5fcf acbd
000001b0: a28e a7be e357 95be 4810 42bc 794e 903e
000001c0: dae3 6f3c dd71 00bd 16f3 c33e 3bcb 6bbe
000001d0: 384c 25bc 2799 95be 1881 a53e 5f14 fabd
000001e0: 6fea 7d3e ee75 d5be 5458 12be add4 fa3d
000001f0: 13e2 a93e e423 8abe 4a99 023e b87d 3bbe
00000200: 913b 523c 44bf 66be 198a 053e afb4 4b3e
00000210: 72bb 2b3c b4b0 973e 9193 983e 418e 8d3d
00000220: 5526 843e 437e 063b e6d2 0ebb 7fa5 293d
00000230: 8938 c4bc d23a 59be 5356 023e bdd2 30bd
00000240: b5bf d43d adb8 09be e525 6f3d cddd 1c3c
00000250: 49f2 7fbd 5e79 b1be e5d3 8abe fab6 60bd
00000260: 67ad 57be a70d a33e a7c5 2a3e 0dee 9bbe
00000270: 87ae 1c3e 956e 52be 2eca 633e d729 2d3d
00000280: 3c6a d33d ed38 69be 932f 3dbe 2bab 9c3d
00000290: 0c47 183e d603 a7be a6f2 9e3c 3824 3ebe
000002a0: 2217 1abd 51fa b1be ea38 333e d7bf 6b3a
000002b0: f9fd 1fbe f203 a73e 1f8c 773e 235c 72bd
000002c0: 8b9e 593e 5880 70be 18f5 9c3e d22d 7dbd
000002d0: 3033 a5bc b0d6 c4be f2cb 97be aa12 873c
000002e0: f1af 263f 9b57 b03c 56b6 c33e 95ba 0ebe
000002f0: 19b9 3c3e 5a30 b9bb 86de ed3e cb4c fb3d
00000300: b659 103e 6d2d f53e 76ae 283e bf49 913d
00000310: 4c48 51bd c01c 79bc 0819 a0be 86cb c23e
00000320: 5c86 5fbe ceb0 aebe 12af afbe 1ba6 47be
00000330: 5966 443d 31b0 fd3d ed6e 18bc a29b 663e
00000340: 2db8 083f 65f7 873e be83 8c3e 133c 983d
00000350: 6a68 203f 9675 fb3c 6427 1ebc 742b 1d3f
00000360: 840e 11bf 3c34 ab3e 340d f5be 90b9 8d3c
00000370: a744 5e3d 9038 46be 64eb e2be 92d1 c2ba
00000380: d6ca 4f3e ffe1 ad3d 92a9 90bd 007b d43d
00000390: d2b8 0abe 8994 93be dd0b 933d 5a7a 0b3e
000003a0: 6450 903e 0b8a adbd c403 dc3d b704 883e
000003b0: 6b5c 8f3c 2740 93be dfbf fcbc 2b0c f6bd
000003c0: fc34 8b3d becc debd 1882 e4be 6d65 813e
000003d0: 045f 053e 718e d9bd 48d6 313e a4a5 cc3d
000003e0: 891e 913c 03d7 e5bd 53ad ab3e 5914 a03d
000003f0: c0be b0be c837 8b3e 68c2 9d3e eeeb 4dbe

rnn.bias_ih_l0 f4 [80]
0.39280963 0.1993995 0.5654107 0.58055544 0.01646883 0.27138057 0.05225758 0.17996548
0.2133191 0.6528871 0.23009966 0.31838885 -0.039095007 0.2858975 0.4450947 0.14556056
0.059754264 0.06577616 0.18353423 0.35835537 0.30285743 0.2778396 -0.20349115 0.24591725
0.05687888 0.21381326 0.34856594 -0.051525593 0.49544787 0.18137786 0.06220066 0.1487892
0.23182434 -0.21602742 0.43246 0.36179897 0.08797294 0.26738325 0.43227404 0.248718
0.3165843 -0.20350382 0.17169492 0.03718793 0.36549664 -0.27328545 0.32909712 -0.18537755
0.23218092 -0.083031654 -0.089382075 0.23518749 0.11253279 0.0008825077 0.21850668 -0.07194971
0.16966006 -0.041666865 -0.17182054 -0.14005733 0.42801332 0.034718633 0.5030178 0.56982446
0.10834879 0.4763337 0.13903944 0.0012342676 0.40708944 0.29464823 0.0052216807 0.048965123
0.38021109 0.23286285 0.15637033 0.41227484 0.43338874 0.3466894 0.18801852 0.26914203
00000000: 581e c93e 622f 4c3e c1be 103f 489f 143f
00000010: a4e9 863c 65f2 8a3e 0b0c 563d df48 383e
00000020: 5270 5a3e 9c23 273f 3f9f 6b3e dd03 a33e
00000030: 1622 20bd 2861 923e 74e3 e33e d40d 153e
00000040: e3c0 743d a7b5 863d 66f0 3b3e 5b7a b73e
00000050: 2110 9b3e fe40 8e3e fc5f 50be bbd1 7b3e
00000060: d4f9 683d ddf1 5a3e 3c77 b23e 800c 53bd
00000070: 58ab fd3e 1ebb 393e 1fc6 7e3d 325c 183e
00000080: 5c63 6d3e 4b36 5dbe 666b dd3e b73d b93e
00000090: 282b b43d 75e6 883e 0653 dd3e eeaf 7e3e
000000a0: 5617 a23e 4e63 50be cbd0 2f3e 5f52 183d
000000b0: 6022 bb3e 12ec 8bbe 6b7f a83e 9dd3 3dbe
000000c0: d6c0 6d3e 800c aabd f30d b7bd fdd4 703e
000000d0: 9777 e63d 1758 673a 37c0 5f3e 5f5a 93bd
000000e0: 5ebb 2d3e e0aa 2abd b9f1 2fbe 306b 0fbe
000000f0: 9024 db3e 2035 0e3d c6c5 003f 04e0 113f
00000100: f8e5 dd3d 03e2 f33e 5b60 0e3e 26c7 a13a
00000110: 076e d03e 22dc 963e a21a ab3b a78f 483d
00000120: 07ab c23e 9973 6e3e 8b1f 203e b015 d33e
00000130: 21e5 dd3e 4681 b13e ed87 403e fccc 893e

rnn.bias_hh_l0 f4 [80]
0.21477705 0.21581158 0.26497003 0.20955518 0.20167598 0.25302425 0.2914708 0.039013553
0.11701507 0.23271899 0.002268014 0.29329258 0.20614079 0.03476763 0.14087905 0.24337012
0.031295545 0.28305724 0.12638764 0.1852325 0.14492089 -0.05077573 -0.04941099 0.3315048
-0.12339451 0.34127766 -0.020506302 0.08959603 0.31320673 0.06564858 0.085438184 0.0006068711
0.3599827 0.11556107 0.29877925 0.22320428 0.30549482 0.24652007 0.55461264 0.19272812
0.21838425 -0.27384463 0.112494566 -0.17382483 0.1787949 -0.23462969 0.25445825 -0.19982125
-0.13861783 -0.12994172 -0.2079613 0.27825427 0.18692093 0.3459783 0.008482567 0.11194601
0.012863702 -0.12296542 0.22426462 0.01847076 0.37463456 0.011141828 0.70820874 0.72902906
0.1789262 0.36471003 0.44511485 0.1583881 0.22657569 0.62286705 0.22493647 0.3238022
0.07056012 0.2656677 0.3809911 0.44119218 0.41935247 0.102619186 0.4592259 0.44903946
00000000: 84ee 5b3e b6fd 5c3e 27aa 873e a295 563e
00000010: 2684 4e3e 658c 813e a93b 953e adcc 1f3d
00000020: 99a5 ef3d e34d 6e3e f6a2 143b 722a 963e
00000030: 9216 533e 8168 0e3d 9942 103e 0436 793e
00000040: c22f 003d e1ec 903e c36b 013e 97ad 3d3e
00000050: 2466 143e 36fa 4fbd 2e63 4abd ffba a93e
00000060: 43b6 fcbd f2bb ae3e d5fc a7bc 207e b73d
00000070: a25c a03e c372 863d 37fa ae3d 6e16 1f3a
00000080: a74f b83e 48ab ec3d 98f9 983e aa8f 643e
00000090: d169 9c3e c26f 7c3e 18fb 0d3f 855a 453e
000000a0: 1fa0 5f3e 5d35 8cbe 8d63 e63d 23ff 31be
000000b0: 0316 373e c442 70be 5a48 823e f19d 4cbe
000000c0: d5f1 0dbe 710f 05be cff3 54be 5877 8e3e
000000d0: 3368 3f3e 1124 b13e 77fa 0a3c f343 e53d
000000e0: 47c2 523c 4bd5 fbbd a0a5 653e fe4f 973c
000000f0: 1ad0 bf3e 378c 363c 2b4d 353f a6a1 3a3f
00000100: 6e38 373e 46bb ba3e 18e6 e33e 7d30 223e
00000110: 7503 683e 3774 1f3f bf55 663e 67c9 a53e
00000120: d381 903d 9905 883e 4411 c33e f1e3 e13e
00000130: 5eb5 d63e 022a d23d a81f eb3e 80e8 e53e

classify.weight f4 [7, 20]
0.053254258 -0.2181031 0.15484348 0.7132843 0.23159595 -0.20698847 0.2015631 0.0073520504
0.4093596 -0.115431026 -0.33685532 0.16170758 0.3095684 0.021258345 0.32946667 0.3276434
-0.30616432 -0.06854596 -0.53046644 0.056298114 0.20659141 0.1611568 -0.22589183 0.5432568
-0.078610644 0.005537134 0.25201192 0.16358872 0.338159 -0.7640344 -0.17790759 0.08867243
0.44962704 0.0795839 -0.22122331 0.33587527 -0.51449364 0.22540489 0.002602437 0.5381848
-0.03822777 0.19092385 -0.61236364 0.032792885 0.05319635 0.1367466 0.031306773 0.09045095
0.1704517 -0.7184603 0.7687528 -0.40432242 0.3868826 0.024794333 -0.41262665 0.25088263
-0.3691283 0.32663247 -0.17354988 0.57885176 -0.5410582 0.104741216 -0.6724119 -0.5328155
0.24135272 0.44314045 -0.24423204 0.07717847 0.16649227 0.101521395 0.4417438 -0.34816995
-0.05902869 -0.049236298 -0.53772247 0.39426073 0.10307978 0.40145996 -0.38442475 0.31883255
-0.23691274 0.33724844 -0.74062705 -0.5227434 -0.5500028 0.4918939 -0.3167913 0.19021876
0.2860789 0.4666429 -0.07015334 -0.353678 0.058588732 -0.3393296 -0.02114759 0.041347113
0.25380218 0.3724038 -0.059173264 -0.28057575 -0.11696451 0.46663344 0.8351785 -0.29264975
-0.4767577 0.108959354 -0.3154199 0.327535 0.23935182 0.22797124 -0.20536338 -0.21737051
0.32305822 -0.6682453 -0.5738928 -0.42719367 -0.010426187 0.20471905 0.16934152 -0.2610735
0.25136888 -0.22494256 0.2830266 -0.43709624 0.34326938 -0.24998868 0.34910446 -0.36564165
-0.3264508 -0.10694908 0.044795036 0.27239525 -0.44582695 0.30090493 0.22857812 -0.3196494
0.37684122 -0.37494323 0.39296246 -0.35432118
00000000: 2321 5a3d 6b56 5fbe 4a8f 1e3e cd99 363f
00000010: 7d27 6d3e c9f4 53be 8f66 4e3e 78e9 f03b
00000020: 9597 d13e 1a67 ecbd 4d78 acbe ac96 253e
00000030: c07f 9e3e fb25 ae3c dbaf a83e e0c0 a73e
00000040: 92c1 9cbe d361 8cbd a6cc 07bf da98 663d
00000050: b38c 533e 4a06 253e 3050 67be e112 0b3f
00000060: 9efe a0bd d970 b53b b507 813e cd83 273e
00000070: 2d23 ad3e c297 43bf 682d 36be e499 b53d
00000080: 8435 e63e e2fc a23d 5d88 62be d8f7 ab3e
00000090: dbb5 03bf 8ad0 663e a68d 2a3b 7bc6 093f
000000a0: b994 1cbd 8b81 433e ddc3 1cbf d551 063d
000000b0: 6ae4 593d 4d07 0c3e 883b 003d 593e b93d
000000c0: e48a 2e3e 04ed 37bf fccc 443f 5903 cfbe
000000d0: 7a15 c63e 7c1d cb3c cd43 d3be b073 803e
000000e0: 62fe bcbe 5f3c a73e 0fb7 31be a12f 143f
000000f0: ca82 0abf 9082 d63d 3023 2cbf 9966 08bf
00000100: 2b25 773e 4ee3 e23e f717 7abe bf0f 9e3d
00000110: f37c 2a3e 73ea cf3d 3e2c e23e 5543 b2be
00000120: 11c8 71bd 00ac 49bd 2ea8 09bf 8bdc c93e
00000130: 7e1b d33d 298c cd3e 52d3 c4be 053e a33e
00000140: 4199 72be d4ab ac3e bc99 3dbf 83d2 05bf
00000150: fccc 0cbf 84d9 fb3e 7832 a2be b5c8 423e
00000160: ef78 923e d1eb ee3e 8eac 8fbd 4815 b5be
00000170: bdfa 6f3d 9cbc adbe b63d adbc 975b 293d
00000180: 5cf2 813e b6ab be3e aa5f 72bd a0a7 8fbe
00000190: 178b efbd 94ea ee3e 42ce 553f 30d6 95be
000001a0: 9619 f4be 1526 df3d b87e a1be abb2 a73e
000001b0: a518 753e 4b71 693e c74a 52be 6096 5ebe
000001c0: e367 a53e 2012 2bbf a3ea 12bf 21b9 dabe
000001d0: 99d2 2abc dfa1 513e dd67 2d3e 6dab 85be
000001e0: 6cb3 803e 5857 66be dde8 903e 14cb dfbe
000001f0: 01c1 af3e 08fd 7fbe d2bd b23e 6235 bbbe
00000200: 8f24 a7be 1f08 dbbd 007b 373d 6477 8b3e
00000210: 6e43 e4be 3610 9a3e 6210 6a3e 16a9 a3be
00000220: 55f1 c03e 8ff8 bfbe 6032 c93e 9669 b5be

classify.bias f4 [7]
-0.13233386 0.027071396 -0.093512625 -0.1567733 -0.13549069 -0.3112622 0.18362248
00000000: 8782 07be d5c4 dd3c 8c83 bfbd 2e89 20be
00000010: 12be 0abe c25d 9fbe 8807 3c3e
