罗小强/week03/model.pth (torch, 4486 bytes, 3 tensors)

embedding.weight f4 [28, 20]
00000000: 0000 0000 0000 0000 0000 0000 0000 0000
00000010: 0000 0000 0000 0000 0000 0000 0000 0000
00000020: 0000 0000 0000 0000 0000 0000 0000 0000
00000030: 0000 0000 0000 0000 0000 0000 0000 0000
00000040: 0000 0000 0000 0000 0000 0000 0000 0000
00000050: cdd3 0d3e 62a3 513e 36bf be3c 1835 913f
00000060: 79e7 993f eb2a cebf 4baf c93e 9fb1 0fbf
00000070: f7f7 b93e 593f 5f3f 47a4 fd3d 4a45 8d3f
00000080: 8ec3 b63c e640 303f b2c2 e23f 46d4 57bd
00000090: 52d8 413f f8ee f8bf 59b4 8dbf 93fe 5fbf
000000a0: e658 87be 80ba 9bbf bf95 363f 3fda a7be
000000b0: 2c16 153f 527c 34bf ea4c c53d e1f4 05be
000000c0: d92d 533f 51fb b9bf 2cf7 4cbf 5d2e 72be
000000d0: 1fae 233f 6958 39bf 5204 a1bf ba4e d83d
000000e0: a011 49bf 444b e73d 85fd be3f f190 e03f
000000f0: 890c 623e 4805 d6bd ecdc 73bf 783d 04bf
00000100: 508d 84be cd06 ae3e e2b1 0dbf a8a9 803f
00000110: a8b3 3abf c86d a63e 0486 67bf 0f85 7b3f
00000120: 14f6 aebe 209e 0b3e e261 f2be e5d5 ce3e
00000130: 2191 31c0 1f18 0d3f 2025 f83f 617c 16bf
00000140: 8b76 3fbf 5bd1 263d 457b db3e 3614 053f
00000150: fbfa 2dbf 3e2d ff3f b708 b43f cc0e fd3d
00000160: 0c9d 51bf a26a ae3f 0c38 7fbf bbbe bb3f
00000170: 8524 4f3f 3db7 0fbf 67e1 8c3e cafa 523f
00000180: 2d7d 3a3f 3786 b5bf e25b e8bf f534 7fbf
00000190: ceb8 1140 c237 12be c98e 1ec0 4cac 683f
000001a0: 1a51 56be 2f25 0e40 fb7c 0d3f 0ee2 00be
000001b0: 1cde 293f bec6 44bf 7677 d0bd 4ee6 fbbe
000001c0: fa4b d83e 9236 7f3f 4dbf 283d 6a13 0540
000001d0: 86ab 733e cb83 b2bf 01b7 cabe b065 be3f
000001e0: 5c28 723f cb86 423f e134 85bf 47bb b3bf
000001f0: 7176 4d3e 063c a03f 51c6 7b3e 1403 5dbf
00000200: b7fe c2be 0beb a2be 8a54 abbd 7cc5 2e3f
00000210: 25ce 81bf 7a10 71bf 4e01 d0bf 1c8f 7bbe
00000220: 0577 57bf 52c0 bcbe 57c1 3cbf bf81 663f
00000230: 3636 0040 77d7 d33f 80c6 06bf ed3e c43f
00000240: e837 893f 535f be3f 1818 003d ffea 0d40
00000250: 41a9 813f 1460 50be 0cd5 0440 e817 0840
00000260: 7526 5b3e 7601 47be f29a 3a3e 58a4 37bf
00000270: 0762 6c3f 2821 e73f 088e 8c3f 2cb0 16c0
00000280: 306b af3f 10c7 54be 2139 063e 1ffb f5bf
00000290: 7cda 58bf faca 893f d3d6 67bf 2b5f 45bf
000002a0: 6c77 1cbf ba3f 1fbe 525c 813f 056a 3cbf
000002b0: 23ce 363f 3487 423f 571d dcbe 506d 54bf
000002c0: 50b0 c6bf 6e2a 0bbf c28b 9f3d bba8 5f3f
000002d0: fefc a13e f385 fe3f 8b10 ed3f ffdd 7cbf
000002e0: 9484 20bf be76 883e 689a abbe a33b d53e
000002f0: d4df 3b40 823a 803f 1b11 8ebe ae59 1b3e
00000300: bd19 853f 342d cdbd c650 01bf 48e9 82bf
00000310: 14b6 14bf a335 90be 04a2 983e b989 1bbe
00000320: f941 be3f 3f06 cabf 541e 09c0 8dce 5940
00000330: 31e8 373f be35 8d3f de67 53be 01e2 a83e
00000340: 810f 30bf 3c3a a93e e361 083e d0e5 7e3e
00000350: 8a4e 75bf e5a3 423f 738f 50bf 5711 f03e
00000360: 0576 3bbf b839 80be d828 6abe ad9f 8cbf
00000370: cfad 7d3d 2543 ddbe 8391 333f 1470 56bf
00000380: 81b2 5d3e b977 763f bc71 1bbf c63b 72bf
00000390: 5c50 1440 b2ea 82bf a9ca 5fbe c1ab 973f
000003a0: 9a57 533e 8591 693f 7054 68bf 10f9 26bd
000003b0: b148 bd3f bba3 863e 075a 8dbf 7255 443f
000003c0: f4cb bdbd 8544 9dbf 8313 b2bf 1d01 82bf
000003d0: 10e9 1dbe 0008 823f 9946 8abf 6398 25bf
000003e0: df38 443f 20d7 8abe 7b12 423f 8db3 453e
000003f0: 6665 153f 6c23 b83e cc44 a8be 60d9 603e
0.0 0.0 0.0 0.0 0.0 0.0 0.0 0.0
0.0 0.0 0.0 0.0 0.0 0.0 0.0 0.0
0.0 0.0 0.0 0.0 0.13850327 0.20472482 0.023284536 1.1344328
1.2023765 -1.6106848 0.3939155 -0.56130403 0.36321995 0.87206036 0.12384849 1.103677
0.022310045 0.6884903 1.7715666 -0.052692674 0.75720704 -1.9447927 -1.1070663 -0.87497824
-0.26435012 -1.216629 0.71322244 -0.32783696 0.58236957 -0.705022 0.09633811 -0.13081695
0.8249183 -1.4529821 -0.80064654 -0.23650499 0.6393756 -0.7240053 -1.2579443 0.10561891
-0.7854252 0.11293653 1.4921118 1.7544233 0.22075094 -0.10450226 -0.95258975 -0.51656294
-0.25889063 0.33989564 -0.5534955 1.0051775 -0.72930384 0.3250563 -0.90438867 0.98249906
-0.34172118 0.13634539 -0.47340304 0.40397564 -2.774483 0.5511493 1.938633 -0.5878354
-0.7479026 0.040727 0.42867485 0.51983964 -0.6796109 1.9935682 1.406516 0.12356338
-0.8188026 1.3626292 -0.99694896 1.4667581 0.809151 -0.56138974 0.27515718 0.82413924
0.72847253 -1.4181584 -1.815304 -0.9969018 2.2769046 -0.14279082 -2.477465 0.90887904
-0.20929375 2.2210195 0.5526883 -0.12586233 0.66354537 -0.76865757 -0.10179035 -0.49199146
0.42245466 0.9969264 0.041198064 2.07931 0.237959 -1.394647 -0.39592746 1.4874783
0.94592834 0.7598693 -1.0406762 -1.4041528 0.20064713 1.2518318 0.2458737 -0.8633282
-0.38084957 -0.3181995 -0.08365734 0.6827009 -1.0141035 -0.94165766 -1.6250398 -0.2456631
-0.84165984 -0.3686548 -0.73732513 0.90041727 2.0033088 1.655013 -0.52646637 1.5331703
1.0720186 1.4872841 0.031272978 2.217468 1.0129777 -0.20349151 2.0755033 2.1264591
0.21401389 -0.19434151 0.1822317 -0.71735144 0.9233708 1.8056993 1.0980844 -2.3545027
1.3704586 -0.20779061 0.1310773 -1.9217261 -0.8470838 1.0765069 -0.9056217 -0.7709834
-0.61119723 -0.15551654 1.0106299 -0.7359927 0.7140829 0.75987554 -0.42991135 -0.829793
-1.5522556 -0.5436162 0.077903286 0.8736684 0.3163833 1.9884628 1.8520674 -0.9877624
-0.627023 0.26653093 -0.3351624 0.41647062 2.9355364 1.0017855 -0.27747425 0.15170929
1.039848 -0.100183874 -0.50513875 -1.0227442 -0.5809033 -0.28165922 0.29811108 -0.15189256
1.4863883 -1.5783156 -2.142476 3.4032319 0.7183867 1.1032026 -0.20645091 0.32984927
-0.6877366 0.33052242 0.13318591 0.24892354 -0.95822966 0.76031333 -0.81468886 0.4688823
-0.7322696 -0.25044036 -0.22867143 -1.0986229 0.061933335 -0.4321529 0.7014391 -0.8376477
0.21650125 0.9627643 -0.6072042 -0.9462246 2.3174047 -1.0227873 -0.21854652 1.184929
0.20638886 0.9123767 -0.9075384 -0.04076487 1.4787809 0.2629679 -1.1043099 0.7669288
-0.092674166 -1.2286536 -1.3912205 -1.015659 -0.15420938 1.0158691 -1.0802795 -0.6468565
0.7664928 -0.27117252 0.7580945 0.19306774 0.58357847 0.35964525 -0.32864988 0.21957922

classify.weight f4 [6, 20]
00000000: 7246 273e 27f1 91bd a480 f93d 4654 0dbd
00000010: 6b2b a2bd bacc 5fbd 5145 8abc bde7 273e
00000020: e331 9a3d 6750 123e d6ec 3bbd 45a3 6b3d
00000030: 20aa 6cbe a7e8 dcbd bec2 c83d e9bf b73d
00000040: 4f6f 47be b542 6a3d 8b14 33be 72d2 5b3d
00000050: 7c9e dcbc 6871 3c3d 7c43 423d 02f0 53bd
00000060: 5112 0bbd 4169 033d 8668 bd3d fc73 12bd
00000070: 870b e8bd 3903 11bc fd3b 88bd f4bd a8bd
00000080: 677d e2bd 777f 89bd bd35 43be 29ba 67bd
00000090: 9fbd 413e 4cf7 fa3d 7e70 693d 0ecb a53d
000000a0: 1685 cc3d 4d18 16bd fdb2 dd3d 2134 283c
000000b0: b4b8 59be 5334 02be c6fd 0ebe a09d 92bd
000000c0: 2d0a d3bc 6a8d 403c 434e 75bd 2206 54bd
000000d0: 442d 08be caf0 013e d822 4fbe 5f20 a4bd
000000e0: e1c8 c93d 8c0b bfbd cc4d d0bb e08d 043d
000000f0: 61b8 313d 3bc8 1a3d b7bf 9d3d 5e4a 14bc
00000100: d0e6 0d3b 8760 27be 3c04 563d f692 fe3d
00000110: ada8 82bd 68bd 6ebd c34f 813d a6ef f1bd
00000120: 23d3 b7bd bfdf f13d 1fa3 b7bd c3d8 393e
00000130: 877e 413c b0e1 793d d15e 8bbd 18e6 ddbc
00000140: 0559 df3c cd8c 5abc 0ee3 3bbb 48b8 25bd
00000150: 261d 953c 0863 893d c8e0 813d db59 51bb
00000160: 0522 cf3c 7cc0 253e 5649 9f3d b4e9 51bc
00000170: fc31 de3b 347b c3bd 7601 84bd 21fe 5abd
00000180: 14ce 093e 136b 83bd dabf 363e 49b6 833d
00000190: 1d17 033e 5600 64bd d35a 273c b69c 9abd
000001a0: e02f 17be 4a77 18bd 2aa7 af3d 1fce 4e3e
000001b0: e215 00bd 8af5 413d e1c3 db3d 6e3e 983d
000001c0: 9f3a c0bd f592 14be 5fb2 0a3e 6cc7 8cbc
000001d0: 4052 7d3d 8d71 963d bf0e 0bbe 1fd2 813d
0.16335467 -0.07126074 0.121827394 -0.034504198 -0.079184376 -0.0546386 -0.016878756 0.16396995
0.075290464 0.14288484 -0.04588016 0.057528753 -0.23111773 -0.107865624 0.09802769 0.08972151
-0.19476055 0.057192523 -0.17488305 0.053667493 -0.02693104 0.04600659 0.04742764 -0.05174256
-0.033953015 0.0320828 0.09248452 -0.035755143 -0.11330324 -0.008850866 -0.06652067 -0.08239356
-0.11059075 -0.06713765 -0.19063468 -0.05657402 0.18919991 0.122541994 0.056992047 0.0809537
0.09986322 -0.03664427 0.10825155 0.010266335 -0.21261865 -0.12715273 -0.13963994 -0.07158971
-0.025761688 0.011752466 -0.05988909 -0.05176366 -0.13298517 0.1268951 -0.20228136 -0.08013987
0.09852768 -0.09328374 -0.0063569304 0.032361865 0.043388728 0.03778861 0.07702582 -0.009050934
0.0021652468 -0.16345416 0.052250132 0.12430374 -0.063798286 -0.0582861 0.063140415 -0.118132874
-0.08975818 0.11810254 -0.0896666 0.18149094 0.011809952 0.061006248 -0.06805194 -0.027087256
0.027264128 -0.013339234 -0.002866927 -0.040458947 0.018202376 0.06708342 0.06341702 -0.0031944427
0.025284776 0.16186708 0.077776596 -0.012812067 0.006780861 -0.095449835 -0.06445591 -0.053465012
0.13457519 -0.06416907 0.17846623 0.064312525 0.12801786 -0.055664383 0.010214525 -0.075494215
-0.14764357 -0.037223138 0.08576806 0.20195816 -0.03127087 0.047353305 0.1073072 0.074337825
-0.09386181 -0.14509185 0.13544606 -0.017184936 0.061846018 0.07345877 -0.13579844 0.063389055

classify.bias f4 [6]
00000000: 60ad 133e 986c fb3d 8f85 933d fe26 ed3d
00000010: 724a 033d 2a5f c33d
0.14421606 0.12276572 0.07203209 0.11579703 0.03205342 0.095396355
