杨帅/work03/model.pth (torch, 8186 bytes, 5 tensors)

embedding.weight f4 [28, 20]
000000 00 00 00 00 00 00 00 00 00 00 00 00 00 00 00 00
       0.0 0.0 0.0 0.0
000010 00 00 00 00 00 00 00 00 00 00 00 00 00 00 00 00
       0.0 0.0 0.0 0.0
000020 00 00 00 00 00 00 00 00 00 00 00 00 00 00 00 00
       0.0 0.0 0.0 0.0
000030 00 00 00 00 00 00 00 00 00 00 00 00 00 00 00 00
       0.0 0.0 0.0 0.0
000040 00 00 00 00 00 00 00 00 00 00 00 00 00 00 00 00
       0.0 0.0 0.0 0.0
000050 57 04 13 bf 5c 3e a7 3e 51 40 0b bc 67 f1 0f c0
       -0.574285 0.32664764 -0.008499221 -2.249109
000060 95 a5 60 3f eb 25 c0 3f 7f f4 9c 3f 67 b2 aa bf
       0.8775266 1.5011572 1.2262114 -1.3335694
000070 3b f7 9a bf 86 f2 aa 3f ac 25 35 3f a2 73 82 3f
       -1.2106699 1.3355262 0.7076061 1.0191538
000080 2a 61 62 3e 9c bd 9d bf 28 a9 ef bf 8f c2 68 3f
       0.22107378 -1.2323489 -1.8723497 0.9092187
000090 c6 22 40 bf b7 29 37 3e 1b 83 f7 be c2 ce 77 be
       -0.7505306 0.17887007 -0.48342213 -0.24199966
0000a0 47 63 b5 bf af 52 17 bf 7f f6 05 bf 3c 5d 97 3e
       -1.4170922 -0.5911054 -0.5232925 0.2956332
0000b0 ba 88 b2 3e 6d f9 0c bf 99 bf f8 bf 86 6a 8d 3e
       0.3486994 -0.55068094 -1.9433471 0.27620333
0000c0 ea b4 0c be 4b 96 ba bb ef 8e c3 be ee 87 03 3e
       -0.13740888 -0.005694186 -0.38194987 0.12844822
0000d0 8e d0 94 3f 8c 54 69 bf 5a 16 f0 3f c6 07 38 be
       1.1626146 -0.91144633 1.8756821 -0.17971715
0000e0 82 d1 82 be c7 cb 9c bf cd 21 cc be 01 a9 bd 3e
       -0.25550467 -1.2249688 -0.39869538 0.37043002
0000f0 dc b4 fb 3e 0d 7c e8 3e 64 de 5d 3f a8 9e ff 3e
       0.49161422 0.45407143 0.86667466 0.49925733
000100 92 ff 54 bf 0f d4 71 3f 1e ea 95 be 52 87 61 bc
       -0.8320247 0.944642 -0.2928018 -0.013765173
000110 a7 3d a2 3e ad 7e 45 bc 47 da ad 3e 1a 2b 6b 3f
       0.31687662 -0.012054128 0.33955595 0.9186264
000120 30 d3 2f c0 9d 94 80 bf b7 2c 8c be 30 a9 16 bf
       -2.7472649 -1.0045353 -0.27377865 -0.5885191
000130 16 47 3f 3f 22 cb 31 bf 6d 42 86 3d 75 63 6d 3e
       0.74717844 -0.6945058 0.065556385 0.23182471
000140 f2 f0 82 3f 89 25 56 3e 35 43 53 bf 0f 3e 65 bf
       1.0229781 0.20912756 -0.82524425 -0.8954782
000150 79 e7 26 bf 3c f9 de bf e8 9f 82 3f b0 c2 03 40
       -0.6519695 -1.741981 1.020505 2.0587578
000160 4a 5b d4 3f 16 fc 5e 3f df 34 1b 40 71 15 5f 3f
       1.6590359 0.871034 2.425102 0.8714209
000170 b6 2b b7 3f 22 17 0d 3f 8c 5a c6 bd d3 ba b4 3f
       1.4310215 0.5511342 -0.09685239 1.4119514
000180 1b 93 56 bf 23 32 da be c2 1c 74 bf 8a d0 08 bf
       -0.83818215 -0.42616376 -0.9535638 -0.53443205
000190 c6 e6 a8 3d e8 ab df 3d 3a 42 64 3f 97 c7 07 40
       0.082471415 0.109214604 0.89163554 2.121557
0001a0 f0 a1 15 bf 0d 1a d7 3f eb 5b 91 be 84 54 2d bf
       -0.5845022 1.6804825 -0.2839044 -0.67707086
0001b0 65 1b d7 3f d5 4b 01 3e be b3 aa 3c 86 da d9 3e
       1.6805235 0.12626584 0.02083766 0.42549533
0001c0 b1 2e 30 3e 5f 98 83 3f cd f8 d8 be 55 c5 64 3f
       0.17205311 1.0280875 -0.4237732 0.89363605
0001d0 fe c7 25 bf d1 65 87 3f 6b 3a da bf 77 7f ac 3e
       -0.6475829 1.0577947 -1.7049078 0.33690998
0001e0 19 e5 a1 be fd 38 a6 be 81 0f 86 3f d6 3e 85 be
       -0.316201 -0.32465354 1.0473481 -0.26024503
0001f0 66 27 a4 bf 41 bb 21 bf 8f 15 41 3f 8f 8d 85 3f
       -1.2824523 -0.6317635 0.7542352 1.0433825
000200 e0 c8 1a be d8 7d d7 3f b9 ce bf bf 43 83 62 bf
       -0.1511569 1.683528 -1.4984962 -0.8848154
000210 b7 3c 2a bf 7e 9c 4a 3f 52 7f ce be f3 ee dc be
       -0.66498893 0.7914504 -0.40331513 -0.43151054
000220 8d 8e 10 40 5b 33 68 be fa 8f 1a 3f cc 18 65 bf
       2.2587006 -0.2267584 0.6037594 -0.8949096
000230 3f 94 d7 3e dd d9 30 3f 8f 83 8a be ab ed 99 bf
       0.4210529 0.69082433 -0.27053496 -1.2025656
000240 0e 21 ee be 3a fe 96 3f 1a c1 6e be 09 30 d4 3f
       -0.46509594 1.1796334 -0.2331585 1.6577159
000250 2e 9b 0c bf e7 ea 5c 3e d6 b6 af bf a6 2f fe bf
       -0.54924285 0.21573983 -1.3727672 -1.9858291
000260 26 16 0c 3f ae d3 2e 3f 0c 6c 6a 3e 13 0e 84 bf
       0.54721296 0.6829175 0.22892779 -1.0316795
000270 bc e0 c0 bf 80 a9 66 bf 5e e0 c1 bf 26 92 ad 3f
       -1.5068583 -0.90102386 -1.5146596 1.3560226
000280 57 7e 0c 3f 93 9b 94 be 6e 7e 8b bf 4b 21 a3 be
       0.5488028 -0.29024944 -1.0897958 -0.31861338
000290 2e 4d 18 3f 47 f4 24 3f 06 98 d3 be 96 bd 86 bf
       0.59492767 0.6443524 -0.41326922 -1.0526607
0002a0 24 b3 67 3f 13 11 2f 3e 7f 11 8d 3e 05 82 34 3f
       0.9050772 0.17096357 0.2755241 0.70510894
0002b0 b6 4d 29 3f 4f 59 c4 3e fe 9c a8 3f ca 02 27 bf
       0.661342 0.38349387 1.317291 -0.6523863
0002c0 cd be b0 bd 10 e7 0d c0 3c 38 15 bd 6b 0a 0b bf
       -0.08630142 -2.217228 -0.036430582 -0.5431277
0002d0 45 a2 d5 3c 1a 40 bf bf 88 9b 96 bf ad 9d 84 3e
       0.026078353 -1.4941437 -1.1766214 0.25901547
0002e0 c8 65 89 bf c9 c6 9c 3f 2f 1b 06 bf 9a c1 98 3e
       -1.0734186 1.2248164 -0.5238523 0.29835206
0002f0 a6 42 d9 3d ca a8 46 3f b0 2c 71 bf f4 97 a1 3f
       0.10608415 0.776013 -0.9420881 1.2624497
000300 c6 45 0a bf aa b1 96 3f 72 20 e5 be 4b ba 86 3f
       -0.54012716 1.1772969 -0.44751316 1.0525602
000310 b8 c8 ac 3f b9 f6 de 3e 1d b6 04 3f 77 81 3a 3f
       1.3498755 0.4354761 0.5184038 0.728538
000320 b2 12 45 3e d1 9c 5a bf 86 2d 9a 3f a4 6c 50 bd
       0.19245413 -0.8539553 1.2045143 -0.050884858
000330 9b 3f a1 bf 10 72 22 bf bc 2c d4 3f ad 4f 08 3f
       -1.2597536 -0.63455296 1.6576152 0.53246576
000340 7a b8 96 3e 1a 67 35 3f 25 03 5d bd 28 20 be bf
       0.2943762 0.70860445 -0.053958077 -1.4853563
000350 bc 67 e3 bf 1c 49 d0 3c a0 29 5c bf 60 9a c8 3e
       -1.7766032 0.025425486 -0.86001015 0.3918028
000360 dd f2 3f bf 30 57 be 3f 35 9b 97 3f b9 36 25 bd
       -0.74979955 1.4870358 1.184424 -0.04033539
000370 0d a3 5f be 86 02 72 3f 59 45 db bf 23 ae 00 3f
       -0.21839543 0.945351 -1.7130538 0.5026571
000380 9e 9d da 3e 73 f4 e4 bf f8 90 ae 3e df b1 6e 3f
       0.42698377 -1.78871 0.34094977 0.9324016
000390 2e a2 38 be ff 98 29 bf a0 24 66 3f 3b 4b 9c bf
       -0.18030617 -0.6624908 0.89899635 -1.2210459
0003a0 29 1c c9 bf fd 64 80 bf 2c 75 a8 bf 2a 0f 88 bf
       -1.5711719 -1.0030819 -1.3160758 -1.0629628
0003b0 2c cf 98 bf 46 1c 24 bd dc 9c 06 be 78 b2 b8 3e
       -1.1938224 -0.040066026 -0.13145775 0.3607366
0003c0 a4 05 2d 3e 9e 0c e7 bf 81 ba f8 bf b2 b8 26 3e
       0.16896683 -1.8050725 -1.9431916 0.16281393
0003d0 d9 f7 b1 3e 84 57 96 3f 80 75 7e 3c ee 9a 6b bf
       0.34759405 1.1745458 0.015530944 -0.9203328
0003e0 02 a8 0c bf 97 67 13 c0 55 df 0f 3f 5e 4e 22 bf
       -0.5494386 -2.3031976 0.5620015 -0.6340083
0003f0 97 ca b0 bf f1 6f 95 3f 6f 38 cb bf 93 5c a9 bf
       -1.3811826 1.1674787 -1.5876597 -1.3231376

layer.weight_ih_l0 f4 [20, 20]
000000 79 d3 fd bd c8 5e 94 bc ae 26 58 3c 0f a7 b2 be
       -0.12393851 -0.018111601 0.013192816 -0.3489308
000010 df f8 12 bc 31 6b 1b bd e8 01 77 3e ed 5e 76 be
       -0.008970468 -0.037944023 0.24121821 -0.24059649
000020 61 03 b0 be 0b fc 80 3e 5b 48 16 be 7b 21 06 3e
       -0.34377578 0.25192294 -0.14676039 0.1309871
000030 41 0b d1 3d 5f 4e 7c bd 46 87 dd be 5a bd 93 3e
       0.10207225 -0.061598178 -0.43267268 0.288554
000040 a3 b9 e5 3d c8 96 01 be 4e 4a 76 be 47 94 3f be
       0.11217048 -0.12655175 -0.24051782 -0.18708907
000050 b2 8d b2 3d c6 04 a1 3d b4 07 d5 bd f8 bc 9e bd
       0.087184325 0.078622386 -0.1040186 -0.07750887
000060 de 8c 8e 3d 37 a3 62 3d a4 5f b2 3b c2 77 ba bd
       0.06960462 0.055331435 0.00544353 -0.09104873
000070 83 39 c6 3c 70 7d de bb c5 65 2c be 3d a1 89 3d
       0.024197346 -0.0067898557 -0.16835697 0.06720207
000080 42 06 2f 3d f5 8d 94 bd b3 5d bf bb 4e 8e ab bc
       0.042730577 -0.07253639 -0.0058400272 -0.02094188
000090 d8 60 20 be 6c b5 dc 3d ba 5d 3a 3e bc ef ad bd
       -0.15661943 0.10776791 0.18199816 -0.08492991
0000a0 61 a4 3d be c7 6f 41 bd b6 a6 40 bc b4 64 16 be
       -0.18519737 -0.04722574 -0.011758497 -0.14686853
0000b0 2a 70 53 bc 3b 1f ea bd 58 90 0b be cb 5b 84 bc
       -0.01290516 -0.11431738 -0.13629282 -0.016157052
0000c0 3f 51 d0 bc 71 5f 9c bc fa 4b c8 bc cb 93 4a 3d
       -0.025429366 -0.019088479 -0.024450291 0.049457353
0000d0 1a 91 1e 3d 49 5d a7 bd 62 fc ba 3c 96 f5 0d 3b
       0.0387126 -0.081720896 0.022825424 0.0021661273
0000e0 8c 47 04 3e 5b 48 05 3d 87 43 2d bd 35 f1 0c 3c
       0.12917918 0.032539707 -0.042300727 0.00860243
0000f0 bd 28 88 3d 08 36 a4 3d 92 1a 26 bb 02 84 0c 3d
       0.06648395 0.08018118 -0.0025345427 0.03430558
000100 e0 bd 1b 3e a0 a7 fa bc 84 36 ca bc f9 dc 5b bd
       0.1520915 -0.030597508 -0.024684198 -0.053677533
000110 21 a0 66 3d d8 9c 30 be 40 db 18 bc 6e 8b 81 ba
       0.056305055 -0.17247331 -0.009329617 -0.0009883472
000120 33 ec 47 bd 32 b1 ea bb f5 9e 45 bd 5c ed 24 3e
       -0.04880924 -0.0071622366 -0.048247296 0.1610617
000130 eb 0c 17 bc 8d 38 34 3e b3 9a 4c be 31 f1 e4 bd
       -0.0092193885 0.17599697 -0.19980888 -0.11178816
000140 83 9a 14 3e 21 c7 07 3e b7 e9 0a be 3d e9 93 3d
       0.14512067 0.13259555 -0.13565718 0.07222221
000150 18 4e fe bd 5a 30 dc 3a b9 7e fd bc 11 01 b9 bc
       -0.12417239 0.0016799078 -0.030944215 -0.022583516
000160 0e 90 31 3e 30 69 7b 3d 01 1c 8b bd ae 1a 3d 3d
       0.17340109 0.06137961 -0.06792451 0.04616802
000170 c8 30 95 bd 41 52 09 3d 6d 06 5f 3d 64 f5 36 bd
       -0.07284695 0.03352571 0.054449487 -0.044667616
000180 32 94 a8 bd f5 96 91 bd 9b ba a9 3d 20 64 7d 3c
       -0.08231391 -0.07108871 0.08287545 0.015465766
000190 91 6e 69 bd 9b b6 81 bd af 20 5b 3d f7 68 a8 3d
       -0.05699021 -0.06333657 0.053497966 0.082231455
0001a0 71 10 69 3b ab c5 31 3d 5f 3e 0d 3e 54 a5 88 3c
       0.0035562778 0.0434014 0.13793324 0.016680397
0001b0 b2 58 8f be 1b 36 82 bd c6 27 28 3e 6f 01 d1 bc
       -0.27997357 -0.06357976 0.16421422 -0.025513379
0001c0 05 0f 6a 3d 7c b1 a6 bc 26 99 44 3d 95 d5 1a 3e
       0.05714323 -0.020348303 0.047997616 0.15120538
0001d0 b7 e7 16 3e c2 cb 08 be 82 0a 8f be 0a 15 4f bd
       0.1473683 -0.13358977 -0.27937704 -0.050557174
0001e0 b5 13 ad be 62 af 58 3d b9 14 cd 3c 45 82 85 be
       -0.33804098 0.052901633 0.025034295 -0.2607595
0001f0 33 7f 99 3e 6e c8 0d 3d d3 cc 82 3e b0 be 62 be
       0.29979858 0.034614973 0.25546893 -0.22143054
000200 f3 79 71 bd c5 e8 74 3d 0e 22 22 bc 07 58 ee 3d
       -0.05895419 0.0597923 -0.009895815 0.11637884
000210 64 1a 21 3e e0 3d 25 be 5e e4 c4 bd a7 ac 8f 3d
       0.15732723 -0.16136885 -0.0961387 0.07015353
000220 50 73 d1 3d 44 81 98 3d 55 33 96 bd 01 0f 21 3e
       0.10227072 0.074465305 -0.073340096 0.1572838
000230 aa 58 96 be 9b 4e 56 3e d3 9d 8a bc 30 ef 9c be
       -0.2936452 0.20928423 -0.01692096 -0.30651236
000240 c5 25 2b 3d ae b0 e1 3c fe 63 26 3e 62 0c cb be
       0.041784067 0.027550068 0.16249081 -0.39657885
000250 60 b2 bb be 56 aa 27 3d 71 62 34 3e 4d 93 e3 3c
       -0.36659527 0.04093393 0.17615677 0.0277802
000260 12 c5 fd 3d c1 b0 22 be a1 1f 66 be f6 a3 85 3e
       0.12391104 -0.15887739 -0.22473003 0.26101655
000270 ac 71 53 3d 49 89 fe bc ea eb 87 3c 01 f9 d9 3d
       0.051622078 -0.031071322 0.016591985 0.10643197
000280 3a 98 16 be d2 34 0f bd 26 8d eb 3d df 93 87 be
       -0.14706507 -0.034962483 0.11501531 -0.26480004
000290 67 87 4c 3e a1 05 ed bd 2b fd 99 3d aa f0 d1 be
       0.19973527 -0.11573339 0.07518991 -0.41003925
0002a0 dc 3b 37 be 88 a3 78 3d a1 f2 56 bd 31 78 f1 3d
       -0.17893928 0.06070283 -0.052477483 0.11790503
0002b0 18 ec 3a 39 d0 07 14 bd 71 83 ee bd c4 c4 3f 3c
       0.00017826294 -0.036140263 -0.11646164 0.011704627
0002c0 75 90 93 3c c2 c2 71 3e f4 f8 94 be 9c 83 bd bd
       0.018013218 0.2360945 -0.29096186 -0.09253618
0002d0 0e bf 71 3d 6a d8 30 3d 74 ff 33 3d 85 fe 08 3e
       0.059020095 0.04317514 0.04394479 0.13378341
0002e0 4c 73 65 3d a7 a8 90 bd 2c 29 35 3e 93 c6 f5 bd
       0.05601816 -0.07063418 0.17691487 -0.12000766
0002f0 e3 25 3d be 42 52 69 bd 6f b1 a3 3d 29 6c 96 3d
       -0.18471484 -0.056963213 0.07992827 0.07344849
000300 01 b5 0d 3d f3 27 4a 3e fe f3 be bd 36 86 b0 bc
       0.034596447 0.19741802 -0.093238816 -0.021548372
000310 91 cb 7a 3c 13 ec d9 bd c6 7d ba bd c1 27 d9 3d
       0.015307323 -0.10640731 -0.09106021 0.106032856
000320 9a c3 49 3e 24 9f 13 3c 8d 64 59 3a 15 d4 bc 3d
       0.19703522 0.00901011 0.00082928763 0.09220139
000330 89 73 ae bd ae f4 be 3c 0b 3a 1f be be 64 61 3e
       -0.0851813 0.023310032 -0.15549485 0.22011086
000340 6f 92 71 3e 5f 09 4b bc f8 55 6d bd 4f 38 86 bd
       0.23591016 -0.012392371 -0.057943314 -0.06553709
000350 d8 50 48 bd 8c 1a 70 3d 4d 39 2f 3e 2c 45 02 be
       -0.048905224 0.058619067 0.17111702 -0.127217
000360 fb d7 a7 bd 78 95 4d 3d 8d 9d 88 3e 65 8a bf 3c
       -0.08195492 0.050191373 0.26682702 0.023381421
000370 2c 77 6b 3b 61 49 84 bd 47 ec 7a bd 83 81 ea be
       0.0035929186 -0.064593084 -0.061260488 -0.45801935
000380 c9 30 d2 3c ea 02 1d 3d 48 be 5f 3d 40 5a e2 be
       0.025658028 0.038332857 0.054624826 -0.4420948
000390 3c 71 b4 be e2 b2 48 3e f2 10 9c bd fe 4d 09 3e
       -0.3524264 0.19599488 -0.076204196 0.13408658
0003a0 1d e4 8b 3d 26 7e 61 be ef 00 1b be 13 96 4a 3d
       0.068306185 -0.22020778 -0.15137075 0.04945953
0003b0 07 53 fa bd 47 0b 46 bd 93 27 da bd 4a 9f 06 be
       -0.122228675 -0.0483506 -0.106520794 -0.13146701
0003c0 0c e1 21 be 3c 59 6c bd cd f6 c8 bd 73 67 ff 3d
       -0.15808505 -0.057702288 -0.098126985 0.12470903
0003d0 c0 f2 41 3d 5f c2 f1 3c 36 35 0a 3e c7 8a 6d bc
       0.047350645 0.029511629 0.13496861 -0.014498419
0003e0 af 62 8d bd 1f 14 23 ba 9b 5c 1a 3e c4 00 2e be
       -0.06903588 -0.0006220955 0.15074389 -0.1699248
0003f0 3a c1 9a 3c 6c 0d 0a 3d ca a9 87 3c f7 04 ef 3d
       0.018890966 0.033704206 0.016560454 0.11670869

layer.weight_hh_l0 f4 [20, 20]
000000 c6 e3 64 3e 71 80 59 bd c7 97 b4 bc b2 ce 04 3e
       0.22352514 -0.053101007 -0.02204503 0.12969473
000010 b4 56 0f 3e 64 23 03 be 79 0c 94 3e 0d 18 d8 3e
       0.13997918 -0.12806469 0.28915766 0.4220585
000020 da 9e 95 3e 86 08 a1 3b 00 b0 70 3e 4d 3f 9e 3e
       0.29222757 0.004914346 0.23504639 0.3090767
000030 f4 f6 b8 bd d5 4e 73 3d 9a a7 79 bd 8d fc 9a bd
       -0.090314776 0.059401352 -0.060950853 -0.075677015
000040 de b6 49 be be f7 15 3f 38 e1 4d 3e d8 fc 7f bd
       -0.19698665 0.5858115 0.20105445 -0.06249699
000050 09 02 80 be 2b fe 88 3e 27 8a 0b bf 4f 60 49 be
       -0.25001553 0.26756415 -0.5450768 -0.19665645
000060 92 90 82 3d 35 bc 65 be 7f 43 85 be 4a 51 26 3e
       0.06375231 -0.22435077 -0.26028058 0.16241947
000070 81 0e fd 3d e6 16 a8 be 5b d3 b8 bd 0e bd b4 be
       0.12356282 -0.3282997 -0.09024688 -0.35300487
000080 c8 6f f5 be 6e 3a 7c be 2c 00 70 be 29 8b f4 be
       -0.47936845 -0.24631664 -0.23437566 -0.4776242
000090 98 bb 7e 3d fb b1 01 bd ee c6 b0 be 0f 85 dc bd
       0.062190622 -0.031663876 -0.3452677 -0.107675664
0000a0 30 20 84 3e df a6 a7 be 88 b3 0b 3d da cb b7 3c
       0.25805807 -0.327445 0.03410676 0.022436071
0000b0 89 aa 02 3e 05 96 2b 3e 79 aa 48 ba 1b 07 cd 3e
       0.12760366 0.16756447 -0.0007654797 0.40044484
0000c0 cc 28 cb 3e 0e 01 37 bd dd c2 29 bf d0 da 15 bd
       0.39679563 -0.04467874 -0.6631296 -0.03658563
0000d0 21 2e e9 bb 70 ce 25 bf 08 45 36 3e 09 68 67 3e
       -0.0071160947 -0.64768124 0.17799771 0.2259828
0000e0 e5 df a1 be 0d fa 3b 3e 92 fe 2e 3d 59 52 37 be
       -0.3161613 0.18357106 0.042723246 -0.17902507
0000f0 b7 83 d5 3e 84 87 20 3d c2 9f 75 3e 84 6e c9 bd
       0.41702053 0.039191738 0.23986724 -0.09835532
000100 8f d2 41 be ac 5d 10 3e c3 9a b6 3e 0f 3e ab 3e
       -0.18927978 0.14098233 0.3566495 0.33445784
000110 93 0e 04 bd 2b 9a ca 3e d0 6c ac 3d 75 73 ef 3e
       -0.03224046 0.39570746 0.08419192 0.46767774
000120 dc 6e 95 3d 1d f1 51 be 76 53 45 3d 95 2a c7 bd
       0.072965354 -0.20502134 0.048175298 -0.09724919
000130 13 b9 9a be fb dc 53 3e 5c 2c 83 bd 45 ec a9 be
       -0.30219325 0.20689766 -0.06404945 -0.33188072
000140 8a e7 02 bf 38 c7 3b 3e a3 2c e8 3e 75 8f ac 3d
       -0.5113455 0.18337715 0.45346555 0.084258
000150 7c d8 be be da eb 82 be 53 23 42 3a 67 98 26 bf
       -0.3727454 -0.25570565 0.00074057764 -0.650763
000160 51 a1 ef be 72 de 48 3e 00 79 cb 3e 78 8f 03 3e
       -0.46802762 0.19616106 0.39740753 0.12847698
000170 b7 10 fb bd 7b c2 e8 3e 9e f1 1b bd 80 8e 09 3e
       -0.122590475 0.45460877 -0.03807222 0.13433266
000180 c2 30 af bd 38 fc 0e bf 21 17 7a 3b a6 01 91 be
       -0.08554222 -0.55853605 0.0038160759 -0.2832157
000190 62 a8 25 3e 34 e1 63 be 0c 12 8b 3e 9b 1e c9 3e
       0.16177514 -0.22253877 0.27162206 0.39281163
0001a0 64 17 07 bd 3f 48 71 3e 37 93 ba 3e 91 d7 ee 3d
       -0.03298129 0.23562716 0.3644044 0.1166221
0001b0 24 59 a3 bd bf 74 27 3e 67 21 1a 3e f1 a8 ab bd
       -0.079759866 0.16353129 0.15051804 -0.083818324
0001c0 bf 67 c2 3e ff d6 59 3c 61 74 82 3e cd 86 03 3f
       0.37969777 0.013295888 0.25479415 0.51377565
0001d0 8d d7 22 be 1c 9a c0 3e 53 1e 07 3e 63 01 4b 3e
       -0.15902539 0.37617576 0.13195162 0.19824748
0001e0 f4 e1 85 3c f1 f2 1a 3e ce f5 48 3e 67 05 35 3e
       0.016343094 0.15131737 0.19625017 0.17677842
0001f0 31 e9 e1 bd 2b 38 d7 3d da 54 5e 3e 12 40 78 3e
       -0.11030806 0.1050876 0.21712056 0.24243191
000200 d2 b9 56 3e 75 7f 13 3e bf 1f 4e 3e 12 99 6d 3e
       0.20969322 0.1440409 0.20129298 0.23202923
000210 b6 a1 ed bd 57 43 74 bc 8a ac 71 3e df cd f3 bd
       -0.116031095 -0.014908633 0.23600975 -0.11904501
000220 d8 dd 98 be 0b 09 48 3e d2 b4 d8 bd a0 e1 1b bf
       -0.29856753 0.195347 -0.10581364 -0.6089115
000230 e0 c5 dc bd 25 9d aa bd 03 a7 6d 3e 14 8c 3d 3e
       -0.10779929 -0.08330754 0.23208241 0.18510467
000240 32 5b ce be cc d3 f0 bd 93 39 73 3e 65 c3 e0 3c
       -0.40303952 -0.11759147 0.23752432 0.027436921
000250 0a 31 ae bd 23 5a 49 3e bd 9b e2 3e 0c 84 19 3e
       -0.08505447 0.1966329 0.44259444 0.14991778
000260 88 fd 31 3e 74 96 6b 3d 99 8a c0 3e b8 bd 0c be
       0.17381871 0.05751653 0.37605742 -0.13744247
000270 78 c7 83 bd b9 1f 1b 3d 2f 5d b1 bc 4a e8 1a be
       -0.0643453 0.03787205 -0.021650879 -0.15127674
000280 d9 4c a0 3e f6 27 e8 bb c8 88 2e 3e 36 0a a7 3e
       0.3130863 -0.007084842 0.17044365 0.32624978
000290 95 fa 61 3c 49 a9 5b 3d 3d b3 16 bc 70 09 38 bd
       0.013792654 0.05362824 -0.009198007 -0.044930875
0002a0 0c ca 9f bd a2 6a 32 3c b7 25 38 be 90 20 05 be
       -0.07802209 0.010889681 -0.17983137 -0.13000703
0002b0 89 bc 54 3d a6 c7 4c 3e 3d 87 a5 3d e7 c9 98 3d
       0.051937614 0.19998035 0.08082435 0.07460385
0002c0 b7 f9 98 be d5 50 8b 3e 63 c7 d9 3e 25 06 13 3f
       -0.29878017 0.27210107 0.42534932 0.5743125
0002d0 bd aa 94 3e 65 a6 ec 3d 43 76 d0 3e 90 15 ea 3d
       0.29036513 0.11555175 0.40715227 0.11429894
0002e0 8a 2f a8 be c0 82 73 3e e6 62 92 3e 8c 52 f2 3e
       -0.3284877 0.23780346 0.2859108 0.47328603
0002f0 e8 e9 a8 3d 23 ce be 3a 2d ff 24 be cf 38 b1 3e
       0.08247739 0.0014557283 -0.16112967 0.34613654
000300 91 15 04 3e b9 76 ea be f0 20 3e 3e 14 f3 61 be
       0.12898852 -0.45793703 0.18567252 -0.22065383
000310 71 c1 e0 be 6b 16 25 be f7 69 84 bd 26 f2 02 bf
       -0.43897584 -0.16121833 -0.06465524 -0.5115074
000320 bc a1 a3 3d 0d c8 d7 3e 71 64 e0 3d 34 4e 6f be
       0.07989833 0.42144814 0.10956658 -0.23369676
000330 d8 75 4b bf 3a d0 37 3d 07 0f 23 bd 1f 02 1d bd
       -0.7947669 0.044876315 -0.039809253 -0.0383321
000340 58 c0 e1 3d d5 60 99 be b1 10 14 bf 1c 77 d8 3d
       0.11023015 -0.2995669 -0.5783797 0.10569593
000350 0b 2b 7c be 76 a4 16 be c1 e4 61 3e 78 f5 a4 be
       -0.24625795 -0.14711174 0.22059919 -0.32218528
000360 b7 eb 3f bf bc d3 ef 3c 88 c9 28 be c3 98 26 3e
       -0.7496905 0.029275768 -0.16483128 0.16269211
000370 90 de 87 3e c6 e8 86 be d2 f4 2a 3d a4 77 5d be
       0.2653699 -0.26349467 0.041737385 -0.2162767
000380 57 58 f9 3d 0d 1d a4 3d 0c a6 a2 bd 18 f6 7b 3e
       0.121750526 0.080133535 -0.07941827 0.24605596
000390 16 60 b8 3e 52 63 0b be d3 a9 26 bf c1 06 5d 3e
       0.36010808 -0.13612106 -0.6510288 0.21584608
0003a0 90 5e 60 3e b4 e0 59 be 3e db f8 3d 7b f2 84 bc
       0.21911073 -0.21277124 0.12151192 -0.016228905
0003b0 df 4b 81 be d0 89 8f bd d6 57 83 3e f4 55 8f be
       -0.25253198 -0.070087075 0.2565295 -0.27995265
0003c0 05 5f ca 3e 29 b0 6c be 34 90 c9 3b 99 f8 44 3e
       0.3952562 -0.23114075 0.0061512236 0.19235457
0003d0 40 33 8c be 30 2f ca 3e 50 27 ec 3d f1 6a 79 bc
       -0.2738285 0.39489126 0.11530936 -0.015223251
0003e0 a6 ba 20 3e 1e 63 e8 3e 07 95 53 3e f0 7f a3 3e
       0.156962 0.4538812 0.20662318 0.31933546
0003f0 69 de f6 3e 06 ff 42 be f7 ee b5 3d 8b a8 a3 3e
       0.4821656 -0.19042596 0.088834696 0.31964526

layer_class.weight f4 [7, 20]
000000 9b c4 eb 3d 01 40 f4 be 0c 8a 23 3e b8 6f d3 3e
       0.11512109 -0.4770508 0.1597063 0.41296172
000010 38 cb cb 3e 89 9a 8f 3e 45 bb 1a 3f 86 36 b6 3e
       0.3980348 0.28047588 0.60442 0.35588473
000020 bc ee b1 be ee f6 1e 3f eb 9c 13 bf 0f f4 51 3e
       -0.34752452 0.62095535 -0.5766131 0.20503257
000030 55 0a 0c 3f 11 81 d7 be b6 ab 0c 3f aa a6 36 3e
       0.54703265 -0.42090657 0.5494951 0.17837015
000040 23 b3 88 3d 64 70 93 be b3 3d 15 3f 08 9c 02 bf
       0.066747926 -0.28796685 0.5829727 -0.51019335
000050 08 f3 03 bb 4f e2 6c be 45 6e ee 3e 91 00 c4 3d
       -0.0020133872 -0.23133205 0.46568504 0.095704205
000060 61 2d f4 bd b6 23 b7 3e 3f 40 e5 bd 99 50 39 be
       -0.11922718 0.35769433 -0.111938946 -0.18097152
000070 b7 a7 dc 3e 2b 14 a7 3e 07 9e 40 3f 0b 38 0d 3f
       0.43096706 0.32632574 0.7524113 0.5516364
000080 43 08 ee 3e 81 e2 cf be de cd 9b 3e 03 d7 92 3e
       0.46490678 -0.40602496 0.30430502 0.28679666
000090 dd 17 fc bc c7 40 c4 be 64 53 a2 bd 35 23 bc be
       -0.030773098 -0.3833067 -0.07926062 -0.3674561
0000a0 2e be af 3e a0 53 1d be a4 96 ee bc 86 e2 59 3d
       0.34324783 -0.15363932 -0.029124565 0.053194545
0000b0 0f 40 26 bf af 2d 09 3f 05 62 95 3d 28 24 83 be
       -0.64941496 0.5358533 0.07294086 -0.25613523
0000c0 5b 93 e3 3e d8 5c 13 be 3d f0 26 bf a4 34 37 bc
       0.4444836 -0.14390886 -0.65210325 -0.011181984
0000d0 aa bc c4 3e 22 3d d3 be 06 54 6d 3e be fc df 3d
       0.3842519 -0.41257578 0.23176584 0.109368786
0000e0 dc 9e ef be 11 36 96 bd 13 88 06 3f 38 02 00 3f
       -0.46800888 -0.07334531 0.5255138 0.50003386
0000f0 be ba 7b 3e 85 35 8c be b2 20 86 be d0 5b d8 3e
       0.24582955 -0.27384582 -0.2619682 0.42257547
000100 0e 66 ff 3e a0 1e 6f 3e 64 e8 04 3f b9 85 01 3f
       0.4988255 0.23351526 0.519171 0.5059467
000110 5b 82 aa 3e d7 4a a6 3e b6 cf 0d 3f 95 25 96 be
       0.33302578 0.32478973 0.55395067 -0.29325548
000120 47 75 81 3e 79 de 92 3e c1 f5 08 be c3 bf 9e 3e
       0.25284788 0.28685358 -0.13374998 0.31005678
000130 c8 4b 79 3e b1 f8 17 3f f3 9f a4 3e a6 ac be 3e
       0.24345315 0.5936385 0.32153282 0.37241095
000140 0b ff c3 3e 05 63 d5 3e 0d 17 13 3f ed c6 af 3e
       0.3828052 0.41677108 0.5745705 0.34331456
000150 30 73 1e bf 68 b4 14 be 4c 50 af 3e fb c2 78 be
       -0.6189451 -0.14521945 0.3424095 -0.24293129
000160 7c aa a8 bd 77 a1 fd 3e 4a 6d 15 3f 31 70 33 3e
       -0.08235642 0.4953725 0.58369887 0.17523266
000170 d8 36 74 be 04 44 c9 3e 53 ee b5 3e 90 d9 2f be
       -0.23849046 0.39309704 0.3553339 -0.17172837
000180 74 60 04 bf 93 fa 24 3f 24 13 1d 3e 81 24 24 3e
       -0.51709676 0.64444846 0.15339333 0.1602955
000190 fb 5a d9 3e 08 77 d0 3d 2f 6a 5c be bb f3 93 be
       0.42452225 0.101789534 -0.21524881 -0.2889689
0001a0 71 94 fd bd 43 61 51 be dc 8b 8a 3e 55 a3 04 3f
       -0.123818286 -0.20447259 0.2705983 0.51811725
0001b0 9f 85 b6 3e 42 8e 80 be 15 15 09 bf a0 51 e7 3e
       0.3564882 -0.25108534 -0.53547794 0.45179462
0001c0 db ee 09 be 9c c9 92 be 54 f5 b6 3e a2 4b b9 be
       -0.13470022 -0.2866944 0.35734046 -0.36190516
0001d0 2f a5 e4 be 47 ee 1f 3f a8 24 a4 be 41 b8 0a bf
       -0.44657275 0.6247296 -0.32059216 -0.541874
0001e0 cf 2e ab be 45 11 3c 3e 0f 84 b4 be b2 5b ca be
       -0.3343415 0.18365963 -0.35257003 -0.39523083
0001f0 a2 d3 7c 3e 9a 16 a5 be 60 b5 9a be ba 70 6e be
       0.24690107 -0.32243806 -0.30216503 -0.2328519
000200 11 fc c8 bd 84 f1 78 be 7d 04 cc 3d 04 e6 d6 be
       -0.09813703 -0.24310881 0.099617936 -0.41972363
000210 93 6c be bd 34 0b e9 3e a2 a3 de be 55 e5 db be
       -0.09298053 0.4551636 -0.43484217 -0.42948404
000220 4f 7e 0d 3e 7e 2b 7d be 9e e6 aa be 85 b4 42 3e
       0.13817714 -0.24723622 -0.33379072 0.19014175

layer_class.bias f4 [7]
000000 51 8a 8c be ca 73 19 3d d1 fa 84 3d 96 57 7b be
       -0.27449277 0.03746394 0.06493152 -0.2454513
000010 84 5b 5f be c5 81 bb be 69 07 96 3d
       -0.21812254 -0.36622444 0.07325632
